data_aug/mnist_weights_RandomRotation.pth (torch, 250119 bytes, 10 tensors)

conv_layer1.0.weight f4 [6, 1, 5, 5]
0	0xbe99160c	-0.29899633
1	0xbe986d9d	-0.29771128
2	0x3db4c2e2	0.088262334
3	0x3e2f18c3	0.1709929
4	0xbe05b3a2	-0.13056806
5	0xbee86ef4	-0.4539715
6	0xbd1bb71d	-0.038016427
7	0x3eaa0e8a	0.33214217
8	0x3c0d7d06	0.008635765
9	0x3ddb0246	0.10693793
10	0xbe3e76b6	-0.18599972
11	0xbd092517	-0.033482637
12	0x3ea2f1e1	0.31825164
13	0xbb6d4c3c	-0.003620877
14	0xbe3d03c4	-0.18458468
15	0x3ca667c8	0.020313159
16	0x3e7f98d9	0.2496065
17	0x3cd1e28e	0.025620725
18	0x3e5491a3	0.20758681
19	0x3d7ca81b	0.061683755
20	0xbb8ebee2	-0.004356251
21	0x3ea1bac7	0.31587812
22	0x3e981a6d	0.2970766
23	0xbd004db3	-0.0313241
24	0x3de2783c	0.11058089
25	0x3c962d5a	0.018332172
26	0xbe209dfa	-0.15685263
27	0x3d397f59	0.045287464
28	0xbda70350	-0.08154929
29	0x3db2a16e	0.087221965
30	0xbcf84f6d	-0.03031131
31	0xbd2e8dce	-0.042615704
32	0x3e837d5c	0.2568158
33	0x3e3530ad	0.1769435
34	0xbe8cf4b9	-0.2753046
35	0x3eb70ccc	0.3575195
36	0x3e8dc251	0.27687314
37	0x3e9bba6d	0.3041567
38	0x3e51c236	0.20484242
39	0xbe33354e	-0.17500803
40	0xbd9c8789	-0.07643039
41	0xbe42b69f	-0.19014977
42	0xbd7978db	-0.060906272
43	0x3e9d44d5	0.30716577
44	0x3e183b08	0.14866269
45	0xbd8a9b60	-0.06767917
46	0x3c944cd5	0.018103043
47	0xbe463d5e	-0.19359347
48	0x3dac1b08	0.08403593
49	0x3e83582a	0.256532
50	0x3d1ec9e4	0.038766757
51	0xbed8c729	-0.42339447
52	0xbece23ab	-0.40261588
53	0x3da51bbe	0.08061932
54	0x3e0d87be	0.13821313
55	0x3db527aa	0.08845456
56	0xbedc88ac	-0.43073022
57	0xbe0b5e39	-0.13610162
58	0x3e88be01	0.2670746
59	0xbdb54300	-0.0885067
60	0x3ecb7aaa	0.39742023
61	0x3d8a04a5	0.06739167
62	0x3cc0fdaf	0.023558466
63	0x3e1fd76e	0.15609524
64	0xbe3aef92	-0.18255451
65	0x3eaba471	0.33523896
66	0x3e9fdf75	0.31225172
67	0x3e63cb56	0.22245535
68	0xbe1e1c05	-0.15440376
69	0xbea17f2e	-0.31542343
70	0xbe889bb9	-0.26681307
71	0xbe108054	-0.14111453
72	0x3e876c65	0.26449886
73	0x3e25d437	0.16194235
74	0x3e57ba6d	0.2106721
75	0xbe95b98e	-0.2924313
76	0xbec25838	-0.3795793
77	0xbea9b11e	-0.33142942
78	0xbed2e4de	-0.41190237
79	0xbe8a274f	-0.26983115
80	0xbdb5700d	-0.088592626
81	0xbe9fba6f	-0.31196925
82	0xbdc000a9	-0.09375126
83	0xbda8a167	-0.0823391
84	0x3e00a401	0.12562563
85	0x3ed4132f	0.41420886
86	0x3d24d539	0.040242407
87	0x3d56744f	0.052357014
88	0x3ec41eb4	0.38304675
89	0x3e8f9cb6	0.28049248
90	0x3e4ffc48	0.20311081
91	0x3eab8806	0.33502215
92	0x3e75528b	0.23957269
93	0x3e3fd41c	0.18733257
94	0x3e264082	0.16235545
95	0x3ce510cf	0.027962117
96	0x3da63d01	0.08117104
97	0x3db680ee	0.0891131
98	0xbd00f0d1	-0.03147966
99	0xbe10f1a1	-0.14154674
100	0x3e2a929f	0.16657494
101	0xbc07e9b3	-0.008295464
102	0x3df5678d	0.11982641
103	0x3b2f5cea	0.0026758262
104	0xbd9d730b	-0.07687958
105	0x3df76ca9	0.12081272
106	0x3e306883	0.17227368
107	0xbdf57dac	-0.11986861
108	0x3d8918fe	0.0669422
109	0x3db7125c	0.08939049
110	0xbd58fcc9	-0.05297545
111	0xbcf38a52	-0.029729042
112	0x3e751ce6	0.23936805
113	0x3ed1d356	0.4098155
114	0x3d253355	0.040332157
115	0x3e23c5f2	0.15993479
116	0x3ed01696	0.40642232
117	0x3e59984c	0.21249503
118	0x3e7ea49e	0.24867484
119	0x3e33c3e5	0.17555197
120	0x3e4ce76b	0.20010154
121	0x3e645b8e	0.2230055
122	0xbe808848	-0.25103974
123	0xbea3e46b	-0.32010207
124	0xbeae80c4	-0.34082615
125	0xbd82779d	-0.06370471
126	0xbdc283d8	-0.094978034
127	0x3e24f8fb	0.16110604
128	0x3dda4297	0.10657232
129	0x3d54573c	0.051841006
130	0x3d205dd0	0.039151967
131	0x3e05197d	0.12998004
132	0x3e4b7290	0.19867921
133	0x3e60916a	0.21930471
134	0x3d639df6	0.055570565
135	0xbe33b975	-0.17551215
136	0xbd95335c	-0.07285187
137	0xbdf1b89f	-0.11802792
138	0x3e3f8962	0.18704751
139	0x3e9b7c2c	0.30368173
140	0xbecd2b69	-0.40072182
141	0xbe20c6be	-0.15700814
142	0xbe3039ad	-0.17209502
143	0x3ea99725	0.33123127
144	0x3eaea4af	0.3411002
145	0xbf09166c	-0.5354984
146	0xbe8c4961	-0.27399734
147	0xbc0ceebb	-0.00860184
148	0x3e8fa7b5	0.28057638
149	0x3ed1b925	0.40961567

conv_layer1.0.bias f4 [6]
0	0xbcff24c4	-0.03114546
1	0xbd896ecc	-0.06710586
2	0xbce8714b	-0.028374335
3	0x3bc2e26a	0.005947401
4	0xbd477d5d	-0.04870354
5	0x3c71fecf	0.014770224

conv_layer2.0.weight f4 [16, 6, 5, 5]
0	0xbdc6b58d	-0.09702597
1	0x3c8df393	0.01732806
2	0xbc817e9f	-0.015807448
3	0x3dc4b367	0.09604531
4	0x3df38f60	0.11892581
5	0xbd78eeb6	-0.060774527
6	0xbd987c96	-0.07445638
7	0xbd4d1193	-0.05006559
8	0x3ce873df	0.028375564
9	0x3d88f01b	0.066864215
10	0x3da2a07f	0.079407685
11	0x3d979804	0.074020416
12	0xbd807c0d	-0.06273661
13	0xbda3ec00	-0.08003998
14	0x3ca20971	0.019779893
15	0xbd2aa0c1	-0.041657213
16	0xbd9a2c36	-0.07527964
17	0x3cde23c2	0.02711666
18	0x3e224a8a	0.15848747
19	0xbcea4285	-0.028596172
20	0xbd534bdc	-0.051586017
21	0xbd850db9	-0.06496758
22	0xbe4e90bd	-0.20172401
23	0xbe35e01a	-0.17761269
24	0xbe095822	-0.13412526
25	0xbde6db54	-0.11272302
26	0xbbaab80e	-0.0052099293
27	0xbce1a2cd	-0.02754345
28	0x3c1da214	0.009621162
29	0x3c439c8b	0.011939178
30	0x3d08d1c6	0.03340318
31	0xbdb92771	-0.09040726
32	0x3dab2b6c	0.083578914
33	0xbce29439	-0.027658569
34	0x3d0fb874	0.035088018
35	0x3e66c464	0.22535855
36	0x3dc861d7	0.097842865
37	0xbdbdd97b	-0.09269997
38	0xbd10baad	-0.035334278
39	0x3d498fcb	0.049209397
40	0x3e3a2e81	0.18181802
41	0x3e722b03	0.2364922
42	0x3e344aa9	0.17606606
43	0xbcf52cf3	-0.02992866
44	0xbd953bdc	-0.07286808
45	0xbe14dfde	-0.14538524
46	0x3dedcf47	0.11611801
47	0x3e39f074	0.18158132
48	0x3d27fcae	0.04101246
49	0x3cd78590	0.026308805
50	0x3da52ee9	0.08065588
51	0x3ca6fd79	0.020384537
52	0x3d58f9cd	0.052972604
53	0x3dfb2f29	0.122648545
54	0xbd03c7ac	-0.032172844
55	0x3e1ed84c	0.15512198
56	0x3bb4f692	0.0055225575
57	0xbd8a8ab8	-0.0676474
58	0x3d75beb2	0.059996314
59	0x3dd20512	0.10254873
60	0x3e845b2b	0.25850806
61	0x3e7e0d00	0.24809647
62	0xbd4f7405	-0.050647754
63	0xbe4378c8	-0.19089043
64	0xbe56c426	-0.20973262
65	0xbde7beb4	-0.113156706
66	0x3eab06ad	0.3340353
67	0x3ec192a6	0.37807196
68	0x3e604c5c	0.21904129
69	0x3c190e7e	0.009341834
70	0xbde390cf	-0.111116044
71	0xbe4f2ece	-0.20232698
72	0x3dd2a39f	0.102851145
73	0x3e53882a	0.20657411
74	0x3e3992be	0.18122384
75	0x3dc760b4	0.097352415
76	0x3d09f42d	0.03368013
77	0x3c044f2e	0.0080755185
78	0xbcd5405e	-0.02603167
79	0x3d8e8486	0.069588706
80	0x3da390d6	0.0798661
81	0x3d564942	0.052315958
82	0xbe036558	-0.12831628
83	0xbe32c566	-0.17458114
84	0x3dd05af0	0.10173595
85	0xbd11c02a	-0.035583653
86	0x3c71712a	0.014736453
87	0xbe47d35b	-0.1951422
88	0xbe316f21	-0.17327549
89	0xbea6514c	-0.324839
90	0xbd94919d	-0.07254336
91	0x3d4d4d65	0.050122637
92	0x3e832ccd	0.25620118
93	0x3df6d256	0.12051837
94	0xbd8e10ce	-0.06936799
95	0xbd53592b	-0.05159871
96	0xbeb1c88d	-0.3472332
97	0xbd9e0a26	-0.077167794
98	0x3e59a392	0.21253803
99	0x3e86d2f1	0.2633281
100	0x3d4b4d0a	0.049634017
101	0xbd3c9bdd	-0.04604708
102	0xbdac427c	-0.084111184
103	0x3cff2241	0.031144263
104	0x3cddab6d	0.027059281
105	0xbb893c4f	-0.0041880975
106	0xbcf767e2	-0.030200902
107	0xbddce10d	-0.107851125
108	0xbda4594f	-0.08024847
109	0x3c6f3b78	0.014601581
110	0xbd5399ee	-0.05166047
111	0xbe28a5d1	-0.16469504
112	0xbc91b1f1	-0.017785044
113	0xbd1c1554	-0.038106278
114	0xbda894ac	-0.08231482
115	0x3de39769	0.111128636
116	0x3d2814c6	0.041035436
117	0xbdb11548	-0.08646637
118	0xbde5d8fd	-0.11223028
119	0xbe29dd29	-0.16588272
120	0xbe230e4f	-0.15923427
121	0x3d8aa0dd	0.067689635
122	0x3d9ac139	0.075563855
123	0x3d34af52	0.04411251
124	0xbc2aeb58	-0.010432087
125	0xbe07eff4	-0.13275129
126	0xbcae6e92	-0.021292958
127	0x3d049737	0.032370772
128	0x3cd054da	0.025431085
129	0x3e379829	0.17929138
130	0xbe786e88	-0.24260914
131	0xbe18ee97	-0.14934765
132	0xbd9bab5e	-0.07601045
133	0xbc9f5f7d	-0.019454712
134	0x3e74f842	0.23922828
135	0x3da41668	0.08012086
136	0xbe2edb75	-0.17075904
137	0xbe3df1a9	-0.18549217
138	0xbd4e5881	-0.050377373
139	0x3d3b5f0b	0.045744937
140	0x3da33936	0.079698965
141	0x3e3384a0	0.17531061
142	0xbbd4b6a3	-0.0064914986
143	0xbe48c996	-0.19608149
144	0xbe32109f	-0.17389153
145	0xbd75c951	-0.060006443
146	0x3d8a90d2	0.067659035
147	0x3d5b4f59	0.05354247
148	0x3c94450a	0.018099327
149	0xbb6dbc71	-0.003627565
150	0x3e1ac868	0.15115511
151	0x3e15221b	0.14563791
152	0x39fa5069	0.00047743626
153	0xbcc686a0	-0.024234116
154	0xbd4220f8	-0.047394723
155	0x3e037460	0.12837362
156	0xbba79a55	-0.0051148334
157	0x3defd7cf	0.11711084
158	0x3dcd370f	0.10020267
159	0x3db3af38	0.08773655
160	0x3db67098	0.08908194
161	0x3d6fa2e8	0.05850497
162	0xbb996ab8	-0.0046819113
163	0x3d93000b	0.071777426
164	0xbd20fd35	-0.039303977
165	0xbe70c94b	-0.23514287
166	0xbe088883	-0.13333325
167	0xbddee702	-0.10883905
168	0xbdce1eb4	-0.1006445
169	0xbe619a6d	-0.22031565
170	0xbcbbf946	-0.022946011
171	0xbb8e777d	-0.00434774
172	0x3da04770	0.078261256
173	0xbc87c0f9	-0.016571509
174	0xbd78d5d2	-0.06075079
175	0xbe031fac	-0.1280505
176	0xbc7d0cac	-0.015444916
177	0xbe1fe4ba	-0.15614596
178	0x3bba0f52	0.005678096
179	0x3d1f8565	0.038945574
180	0x3befcd04	0.007318141
181	0xbd2ad356	-0.041705452
182	0x3d97c203	0.07410052
183	0xbe07f08e	-0.13275358
184	0xbe866950	-0.26252222
185	0x3e01bf55	0.12670644
186	0x3ceaea21	0.028676094
187	0x3d85a7d0	0.06526148
188	0x3e7a0b7e	0.24418446
189	0x3d6ec4e2	0.05829323
190	0x3dd0e8a0	0.1020062
191	0x3e26f0c3	0.16302781
192	0x3e699124	0.22809273
193	0x3e2cea8a	0.16886345
194	0x3d983030	0.07431066
195	0xbca40348	-0.020021096
196	0x3aad1d7e	0.0013207642
197	0x3d104343	0.035220396
198	0x3dae280a	0.085037306
199	0xbd5d0e87	-0.053968932
200	0xbdb43c9d	-0.088006236
201	0xbdb0489b	-0.086075984
202	0x3c2c5e51	0.010520534
203	0xbe841364	-0.25796044
204	0xbe3fe17d	-0.1873836
205	0x3c92a361	0.01790017
206	0xbd87cd7e	-0.066309914
207	0x3cbedb17	0.02329783
208	0x3dc0ece1	0.09420181
209	0x3c87c89e	0.016575154
210	0x3e21be13	0.15795164
211	0x3db47573	0.08811464
212	0x3e2cb2fb	0.1686515
213	0x3decd4f2	0.115640536
214	0x3e5e10d8	0.21686113
215	0xbc3cc65a	-0.0115219
216	0x3c9963c7	0.018724335
217	0x3d5b2879	0.053505395
218	0xbde93aec	-0.113881916
219	0xbd9d41c5	-0.0767856
220	0xbe0fd30a	-0.14045349
221	0xbe1d4fa5	-0.15362413
222	0xbdb9411b	-0.09045621
223	0xbe0dd3be	-0.13850304
224	0xbaeeb208	-0.0018211016
225	0xbb6bd8a6	-0.0035987287
226	0x3c2776ac	0.010221165
227	0xbe3a1d7f	-0.18175314
228	0xbdee116e	-0.11624418
229	0xbd8da78e	-0.06916724
230	0xbe02f3b2	-0.12788275
231	0xbe0139ce	-0.12619707
232	0xbe3c6cfb	-0.18400948
233	0xbe0146bf	-0.12624644
234	0xbe5969c3	-0.21231751
235	0x3dccfdb0	0.100093246
236	0x3e16e6ff	0.14736556
237	0x3e0e4ea4	0.13897187
238	0x3e13c043	0.14428811
239	0x3e277392	0.1635268
240	0x3dfe830a	0.124273375
241	0x3dd0dcd5	0.1019837
242	0x3bf1bbf8	0.007377144
243	0xbe0f51f6	-0.1399611
244	0xbd544155	-0.051820118
245	0xbe61fe2e	-0.22069618
246	0xbcb9b8d1	-0.022671135
247	0xbdbaaf04	-0.09115413
248	0xbdadcca8	-0.08486301
249	0xbe04736d	-0.12934656
250	0xbd38a064	-0.045074835
251	0xbbe3b2bb	-0.0069487966
252	0xbd90a8e8	-0.07063466
253	0x3d5014a0	0.05080092
254	0xbb5a82f5	-0.0033342217
255	0xbd64f356	-0.055896126

conv_layer2.0.bias f4 [16]
0	0xbe16d909	-0.1473123
1	0xbd3ddfd9	-0.046356056
2	0xbd8a6412	-0.06757368
3	0xbd298b58	-0.041392654
4	0xbd93b0a6	-0.072114274
5	0xbe0caa82	-0.13736919
6	0x3dba3ff5	0.0909423
7	0x3c16cb28	0.00920371
8	0xbe2f3c64	-0.17112881
9	0xbd20d2da	-0.039263584
10	0xbdabacc9	-0.083825655
11	0xbd6e4b3e	-0.058177225
12	0xbba5ccab	-0.0050597987
13	0xbe2daa58	-0.16959512
14	0xbe2b0ca8	-0.16704047
15	0xbd14ace8	-0.03629771

C5_layer.0.weight f4 [120, 400]
0	0xbde478f3	-0.11155882
1	0xbd6e5ddd	-0.058194984
2	0x3dbeffdd	0.09326146
3	0xbd420c59	-0.047375057
4	0xbdc0952d	-0.09403453
5	0xbdaf839b	-0.085700236
6	0xbd687cf7	-0.0567598
7	0x3d76106a	0.060074247
8	0x3cfe28ab	0.031025251
9	0xbb9a9865	-0.004717874
10	0x3d0bcb21	0.034129266
11	0x3cd0d17f	0.02549052
12	0xbcbd3fd2	-0.023101721
13	0x3ae6c098	0.0017605005
14	0x3c4643a0	0.012101084
15	0x3daf1f11	0.08550847
16	0x3dca1e82	0.098691
17	0x3db57b60	0.088614225
18	0xbcad898a	-0.021183748
19	0x3d975d2b	0.07390817
20	0xbe19ef95	-0.150328
21	0xbdd95977	-0.10612767
22	0xbd1c9f62	-0.038237937
23	0xbb885d75	-0.0041615316
24	0xbb1ab144	-0.0023604194
25	0xbc6ecdd9	-0.014575445
26	0xbc6b297c	-0.014353152
27	0xbc2569b8	-0.010096006
28	0xbdd034d2	-0.10166325
29	0xbdb7390d	-0.089464284
30	0xbdcd8d2d	-0.10036693
31	0xbaf762e7	-0.001887408
32	0x3cf9b7e4	0.030483194
33	0xbcef595b	-0.029217413
34	0xbdb3d289	-0.08780391
35	0x3d31f948	0.043450624
36	0xbe4f02a4	-0.20215851
37	0xbcc825e1	-0.024432125
38	0xbd930b8a	-0.07179935
39	0xbd773ae5	-0.0603589
40	0x3e2ceae5	0.1688648
41	0x3db14313	0.086553715
42	0xbd38a46b	-0.045078676
43	0x3d43b963	0.04778422
44	0x3da07734	0.07835236
45	0x3d943ad0	0.0723778
46	0x3d8b1175	0.06790439
47	0x3e29464c	0.16530722
48	0x3d9d0a10	0.07667935
49	0xbcefb922	-0.029263083
50	0xbc05f02f	-0.00817494
51	0x3dffa089	0.124817915
52	0x3d9dbe64	0.0770233
53	0x3d78b098	0.060715288
54	0xbda28575	-0.07935611
55	0xbd9298c6	-0.071580455
56	0x3c3f864c	0.011689734
57	0x3d4382d3	0.047732186
58	0x3d9ad92f	0.07560956
59	0xbd7b700a	-0.061386146
60	0xbcca3177	-0.02468179
61	0x3d1feeca	0.039046086
62	0x3c57a2ee	0.013161404
63	0xbdc22429	-0.09479553
64	0xbd23428c	-0.039858386
65	0xbe10ec0d	-0.14152546
66	0x3c08c743	0.008348289
67	0x3d73da38	0.05953428
68	0xbc12f12f	-0.008968635
69	0x3cf395f4	0.02973459
70	0x3d45142b	0.048114937
71	0xbdde6a2c	-0.108600944
72	0xbcbad624	-0.022807188
73	0xbd0ca0c6	-0.034333013
74	0x3ca43594	0.02004508
75	0xbce591a7	-0.028023554
76	0xbbf25326	-0.007395166
77	0xbcd8af9f	-0.02645093
78	0x39e9f66c	0.00044624822
79	0xbe10e1f6	-0.14148697
80	0xbdd13b59	-0.10216398
81	0x3c1def37	0.009639553
82	0xbd815fe1	-0.063171156
83	0xbd21294a	-0.039346017
84	0x3d16ba08	0.036798507
85	0xbc5ab1f8	-0.013348095
86	0x389aeb02	7.387066e-05
87	0x3d9d2377	0.0767278
88	0x3e048a13	0.12943296
89	0x3dfd0fa3	0.12356498
90	0x3d779e3e	0.060453646
91	0x3e1ea5b9	0.15492906
92	0x3d2e9625	0.042623658
93	0x3d0640bb	0.032776576
94	0x3e57dee6	0.21081123
95	0x3d549568	0.051900297
96	0x3e79a44b	0.24379079
97	0x3dcb41e4	0.09924677
98	0xbcb92dc4	-0.02260483
99	0x3d7e30a5	0.06205811
100	0xbdd9842b	-0.10620912
101	0xbd2a8da5	-0.04163899
102	0x3cf25241	0.029580237
103	0xbc981d25	-0.018568585
104	0xbdaf911c	-0.08572599
105	0xbe126882	-0.14297679
106	0xbd80e00c	-0.062927336
107	0xbd0d0023	-0.03442396
108	0xbd0d61c8	-0.03451708
109	0x3d6251b9	0.055253718
110	0xbc43eea8	-0.011958756
111	0xbc12d3bb	-0.008961613
112	0x3d27d01d	0.040969957
113	0x3ae6fc13	0.0017622731
114	0x3db87513	0.09006705
115	0x3da70840	0.081558704
116	0x3e22bc6e	0.15892193
117	0x3d8e100f	0.06936657
118	0x3d6374b7	0.05553123
119	0x3da7ab40	0.0818696
120	0x3e29e0de	0.16589686
121	0x3e527efb	0.20556252
122	0x3d6fc22a	0.05853478
123	0x3d58c13e	0.052918665
124	0x3d2245bc	0.039617285
125	0xbd31566e	-0.043295316
126	0x3c295aaf	0.010336562
127	0x3e4ebe0f	0.20189689
128	0x3df460d0	0.11932528
129	0x3e6c8316	0.2309688
130	0x3dcfc1d5	0.101443924
131	0x3e34005e	0.17578265
132	0x3da6de07	0.08147817
133	0xbccdbbe4	-0.025114007
134	0x3de86285	0.11346916
135	0x3d82c8ea	0.063859776
136	0x3ceb1dea	0.028700788
137	0xbddabb59	-0.10680265
138	0xbe41b65a	-0.18917218
139	0xbe83f6a5	-0.25774112
140	0xbdce107a	-0.100617364
141	0xbe3a19e4	-0.18173939
142	0xbd298d92	-0.041394778
143	0xbd3ceaf4	-0.046122506
144	0x3d0cda10	0.034387648
145	0xbd74053a	-0.059575297
146	0xbe26bc7c	-0.16282839
147	0xbcbae69e	-0.022815045
148	0xbd1f98b9	-0.038964007
149	0xbc42bebe	-0.011886297
150	0xbde4d70c	-0.111738294
151	0x3dd5ff5e	0.10449098
152	0x3d844303	0.06458094
153	0xbe1ca119	-0.15295829
154	0xbd917a28	-0.071033776
155	0xbe2823c2	-0.1641989
156	0x3d363124	0.044480458
157	0x3db367f3	0.08760061
158	0xbdd52be4	-0.10408762
159	0xbe7c7157	-0.2465261
160	0xbe07dec7	-0.13268577
161	0xbe1f9581	-0.15584375
162	0x3cfe8828	0.031070784
163	0xbe2c93e8	-0.16853297
164	0xbd83ea8e	-0.06441222
165	0xbdb72ca8	-0.089440644
166	0xbe4aaf4c	-0.19793433
167	0xbc9de5ba	-0.019274581
168	0xbda79c8d	-0.081841566
169	0xbdc37fcd	-0.095458604
170	0xbe3f6836	-0.18692097
171	0xbdce4154	-0.10071054
172	0x3e1f1fb7	0.15539442
173	0x3e06d4f5	0.13167174
174	0x3bd26f3a	0.0064219506
175	0xbdba1bd6	-0.090873405
176	0xbd78f866	-0.060783766
177	0xbd07d727	-0.03316417
178	0xbd853ce3	-0.06505754
179	0xbcbc82ed	-0.023011649
180	0xbdb52dfe	-0.08846663
181	0x39b22702	0.0003397987
182	0xbc7291bd	-0.0148052545
183	0x3c8607ba	0.016361106
184	0x3d5ac7ce	0.053413205
185	0xbd4f54a3	-0.050617825
186	0xbcdd2c22	-0.026998583
187	0x3d9de654	0.07709947
188	0x3dba7286	0.09103875
189	0x3e13dc19	0.1443943
190	0xbd366de9	-0.044538412
191	0x3e1d3b93	0.15354757
192	0x3df86965	0.121294774
193	0x3c2f956d	0.010716778
194	0x3e036a84	0.12833601
195	0x3d98bb1b	0.074575625
196	0x3dcca0b6	0.09991591
197	0x3e57148a	0.21003929
198	0x3cd0587d	0.02543282
199	0x3d9f9fb6	0.07794134
200	0xbc703e34	-0.014663268
201	0x3d9d58a2	0.07682921
202	0xbda4a29c	-0.08038828
203	0xbe0a4ae7	-0.13505135
204	0xbde59b88	-0.11211306
205	0x3d721cdf	0.059109565
206	0x3dfc175c	0.12309143
207	0x3d6612bc	0.05617021
208	0xbe0a2065	-0.1348892
209	0xbe1655a0	-0.14681101
210	0x39ec6654	0.00045089668
211	0x3df2687f	0.11836337
212	0x3d8b25f5	0.06794349
213	0x3bd07c36	0.0063624633
214	0x3d1b423f	0.037904974
215	0xbd0742d9	-0.033022735
216	0x3d2d494f	0.04230624
217	0x3db9fe4e	0.09081708
218	0xbbd0359b	-0.0063540465
219	0x3d365840	0.044517756
220	0xbe410fce	-0.18853685
221	0xbd27514e	-0.040849023
222	0x3c3fcaa1	0.011706025
223	0x3d23676d	0.039893556
224	0xbb143852	-0.0022616577
225	0xbe2de749	-0.1698276
226	0x3d85faf4	0.06542006
227	0x3df9205e	0.12164377
228	0x3e39b520	0.181355
229	0x3d12ac8f	0.035809096
230	0xbde70fb7	-0.11282294
231	0x3d9b83ac	0.07593474
232	0x3e2eabb0	0.17057681
233	0x3e0c9f2f	0.13732599
234	0xbd554778	-0.05207011
235	0x3d5b2c92	0.053509302
236	0x3cb16e67	0.02165909
237	0x3dc16b12	0.0944425
238	0xbdcc6578	-0.09980291
239	0xbe23e7e7	-0.16006432
240	0x3e5fa5f1	0.21840645
241	0x3dd93c91	0.10607255
242	0x3e16bd6a	0.14720693
243	0x3c704af9	0.014666312
244	0xbe04479d	-0.12917943
245	0x3d17d13d	0.03706478
246	0x3db40bf1	0.0879134
247	0xbc489065	-0.012241458
248	0xbd9053b9	-0.07047219
249	0xbd09a782	-0.033607014
250	0x3cf15fac	0.029464565
251	0x3dee9495	0.116494335
252	0x3da01588	0.07816607
253	0x3d9e1c1f	0.077202074
254	0x3dd86de0	0.10567832
255	0x3cf39201	0.029732706

C5_layer.0.bias f4 [120]
0	0x3d5f6f66	0.054549597
1	0xbcc7fcec	-0.024412595
2	0xbd04b2bf	-0.032397028
3	0xbca5aa72	-0.020222876
4	0xbd7c48f3	-0.061593007
5	0xbcbd7e72	-0.023131583
6	0x3deaa773	0.1145772
7	0x3d043d38	0.032284945
8	0xbd2970ea	-0.04136745
9	0x3e2283d8	0.15870607
10	0x3cd5b810	0.026088744
11	0x3cad1b51	0.02113119
12	0x3cf3784b	0.029720446
13	0x3d17e44f	0.037082966
14	0xbcb75e84	-0.022383936
15	0x3d33af60	0.043868423
16	0x3d1ec5bd	0.038762797
17	0x3bc85a22	0.0061142603
18	0xbc8f2a57	-0.017476244
19	0x3d88a404	0.066719085
20	0x3cd175e2	0.025568906
21	0xbcf9abc1	-0.030477406
22	0x3d600ff2	0.054702707
23	0xbd5f5d2e	-0.054532222
24	0xbcc47e5d	-0.023986036
25	0x3c95ab2d	0.0182701
26	0x3bc9704f	0.0061474214
27	0x3cf3f6c8	0.02978076
28	0x3db80f8b	0.089873396
29	0x3b941892	0.0045195306
30	0x3d5831d4	0.052781895
31	0x3d62b860	0.055351615
32	0x3c8c71d3	0.01714412
33	0xbd8aa9b5	-0.0677065
34	0x3d3c19d6	0.045923077
35	0x3d1d1a2b	0.038355034
36	0xbd0b9f86	-0.03408768
37	0x39345467	0.0001719758
38	0xbcf8f0b6	-0.030388217
39	0x3c8a63bb	0.016893258
40	0xbdbe218f	-0.092837445
41	0xbc17c9a4	-0.009264383
42	0x3d2e7428	0.042591244
43	0xbd2e275c	-0.042518005
44	0x3db1d4d4	0.08683172
45	0xbcb51f68	-0.022109702
46	0xbc1b7780	-0.00948894
47	0x3d031a4a	0.032007493
48	0xbca91e4f	-0.020644335
49	0x3deb4cc6	0.11489253
50	0x3deab7e2	0.11460854
51	0xbb9d9e65	-0.004810142
52	0x3d228ae8	0.039683253
53	0x3d43abcf	0.04777127
54	0x3ca956e1	0.02067131
55	0x3db70674	0.08936778
56	0xbd99756c	-0.074930996
57	0xbcb95eb5	-0.022628168
58	0xbc6b7a22	-0.01437238
59	0xbd6565f0	-0.05600542
60	0x3d5dde44	0.054167047
61	0x3b169381	0.0022976103
62	0xbdad5f23	-0.084654115
63	0xbd17b680	-0.03703928
64	0xbd9ce683	-0.07661154
65	0xbd429393	-0.04750402
66	0xbce5fb52	-0.02807394
67	0xbd11a71f	-0.03555977
68	0x3d01ce38	0.031690806
69	0xbccc9a5f	-0.024975954
70	0x3ca4975d	0.020091707
71	0xbc8152b9	-0.015786516
72	0xbbac080a	-0.005249982
73	0x3c5b963c	0.013402518
74	0x3d3e89dd	0.046518195
75	0xbd5128e4	-0.051064387
76	0x3cc8c1be	0.024506446
77	0x3c9026c7	0.017596615
78	0x3d718a77	0.05896994
79	0x3c7b057e	0.015321134
80	0xbb8c8060	-0.0042877644
81	0xbcf62199	-0.030045317
82	0xbd3b619e	-0.045747392
83	0xbcd7b0b6	-0.02632938
84	0xbda6f578	-0.08152288
85	0xbca6963a	-0.020335305
86	0xbbded29d	-0.0068000094
87	0xbd8e3997	-0.06944578
88	0xbcf4d494	-0.029886521
89	0x3ccb7d55	0.024840036
90	0x3dbbb577	0.09165471
91	0x3d0b4915	0.034005243
92	0xbd3e53bc	-0.046466574
93	0x3dba5d9b	0.09099885
94	0xbcdc7cde	-0.02691501
95	0xbbf6016d	-0.007507494
96	0x3d05c89f	0.03266203
97	0xbd59d643	-0.05318285
98	0x3dc2c2ee	0.09509836
99	0x3db9e154	0.09076181
100	0xbd077907	-0.033074405
101	0x3c4d427f	0.012528061
102	0x3bddf5dd	0.006773694
103	0x3cf60ef1	0.030036421
104	0xbc3ca651	-0.011514262
105	0x3b976615	0.0046203234
106	0xbd924ada	-0.07143183
107	0xbc28b2c4	-0.010296527
108	0x3d523a24	0.05132498
109	0x3db1218c	0.08648977
110	0x3cd5cec3	0.026099568
111	0xbb53866c	-0.0032276167
112	0xbc94aa92	-0.01814774
113	0x3c93c2bd	0.018037194
114	0xbd7f410c	-0.062317893
115	0x3ded7573	0.11594667
116	0x3cfb9c4c	0.030714177
117	0x3b2662ba	0.0025388435
118	0xbcca4287	-0.024689926
119	0xbb0d1935	-0.0021529917

fc_layer1.0.weight f4 [84, 120]
0	0xbcac0d57	-0.021002455
1	0xbd57f28e	-0.052721553
2	0xbcdd7547	-0.027033461
3	0xbd581d4d	-0.05276232
4	0x3db3e709	0.08784301
5	0x3d56c67d	0.052435387
6	0xbd8dda3f	-0.06926393
7	0x3bc4471f	0.0059899236
8	0xbde0d039	-0.10977215
9	0xbe0265c7	-0.12734137
10	0xbb6c10dc	-0.003602079
11	0xbcabd3f2	-0.020975087
12	0x3d126ec5	0.03575017
13	0x3d5dd576	0.05415865
14	0xbdcc5924	-0.0997794
15	0xbdfd0139	-0.12353749
16	0xbe32f399	-0.17475738
17	0x3d5237c0	0.0513227
18	0x3d3077e3	0.043083083
19	0xbdc66fa6	-0.09689264
20	0xbd0aa89e	-0.033852212
21	0x3d3c19a4	0.04592289
22	0x3e20c13b	0.15698712
23	0x3dab5b9b	0.08367082
24	0xbdd86bf9	-0.10567469
25	0xbd24f0f2	-0.040268846
26	0x3d9afb61	0.07567478
27	0xbb9d44e2	-0.0047994712
28	0xbd80f9c8	-0.06297642
29	0x3c81a6ee	0.015826669
30	0x3c35c7b8	0.01109498
31	0xbe1fc6a4	-0.15603119
32	0xbd98abcb	-0.07454642
33	0xbda62919	-0.081133075
34	0x3caca437	0.021074397
35	0xbd8b2ec7	-0.067960314
36	0x3d1faa06	0.038980506
37	0xbc2bd86c	-0.010488611
38	0x3dc0b840	0.09410143
39	0xbdb6f087	-0.08932596
40	0x3ccea552	0.025225315
41	0x3d515fc1	0.05111671
42	0xbdd739da	-0.10509081
43	0x3d377f89	0.04479936
44	0xbd45264a	-0.04813222
45	0x3d99e8bb	0.07515093
46	0x3d82f3db	0.06394168
47	0xbceab9c8	-0.02865304
48	0x3c9db7b0	0.019252628
49	0xbe06a48f	-0.13148712
50	0xbd8e17d2	-0.06938137
51	0xbd8134ff	-0.06308936
52	0x3d2ab3ff	0.041675564
53	0x3d602c19	0.054729555
54	0xbdac38bd	-0.084092595
55	0x3cce958e	0.025217798
56	0x3d4f4bb5	0.05060931
57	0xbda0906f	-0.078400485
58	0xbde9005b	-0.11377021
59	0x3d54290f	0.05179697
60	0x3d543e2f	0.051817115
61	0x3d02f6a7	0.031973507
62	0x3c8d8ca5	0.017278979
63	0xbdb27210	-0.08713162
64	0xbd81ee33	-0.06344261
65	0x3ca87da4	0.020567723
66	0xbd9e079d	-0.07716296
67	0xbd232dfc	-0.039838776
68	0xbde95f5a	-0.1139514
69	0xbb7f420a	-0.0038949274
70	0xbd098462	-0.033573516
71	0x3dad171c	0.084516734
72	0xbe2ee598	-0.1707977
73	0xbddb1a1d	-0.1069834
74	0xbdc9c964	-0.09852865
75	0xbd865c86	-0.06560616
76	0xbd5b5852	-0.053551026
77	0x3cb18d9e	0.021673974
78	0xbd853b81	-0.0650549
79	0xbcfdda36	-0.03098784
80	0xbbb8bb42	-0.0056375572
81	0x3d53bb6c	0.05169241
82	0x3a0febcc	0.00054901536
83	0xbcdd6e8a	-0.027030248
84	0x3e04369d	0.12911458
85	0x3d0d361e	0.03447544
86	0xbde4ef0b	-0.11178406
87	0xbce31b45	-0.027722964
88	0xbc996b42	-0.018727902
89	0xbd98ff5c	-0.07470581
90	0xbc8488a9	-0.016178446
91	0x3e2d3f51	0.16918685
92	0x3d79ebb3	0.061015796
93	0x3be413aa	0.006960352
94	0x3cbe5e12	0.023238216
95	0x3b2943cb	0.0025827761
96	0xbda37556	-0.079813644
97	0xbe15e2b4	-0.14637262
98	0xbde58590	-0.11207116
99	0xbde1e31c	-0.11029646
100	0xbcb2c785	-0.021823654
101	0xbbec4a12	-0.0072109783
102	0xba875b0d	-0.0010326818
103	0xbc98fc6e	-0.018675055
104	0x3d7824f3	0.060582113
105	0x3d8c555a	0.06852217
106	0x3c6e247d	0.014535067
107	0x3de65f43	0.112486385
108	0xbd108ab6	-0.035288535
109	0x3cd830a8	0.026390389
110	0xbc628f77	-0.01382815
111	0x3dc7d05e	0.0975654
112	0xbc66fe06	-0.01409865
113	0xbe1132d5	-0.14179547
114	0x3ce76ca3	0.028250044
115	0xbd356673	-0.044287156
116	0xbd4176eb	-0.04723255
117	0xbd1f8bd3	-0.038951706
118	0xbd8395b7	-0.0642504
119	0xbc9ff9aa	-0.019528229
120	0x3bd3b7d0	0.006461121
121	0xbd6eda8c	-0.05831389
122	0x3d50a06d	0.050934244
123	0x3d855ac7	0.06511455
124	0x3d2f067c	0.042730793
125	0xbd4c88f0	-0.04993528
126	0xbbf1435e	-0.007362767
127	0xbbf66ab3	-0.0075200438
128	0x3dfb3a1f	0.12266945
129	0xbc8b18bd	-0.01697957
130	0x3e57a2d2	0.21058205
131	0xbcde55be	-0.027140494
132	0x3ca0326c	0.019555293
133	0x3db93edb	0.09045192
134	0xbdb617aa	-0.08891232
135	0x3dfbfe26	0.12304334
136	0xbc48e9cf	-0.012262776
137	0xbb51f581	-0.00320372
138	0x3de79611	0.1130792
139	0xbdc5a121	-0.096498735
140	0xbd525ba9	-0.051356945
141	0x3d876e6d	0.06612859
142	0x3df63708	0.12022215
143	0xbd237f6b	-0.039916437
144	0x3dc5039d	0.0961983
145	0xbca9a041	-0.020706298
146	0x3db5b50d	0.08872423
147	0x3e021573	0.12703495
148	0x3c274c22	0.010211023
149	0xbb075904	-0.0020652423
150	0xbd695e2c	-0.056974575
151	0x3b86f061	0.004118011
152	0x3cbeda3c	0.023297422
153	0xbd1bcbc2	-0.038036115
154	0xbb851bc5	-0.0040621483
155	0xbd766463	-0.06015433
156	0xba2bbe7c	-0.00065515167
157	0x3e348764	0.17629772
158	0xbce72480	-0.028215647
159	0x3d734c22	0.059398778
160	0x3d68da32	0.056848712
161	0x3cdea818	0.027179763
162	0xbc4e08e5	-0.012575363
163	0xbe6203a7	-0.22071706
164	0x3c1ceda2	0.00957814
165	0x3e122075	0.14270194
166	0x3d70ed0e	0.058819823
167	0xbcc339eb	-0.023831328
168	0x3cc640e1	0.024200859
169	0x3e17c9ff	0.14823149
170	0x3d4708ee	0.0485925
171	0x3cff8830	0.031192869
172	0x3e2812c9	0.16413416
173	0xbd16e181	-0.03683615
174	0xbd090c27	-0.033458855
175	0x3d9d32f5	0.07675735
176	0xbd8c5863	-0.06852796
177	0x3d7daa86	0.061930202
178	0xbcd5bc94	-0.026090898
179	0x3d9c557f	0.076334946
180	0x3e2181f3	0.15772228
181	0x3d4183ed	0.047244955
182	0x3d9c5c90	0.076348424
183	0xbbc6876e	-0.006058625
184	0xbb126745	-0.0022339385
185	0xbcae4a01	-0.021275522
186	0x3d829cda	0.06377573
187	0xbdcbf83d	-0.09959457
188	0xbe53b834	-0.20675737
189	0xbc53501d	-0.012897518
190	0x3c629881	0.013830305
191	0x3c376857	0.01119431
192	0xb9f6faf1	-0.00047107742
193	0x3b1a250c	0.0023520617
194	0x3d64ef72	0.055892415
195	0x3d26d73d	0.04073261
196	0x3db7b9aa	0.089709595
197	0x3e11899f	0.14212655
198	0x3d89c929	0.067278214
199	0xbdf59be2	-0.11992623
200	0x3df7de7d	0.12102983
201	0xbd8575f2	-0.06516637
202	0xbcdc7121	-0.026909413
203	0xbda8b6be	-0.0823798
204	0xbebd7740	-0.37005043
205	0xbd32169c	-0.043478593
206	0x3d7688b2	0.060188957
207	0xbe3df337	-0.1854981
208	0xbc99d487	-0.018778099
209	0x3c9d8ddf	0.019232688
210	0x3e345298	0.17609632
211	0xbd39fa3c	-0.045404658
212	0x3cd338da	0.025783945
213	0x3da37837	0.079819135
214	0xbcb38ef2	-0.021918748
215	0xbdc3a774	-0.095534235
216	0x3cd96395	0.026536742
217	0xbdaa6ce4	-0.083215505
218	0xbca75b98	-0.020429417
219	0xbddb6b26	-0.10713796
220	0xbb04bce2	-0.0020254184
221	0x3dc930e7	0.098237805
222	0xbd8e412c	-0.06946024
223	0xbd231cd6	-0.039822422
224	0x3d4f1a9a	0.05056248
225	0xbda7bba8	-0.081900895
226	0xbd906823	-0.070511125
227	0xbe3f4b59	-0.18681087
228	0xbdc6b1ac	-0.09701857
229	0xbd8abff4	-0.067748934
230	0x3dcaad96	0.0989639
231	0x3d485d88	0.048917323
232	0xbe759039	-0.23980798
233	0xbd3d79a2	-0.046258576
234	0x3d684c9c	0.056713685
235	0x3d1e50ee	0.0386514
236	0xbd7133c1	-0.058887247
237	0x3d65e211	0.056123797
238	0xbc8831d6	-0.016625326
239	0xbd0d506b	-0.03450052
240	0x3d3b177b	0.04567669
241	0x3d9bd63a	0.0760922
242	0x3d68ec8c	0.056866214
243	0x3dc7cdc9	0.09756047
244	0x3d018054	0.031616524
245	0xbd8a7bf9	-0.06761927
246	0x3dd9eb28	0.106405556
247	0xbdd620cf	-0.104554765
248	0xbe2b639d	-0.16737218
249	0x3d2c4648	0.042059213
250	0xbc165e2c	-0.009177726
251	0xbd62f5df	-0.055410262
252	0xbd516e06	-0.051130317
253	0x3de1a8e9	0.11018545
254	0x3db01bf8	0.085990846
255	0x3d92646d	0.07148061

fc_layer1.0.bias f4 [84]
0	0xbdc29b89	-0.09502322
1	0xbcac8600	-0.02105999
2	0x3d8d02c2	0.06885292
3	0x3ca0dea2	0.01963741
4	0x3cf9618b	0.03044202
5	0xbdae1d3d	-0.085016705
6	0xbdfd5ea1	-0.12371565
7	0xbd8871e6	-0.066623494
8	0xbcbf1ae3	-0.02332825
9	0xbd03b589	-0.032155547
10	0x3d76093b	0.060067397
11	0x3d474267	0.04864731
12	0x3df07d30	0.117426276
13	0xbd6ca37e	-0.057773106
14	0x3d938851	0.07203735
15	0xbdf46ec1	-0.11935187
16	0x3ddbe51b	0.10737058
17	0xbc6aee56	-0.01433905
18	0xbcfec2c3	-0.031098729
19	0x3e01d95a	0.1268057
20	0x3d335290	0.04377991
21	0x3ddf3088	0.108979285
22	0x3d84cb63	0.064841054
23	0xbd713342	-0.058886774
24	0x3bb061f4	0.0053827707
25	0x3e173a15	0.1476825
26	0xbd8eb25c	-0.06967613
27	0xbd06cf2d	-0.032912422
28	0x3d1f2c5e	0.03886067
29	0x3d18e7b8	0.03733036
30	0x3d00d70e	0.031455092
31	0x3c3641c2	0.011124076
32	0xbd9cbd19	-0.07653255
33	0xbc32b1d2	-0.0109066535
34	0x3d8e286e	0.06941305
35	0xbdaded34	-0.084925085
36	0x3ddc39be	0.10753201
37	0x3e38f3b8	0.18061721
38	0x3da41e63	0.08013608
39	0x3bc3bf0f	0.0059737037
40	0x3dedb0b0	0.11605966
41	0x3d63480b	0.055488627
42	0x3b9ef1ac	0.004850587
43	0xbdcddb4e	-0.10051595
44	0x3d9e093e	0.077166066
45	0x3c6eb829	0.014570274
46	0x3d64cade	0.05585753
47	0x3d7d1ea0	0.061796784
48	0xbcc4ca3a	-0.02402221
49	0xbbb5fbe2	-0.0055537084
50	0xbda911a3	-0.08255317
51	0xbdbd7408	-0.09250647
52	0x3d568eb0	0.05238217
53	0x3d9bc000	0.076049805
54	0x3ded8ac8	0.11598736
55	0xbd889353	-0.06668725
56	0xbc79247c	-0.015206452
57	0x3c615afa	0.013754601
58	0xbdfbebc2	-0.123008266
59	0x3cee5596	0.029093545
60	0x3da51438	0.08060497
61	0x3d9b9f7b	0.07598778
62	0xba8f7bfa	-0.0010946982
63	0xbda043b5	-0.07825414
64	0x3e0ea11a	0.13928643
65	0x3d2698fa	0.040673234
66	0xbde6228f	-0.1123706
67	0x3ddf8eb4	0.1091589
68	0x3d522a8e	0.051310115
69	0xbd3682ec	-0.04455845
70	0x3dd4d986	0.10393052
71	0x3dd10bb3	0.102073096
72	0xbdb3f738	-0.087873876
73	0xbdb9e050	-0.09075987
74	0x3d204b40	0.039134264
75	0xbd50c5d3	-0.05096991
76	0xbd2d90bf	-0.04237437
77	0xbddd94fe	-0.10819434
78	0x3daa392a	0.083116844
79	0x3e0d5345	0.13801296
80	0x3d2f579b	0.042808156
81	0xbdf4e1a1	-0.11957098
82	0xbddf41fc	-0.109012574
83	0x3e1d3d86	0.153555

fc_layer2.weight f4 [10, 84]
0	0xbc2d5a0e	-0.010580553
1	0xbd9e752a	-0.07737191
2	0x3e0ec1d9	0.13941135
3	0x3e2e9aed	0.17051287
4	0x38d35fbf	0.00010079098
5	0xbd01aae1	-0.031657103
6	0x3e2c720b	0.16840379
7	0xbc5e23d2	-0.013558345
8	0x3df0661f	0.11738228
9	0xbbcf34ea	-0.0063234465
10	0xbde12fcb	-0.10995444
11	0xbdedd73b	-0.116133176
12	0xbe867d93	-0.2626768
13	0xbda4608f	-0.080262296
14	0x3c73f073	0.0148888705
15	0x3de70042	0.11279346
16	0xbe82bd27	-0.25534937
17	0x3dbe2dd8	0.09286088
18	0xbdf5dd6d	-0.12005124
19	0xbde6cbcf	-0.11269342
20	0x3e395033	0.18097
21	0x3cd9a4f7	0.02656792
22	0xbed819c0	-0.42207146
23	0xbd8683e6	-0.065681264
24	0xbe3919e0	-0.18076277
25	0x3d89a7e4	0.06721476
26	0xbdd400c9	-0.10351712
27	0x3d9490b2	0.07254161
28	0xbe2c45e1	-0.16823532
29	0x3d18a48d	0.037266303
30	0x3bc8c407	0.006126884
31	0x3d8b9b57	0.06816738
32	0xbd8cec7b	-0.068810426
33	0x3def66a4	0.11689499
34	0xbe3bdb1f	-0.18345307
35	0x3cef2944	0.029194482
36	0xbe98cfae	-0.29845947
37	0x3e1114bb	0.14168064
38	0x3dd5a3d7	0.104316406
39	0xbde3b1ae	-0.11117874
40	0x3e333e73	0.17504291
41	0x3cedbedc	0.029021673
42	0x3d188bac	0.037242576
43	0x3d86ad85	0.06576065
44	0x3dbe074b	0.09278735
45	0x3dcfe8a9	0.10151798
46	0xbe382526	-0.17982921
47	0xbe79309f	-0.24334954
48	0x3d34316b	0.04399244
49	0xbe9b8470	-0.3037448
50	0xbde809e6	-0.11330013
51	0xbc1cdedb	-0.009574617
52	0xbe0b5b5d	-0.13609071
53	0x3d9cd615	0.076580204
54	0xbe5cf5d3	-0.2157815
55	0x3cbee69a	0.023303319
56	0x3de0b7e5	0.10972575
57	0xbda9bcd9	-0.08287973
58	0xbdd5b998	-0.1043579
59	0xbe861ec5	-0.2619535
60	0xbd4e6a97	-0.05039462
61	0xbdca248f	-0.09870254
62	0x3e05f409	0.13081373
63	0xbdd5cad1	-0.10439075
64	0xbd076ec2	-0.03306461
65	0x3e186976	0.1488398
66	0xbdfc6bbf	-0.123252384
67	0x3d031a5a	0.032007553
68	0x3d6719e0	0.05642116
69	0x3df998ae	0.121873245
70	0xbd78bd14	-0.060727194
71	0x3d9bf949	0.07615907
72	0x3cc2718f	0.02373579
73	0x3d8163e2	0.06317879
74	0xbd87ae04	-0.06624988
75	0x3db36ba0	0.08760762
76	0xbd1e9c3a	-0.038723208
77	0xbde01a7f	-0.10942554
78	0xbe4c105d	-0.19928117
79	0xbe3177ae	-0.1733081
80	0x3c013d47	0.007888145
81	0xbd6a81f9	-0.057252858
82	0x3b839478	0.0040155016
83	0xbe29d38f	-0.1658461
84	0xbd78ab2f	-0.06071013
85	0xbe117bbd	-0.14207359
86	0xbdd3003f	-0.10302781
87	0x3e426fcd	0.18987961
88	0xbdbcbcaf	-0.09215676
89	0x3d882d56	0.06649272
90	0xbcc39b00	-0.02387762
91	0xbca8cdeb	-0.020606002
92	0xbe6ff0a7	-0.23431645
93	0xbdbbb046	-0.09164481
94	0xbe56b02f	-0.20965646
95	0x3e2c373a	0.16817942
96	0x3e23397a	0.15939894
97	0xbd685de8	-0.05673018
98	0xbdd4df39	-0.10394139
99	0xbdddf1c9	-0.108371325
100	0xbe341960	-0.17587805
101	0xbe25bc71	-0.16185166
102	0x3e682cf7	0.22673403
103	0x3d28da4d	0.041223813
104	0x3d8536f1	0.0650462
105	0x3db994a3	0.09061553
106	0xbda583fb	-0.08081814
107	0xbca61de2	-0.020277921
108	0xbe0f8c85	-0.14018448
109	0xbe164e47	-0.14678298
110	0xbd593f16	-0.05303868
111	0x3ce16bef	0.027517287
112	0x3e0b57e0	0.1360774
113	0xbdae1d19	-0.08501644
114	0x3e42e92d	0.19034262
115	0x3d4d4fce	0.050124936
116	0xbdfee62c	-0.124462456
117	0x3ca62e1a	0.020285655
118	0xbe75ab34	-0.2399109
119	0x3d7fe4f1	0.062474195
120	0x3db44e8b	0.088040434
121	0x3cecc94b	0.028904578
122	0xbc3d4c2d	-0.011553806
123	0xbd278166	-0.04089489
124	0xbe529ea3	-0.20568328
125	0x3e0c3c92	0.1369498
126	0xbdd57097	-0.104218654
127	0xbedc7a47	-0.4306204
128	0xbe136be0	-0.1439662
129	0xbdb37ce7	-0.087640576
130	0x3e2dada0	0.16960764
131	0xbdd5dde0	-0.1044271
132	0x3de2cb36	0.11073916
133	0xbd12f63a	-0.03587935
134	0x3c477cb6	0.0121757295
135	0x3c7801a7	0.015137113
136	0xbd6cc6b7	-0.057806697
137	0xbe0433e1	-0.12910415
138	0x3d98490a	0.07435806
139	0x3d222f15	0.039595682
140	0x3e17a831	0.14810254
141	0xbe0edcf6	-0.13951477
142	0xbda2394e	-0.07921086
143	0xbdea7b2f	-0.11449277
144	0xbd407e97	-0.046995725
145	0xbe18fd78	-0.1494044
146	0xbd9dd09d	-0.077058055
147	0x3d47f27e	0.048815243
148	0xbc4c6800	-0.012475967
149	0x3dbca905	0.092119254
150	0x3d354773	0.044257592
151	0x3d4a205c	0.049347267
152	0x3d98eda5	0.07467202
153	0x3cbc6f82	0.02300239
154	0x3e61e5f6	0.2206038
155	0xbe8189f9	-0.25300577
156	0x3e795209	0.243477
157	0xbc3806bd	-0.011232075
158	0x3e0bb5e4	0.13643605
159	0xbda0d0e2	-0.07852341
160	0xbc42de43	-0.011893812
161	0xbd028def	-0.03187364
162	0xbe2cf5f5	-0.168907
163	0x3d1e9c5c	0.038723335
164	0x3e24cf76	0.16094765
165	0xbdccb7f7	-0.09996026
166	0xbbfd0b47	-0.0077222916
167	0x3dd592d7	0.10428398
168	0xbc9b3fd4	-0.018951334
169	0xbd929446	-0.07157187
170	0xbd900469	-0.07032091
171	0x3d85a1b5	0.06524984
172	0x3d660667	0.05615845
173	0xbd558da8	-0.052137047
174	0x3d9bdd3e	0.07610558
175	0xbd627279	-0.05528495
176	0xbc8538b5	-0.016262392
177	0xbdf3e256	-0.119084045
178	0xbd1aceed	-0.037794996
179	0x3c8cebf2	0.017202351
180	0x3e1945a9	0.1496798
181	0xbe3949a8	-0.18094504
182	0x3e060dbc	0.13091177
183	0x3d680982	0.056649692
184	0xbe35a48c	-0.17738551
185	0x3e1e8820	0.15481615
186	0xbc930a9c	-0.017949395
187	0x3e095c38	0.13414085
188	0xbe5196e5	-0.20467718
189	0x3df53ee0	0.11974883
190	0xbd2e80c5	-0.042603273
191	0xbd2f756b	-0.042836588
192	0x3e104a6b	0.14090888
193	0xbe98dbcb	-0.2985519
194	0x3dfca8b9	0.12336869
195	0xbdb461ba	-0.08807702
196	0x3e00105c	0.1250624
197	0x3d94484b	0.07240351
198	0x3dc1037d	0.094244935
199	0x3d2e2d12	0.04252345
200	0x3cf4ab58	0.02986686
201	0x3d821138	0.063509405
202	0xbe3d6ff5	-0.1849974
203	0xbc078fa8	-0.008273996
204	0xbc8f35e3	-0.01748175
205	0xbe065197	-0.13117062
206	0x3df8ce65	0.12148742
207	0xbd0a19bc	-0.03371595
208	0xbe18b18d	-0.1491148
209	0xbe1e7918	-0.15475881
210	0x3e0dffbc	0.13867086
211	0xbe20f135	-0.15717013
212	0x3dbca4ca	0.092111185
213	0x3dbd31d2	0.09238018
214	0xbe90fa98	-0.28316188
215	0xbe963ddb	-0.29344067
216	0x3dc846ff	0.097791664
217	0xbdd356fe	-0.10319327
218	0x3db532e7	0.088475995
219	0xbbfa13b6	-0.0076317443
220	0x3e35786e	0.17721722
221	0x3e08ef95	0.13372643
222	0x3ce294ec	0.027658902
223	0xbdc9aaba	-0.09847017
224	0xbcae639a	-0.021287728
225	0x3cc7825a	0.024354149
226	0xbd900534	-0.070322424
227	0x3e3ba52a	0.18324724
228	0xbe5fa59b	-0.21840517
229	0xbe256bc9	-0.16154398
230	0xbe46d560	-0.19417334
231	0xbdd9a475	-0.10627071
232	0xbe2e3222	-0.17011312
233	0x3d1bbf67	0.038024332
234	0xbdd190b7	-0.1023268
235	0x3e1c63f8	0.1527251
236	0x3cea52ce	0.028603937
237	0xbe81a45a	-0.25320703
238	0x3d23bc79	0.039974663
239	0xbd07332c	-0.033007786
240	0x3c753711	0.014966742
241	0xbb74ead3	-0.0037371411
242	0xbeb6e79b	-0.35723576
243	0xbd999e96	-0.07500951
244	0xbd521d9e	-0.051297776
245	0x3b9df4c5	0.0048204386
246	0x3bbe8959	0.005814713
247	0xbd071c47	-0.03298595
248	0xbe59bfd3	-0.21264581
249	0x3ccc48fd	0.024937147
250	0xbddd9a3e	-0.10820435
251	0xbe0b9ae1	-0.136333
252	0xbe2f474d	-0.17117043
253	0xbd91fa41	-0.0712781
254	0x3dbc58f5	0.09196655
255	0xbddc29d4	-0.107501656

fc_layer2.bias f4 [10]
0	0x3ce41dc2	0.02784622
1	0xb9cfd821	-0.00039643145
2	0xbdab8e55	-0.08376757
3	0xbd8665ff	-0.06562423
4	0xbd2621ba	-0.040559508
5	0x3ccb805c	0.02484148
6	0xbdb69960	-0.08915973
7	0xbdef311f	-0.11679291
8	0x3d36b736	0.044608317
9	0x3e029047	0.1275035
