data_aug/mnist_weights_ColorJitter.pth (torch, 250119 bytes, 10 tensors)

conv_layer1.0.weight f4 [6, 1, 5, 5]
00000000: 33f5 01be d08e a13d 572a 4e3e 21d3 cc3d
00000010: 4df7 fb3d 0687 0e3e 9302 81be 6878 1e3d
00000020: 0e8a 403e 0974 febd cbd2 57be 0a0b a6be
00000030: 0ea3 a4be 85ba 3b3e 1bd8 fe3d 11d2 d93b
00000040: e526 83bc 5ab5 553e 7b1f 933e 2a41 673e
00000050: 1a94 623e 895d 8c3e 66ff 12be c76a 2cbe
00000060: b071 65bd 2f4c e6bc 2f8a 8abd fcd2 c9be
00000070: aefa 95be 6003 31be 9985 75be a752 f4be
00000080: 17ce 32be b353 c1bc b43a 6a3d 5e23 c0bd
00000090: 6a92 80be 4d8b 14be 7307 e83d 04a7 423e
000000a0: 88fc 033e 60a2 313c f057 c1ba 42cc e03e
000000b0: ddb3 d03e 7012 883e 091e 593e ad38 cb3e
000000c0: 7866 a53e 47d3 a83e 6197 393e 1399 d63d
000000d0: 29dd 8c3e 9a4f c33e 7abb 363e d113 c23e
000000e0: 384b 703e 7aee 683e 68a8 a33d 7252 453e
000000f0: 71a8 0b3e a1ca 433e 7dad a33e 5476 813d
00000100: 2298 7f3e c7bf 12be d6be d1be ea12 f8be
00000110: c32b acbe 961c ddbd d576 f8be fd28 f3be
00000120: 24cf 07bf d937 8abe 84a1 2dbe fd97 56be
00000130: e106 dabd aecc 533d 3f41 6d3e 0378 573e
00000140: b876 eebe e6cd 3bbe 0fcb b63d b07f c53e
00000150: 400e b03e 0eda 9bbe b9a2 fa3c 1781 c53e
00000160: 2a1e 8d3e dd79 333d f440 6bbe c336 ef3d
00000170: 32e6 623e 2ad4 023e 51f7 b33d 73b0 863d
00000180: 9fd2 263c 8167 863e a11e 9cbd 281a 7dbd
00000190: 4f01 703e 804e 603d 8a4a 5e3e 0289 f03d
000001a0: 159f 893d aad7 4ebd c15f 9a3e bb0d c33e
000001b0: 47df f03e 3c18 503e 9370 343d 00f5 81be
000001c0: 2af9 89bd d862 b83d b531 a53d 9258 aebe
000001d0: 9669 62be 36a3 fdbd 1b68 323e 69bb a83e
000001e0: bd0b 29be 906b 94be 7939 2ebe c461 b4bd
000001f0: 3c85 323d ed29 1c3e 152a 6c3e 8d29 813c
00000200: 0ac7 debe 2510 a7be cea8 823e 3f7b ce3d
00000210: a60c 62bd 98c7 a8be 57db a3be 0b75 c1bd
00000220: d66e a5bd f03c 1bbe 0ef0 bbbd 22fd 933e
00000230: 2bab 153e 53e8 8a3e 0a1e 9b3e b3f1 a83e
00000240: e975 943e d038 753e 9002 c33c 3f14 eb3d
00000250: c849 f7bd b208 d0bd
-0.12691192 0.078885674 0.20133339 0.10001207 0.12303028 0.13918695 -0.25197276 0.038689047
0.18802664 -0.12424476 -0.21076505 -0.32430297 -0.3215565 0.1833287 0.124435626 0.0066473563
-0.016009757 0.20869961 0.28734955 0.22583452 0.22126809 0.27415112 -0.1435524 -0.16837607
-0.056016624 -0.028112499 -0.06764638 -0.3941878 -0.29292816 -0.17286444 -0.23976745 -0.4771931
-0.1746143 -0.023599481 0.05718489 -0.09381746 -0.25111705 -0.14506264 0.11329546 0.19009024
0.12889302 0.010841936 -0.0014750939 0.43905836 0.40762225 0.26576567 0.21202864 0.39691678
0.3230474 0.32973692 0.18124153 0.10478415 0.27512482 0.3814667 0.17844954 0.37905744
0.23466194 0.22747222 0.07991105 0.19269732 0.13638474 0.19120266 0.319683 0.063213974
0.24960378 -0.1433097 -0.4096591 -0.4845193 -0.33627138 -0.10796468 -0.48528162 -0.4749221
-0.53050447 -0.26995733 -0.16956145 -0.20956416 -0.10645843 0.05170887 0.2316942 0.21041875
-0.4657495 -0.18340263 0.08925449 0.3857398 0.34385872 -0.304398 0.03059517 0.3857505
0.27562076 0.04381739 -0.22973996 0.11680367 0.22158125 0.12776247 0.08787406 0.06576624
0.010182052 0.26250842 -0.076230295 -0.061792523 0.23437999 0.054762363 0.21708122 0.11744882
0.067197956 -0.050498642 0.3015118 0.38096413 0.47045347 0.20321745 0.04405267 -0.25382233
-0.067369774 0.09003228 0.080661215 -0.3405195 -0.2211059 -0.12384646 0.17422526 0.32955483
-0.16508384 -0.28988314 -0.17014112 -0.0880771 0.043584093 0.15250368 0.23062928 0.015766883
-0.4351123 -0.32629505 0.25519413 0.10082101 -0.055187844 -0.32964778 -0.3200328 -0.09446152
-0.08077781 -0.15159965 -0.09176646 0.28904063 0.14616077 0.27130374 0.30296355 0.32996902
0.28996208 0.23947453 0.023804933 0.11478471 -0.120746195 -0.101579085

conv_layer1.0.bias f4 [6]
00000000: e68b 6cbd a8e9 313d ef16 0d3e f3e6 b7bd
00000010: 5667 7ebc c89f d6bc
-0.057750605 0.043435723 0.1377828 -0.08979597 -0.015527567 -0.026199237

conv_layer2.0.weight f4 [16, 6, 5, 5]
00000000: 88f3 9bbe cf67 963d 2cd1 5d3e 0d95 333e
00000010: e4a9 46ba e997 8b3d 1643 a53d fc31 0c3e
00000020: d0fa 03be 79e1 5a3d 632c 9e3b f817 babc
00000030: e463 c9bc ca8b 113d ff9e a0ba 0e52 b93d
00000040: 2ef9 8d3d 8adf eb3d 6805 df3d 2538 6dbc
00000050: c7a2 a43d d9e0 4abc 342f e43c c51c b23d
00000060: d497 853d b3ab 38be c71f c63d 3ee4 af3d
00000070: f5f1 b63d d9ba 2e3d 7399 e53d 52eb 463e
00000080: 8467 ab3d b07e 38be 3dfd 7e3d 4cee 003e
00000090: 570c 8abd ded6 3ebe 3ebf 95bd 3ca3 90bd
000000a0: 9ba8 34be 1826 3dbe 2c71 0ebd 5123 b83d
000000b0: cb4f 9ebd 5d39 4bbe 9ceb 6fbd be07 24be
000000c0: aeb2 a2bd 224c 473e 3a5f c73c ac2f c4bd
000000d0: 37a8 48be d1de b43a 39e5 743d 3d23 40be
000000e0: c564 fabe 59db 77be c878 f33d 23ee d63c
000000f0: ea47 98be f230 2fbe a185 0cbe 2b1c 33be
00000100: d074 07bd bf75 ccbd eed5 abbd 580b 72bd
00000110: ebab d6bc da52 1e3d 47c6 dcbc c68b 8abd
00000120: 6e35 bdbc 1cd2 463c 70b1 e23b 5996 4bbd
00000130: 2b1a 3ebe f8ea c53c e7aa 5e3b 63a5 02be
00000140: 96f6 223b ccaa b73d b1dd f73d 9a8f a7bd
00000150: b9c6 9bbd ddc2 363e 59c2 5a3e 123c 2cbd
00000160: b93f a8bd 5686 f8bd bac6 0f3e 4ea3 76bd
00000170: 1d33 7b3b 1dd1 843d 643f 2dbe 5f25 0d3d
00000180: 2c70 7ebd aa29 ec3b c985 08be f797 8fbc
00000190: 11b1 07bd 1458 18bd a7b4 dfbd e4f8 81bd
000001a0: 6232 dcbd 06ae 83bd 944b d9bd bafe 0cbe
000001b0: 876a 163d 2471 973d 9896 52bc 3126 ed3b
000001c0: 3fa7 de3b 93e6 3d3d b588 a1bd aa07 ae3d
000001d0: 54b9 e53d 5ffe 20bd 7ac6 ebbc 3867 8d3d
000001e0: 21d9 a4bc ab1c 133e 8b5a 023e c1e9 8d3c
000001f0: d1d2 40bd c00c 0abe ab18 05be b620 453e
00000200: 2970 443e 6ab1 803d 77cd 45bb fa00 c93d
00000210: 8110 4dbd b225 8bbc e973 3e3d 745f a2bd
00000220: 408d 75bd 090e 833c b3f7 1d3e 97cf c13d
00000230: f5d0 44be 5919 163e 3bef 063e cc5d 4c3d
00000240: 39f6 f73c 7571 e4bd e00b 2c3d 7649 d9bd
00000250: 8f6b ba3d 5b2d c93d 491c ce3d 238f abbd
00000260: 517b dbbd 5094 1e3e a556 e63d f694 20bd
00000270: 44d4 0f3e f637 6f3e 4f63 bc3b de2b 4ebe
00000280: eff9 4f3d 64e6 0a3e 786a 2c3d 548c e7bd
00000290: c61a 03be 7f00 823d ce3b 80bd f44b 76be
000002a0: 6a67 4c3d c142 343e e52e ebb9 42f9 53bd
000002b0: 4fed 2f3c a87a 083d f97c 9abd b22d cbbd
000002c0: 93c8 afbd 1f0d 193d 526b 393c 6716 98bc
000002d0: d49d 3dbe 8b2b 5abc 80e6 193e 4e11 ccbd
000002e0: 4e41 85be 1d12 fb3d 47ee bd3d 72de 12be
000002f0: d932 75be 7fc4 a83d 5978 433d 3eef 14be
00000300: 2890 ebbd 0dd5 2f3e f63d 0a3e dbaf b8bd
00000310: 7f10 b13d 03e0 943d 981e 093d 32c3 5ebc
00000320: bf81 90bd 322a 5a3d 0f06 bb3d ea72 b8be
00000330: ff7b fabd d023 f6bc 964e 02be 9862 88be
00000340: 1f55 f43d 5fd9 763e cd54 4dbe 003f 02bd
00000350: 1b8f c03c 6c63 1a3e 4624 3bbd 2c21 af3d
00000360: 6947 583d b20b 963d a71b 61bc e415 40be
00000370: 949c 463d 7c17 ec3b 9e30 3abe 9380 56bc
00000380: bfad eb3d 9621 353d f69a 6a3c 0ab2 d4bd
00000390: 7a79 7f3d f849 533d 1c02 8cbc 1311 0ebe
000003a0: ac8c e23d 5803 153e 4a83 d03d 5421 ebbc
000003b0: ba0e 0a3e d83e c33d 40d9 b3bd 8612 95be
000003c0: 53e2 653d 2bf8 4cbd 0e3d 81be d6cf ffbd
000003d0: 5186 b4bc 4de6 9dbd 76cb d7bd 72e2 44be
000003e0: a926 28bd 1e6c ef3c 98dd a2bd 49bf d83c
000003f0: fd25 203e bfd8 9b3c a906 b8bd 09be ce3d
-0.30459237 0.07344019 0.21661824 0.17537327 -0.0007578416 0.06816084 0.08069436 0.13690943
-0.12888646 0.053437684 0.0048270687 -0.022716507 -0.024583764 0.035533704 -0.0012254416 0.09048854
0.06932293 0.11517246 0.10889703 -0.014478718 0.0803886 -0.012382709 0.02785454 0.086968936
0.065230995 -0.18034248 0.0967403 0.085884556 0.089328684 0.04265866 0.11210909 0.19425705
0.083693534 -0.18017077 0.062253226 0.12590903 -0.06740635 -0.18636653 -0.07311867 -0.070623845
-0.17642443 -0.18471563 -0.034775898 0.08991111 -0.07730063 -0.19846101 -0.058574304 -0.16018578
-0.07944237 0.19462636 0.0243374 -0.09579405 -0.19595419 0.0013799315 0.059788916 -0.18763442
-0.48905006 -0.24204768 0.118882716 0.0262366 -0.29742366 -0.17108515 -0.1372285 -0.17491214
-0.033070385 -0.09983396 -0.08390413 -0.05909285 -0.026205024 0.038653232 -0.026950015 -0.06764941
-0.023096766 0.012135055 0.006918125 -0.04970393 -0.1856467 0.024159893 0.0033976377 -0.12758403
0.0024866215 0.08968124 0.12102831 -0.08181687 -0.07606263 0.17847772 0.213632 -0.042049475
-0.08215279 -0.121349975 0.14040652 -0.060214333 0.0038330026 0.06485198 -0.16918713 0.034459468
-0.062118694 0.007207115 -0.13332285 -0.017528517 -0.033127848 -0.037193373 -0.109231286 -0.063463
-0.10751797 -0.06429677 -0.106101185 -0.13769045 0.036722686 0.07394627 -0.012853287 0.007237219
0.0067948396 0.04636247 -0.07887403 0.084975556 0.11216989 -0.039305087 -0.028781164 0.06904453
-0.020123066 0.14366405 0.12729852 0.017323377 -0.04707605 -0.13481426 -0.12997691 0.1925076
0.1918341 0.06283839 -0.003018228 0.098146394 -0.050064567 -0.016985748 0.04649726 -0.079283625
-0.05994916 0.015997903 0.15426521 0.09463423 -0.19220336 0.14658107 0.13177197 0.04989414
0.030268775 -0.11154453 0.042003512 -0.10609715 0.091025464 0.09823104 0.10063989 -0.083769105
-0.1071688 0.15486264 0.11246995 -0.03920456 0.14045817 0.23361191 0.005749143 -0.20133922
0.050775465 0.1356445 0.042093724 -0.11306062 -0.12803182 0.06347751 -0.06261407 -0.24052411
0.04990331 0.1760359 -0.00044857632 -0.051751383 0.010737731 0.0333201 -0.07543368 -0.09920825
-0.08583178 0.03736603 0.011317091 -0.01856537 -0.18517238 -0.0133160455 0.15029335 -0.09964238
-0.26026386 0.12259314 0.092739634 -0.14342669 -0.23945178 0.08240604 0.047722194 -0.14544389
-0.11502105 0.17171116 0.13500199 -0.09017917 0.086457245 0.07269289 0.033476442 -0.013596343
-0.07055997 0.053262897 0.09132015 -0.36025172 -0.12230682 -0.030046374 -0.1272529 -0.2663772
0.11930298 0.24106358 -0.2005188 -0.031798363 0.023505738 0.15076989 -0.04568889 0.08551249
0.052802477 0.073264495 -0.013739503 -0.1875835 0.04848917 0.007204948 -0.18182608 -0.013092178
0.11507749 0.044221483 0.014319172 -0.10385521 0.06237171 0.051584214 -0.01709085 -0.13873701
0.11061987 0.14552057 0.101812914 -0.028702416 0.1348218 0.09533471 -0.087816715 -0.29115695
0.056124043 -0.05004136 -0.25241894 -0.124908134 -0.022036703 -0.07709942 -0.10536854 -0.19227007
-0.041052494 0.029226359 -0.07952422 0.0264584 0.15639491 0.019024251 -0.08985645 0.1009484

conv_layer2.0.bias f4 [16]
00000000: 0a11 07be 42f0 4cbd 358a 0c3e e056 12bd
00000010: 8f5e a63d 88ab d33d 38d4 853d c368 81bd
00000020: 8a05 2bbe 9906 573c be31 d5bd 2765 b2bc
00000030: dc38 dabc 6141 fdbd af0c 14bd 0f24 943d
-0.13190094 -0.050033815 0.13724597 -0.03572738 0.08123504 0.10335451 0.06534618 -0.0631881
-0.16701332 0.013124132 -0.10409878 -0.021776749 -0.02663844 -0.12365986 -0.03614491 0.0723344

C5_layer.0.weight f4 [120, 400]
00000000: 5b3f aebd 0cfa 0f3b a8b9 b63d 1a00 c2bc
00000010: f340 f9bc d3b9 06be dcec 1cbd cd5f 833c
00000020: 5e28 d2bb cf96 54bc d2a2 9bbd 1e4b b7bd
00000030: 2d0c 993d b058 dbbc f7fd c0bc c639 65bc
00000040: 0a30 713d 4952 a3bd 35ec dcbb 6297 93bc
00000050: 8684 6e3e 42a6 bf3d 7193 65bb 8722 243d
00000060: bba4 88bc cc7a 7fbe c43a a43d 8e9c be3d
00000070: a636 fe3b a562 07bd 0016 843c 8b89 993d
00000080: f4b8 9b3d 0fa9 c73c daee 1ebd d26e a9bc
00000090: f115 8ebd e957 15be 142b 99bd f7f8 ffbd
000000a0: 48d5 b8bd aa4f 95bc 4b39 b6bd 6050 86bd
000000b0: 1e53 1d3d 6fbd 883d d0c9 c5bc 360d d8bd
000000c0: 62b4 b43c b6a8 bd3c 2cd3 fabc 6b77 01be
000000d0: 3efe 95bc 2011 b1bd 495d c33d 5105 a73b
000000e0: cd5e e5bd 02c8 95bc 051f e9bb 9ffd acbd
000000f0: 0863 a43d e864 72be b5b0 b9bd ab0c c2bd
00000100: 405b 0ebe 844d aa3d a5a9 c1bc ae37 6b3c
00000110: cae4 e43c da30 a1bc 6958 853d 17f1 a93d
00000120: f3bf d93b b79a 253d a50d 8d3d 02fe babd
00000130: 52aa f7bc a4c4 a9bc 70be 873d 763e d83d
00000140: 3b9a 503d f0f4 e63d 8473 b53d 90fc e2bc
00000150: ee34 8fbd e163 fdbc 09b6 c63d 93f3 323c
00000160: ccb1 423d 26dc 663e 8f23 1f3c 5546 e13d
00000170: 1ae2 aab9 40a0 a43d 5508 183e 0d3b 21bd
00000180: 6f1e 213e 3736 ab3d 0d0e ec3d a521 823c
00000190: f0df eabd 2a4e 283d d49f 7bbc 945c 47bd
000001a0: 0f66 773d 3e59 fabd e3b9 343d 81d4 603d
000001b0: 76ee 88bd 44ec 0dbe 8fcd f63b 6498 853d
000001c0: 1ef1 c83d 51d9 82be 8ce3 2ebe c3ae c8bd
000001d0: f565 3d3b 6f8c 243d 3c82 313d 8c91 3e3d
000001e0: 2139 adbd a098 8e3d 7e6a dabd f186 b43d
000001f0: ca09 30be 9042 adbd 1a25 263e 7d55 bc3d
00000200: 26fd 983e cc8f af3d b603 933c 0781 2e3d
00000210: 68f9 fc3d f6fa 203d 54ff b0bd 445e 223e
00000220: 17a4 c5bc 1257 dcbc 02db e73c 0fe4 2c3d
00000230: 1a15 603d 5408 ddbd ff25 bf3d 5a2a 943d
00000240: 2363 6fbd 960d 133e 0742 ac3d 7b1d d83c
00000250: 2395 32be 8eb7 1fbe 0b39 edbd e268 5ebd
00000260: 14bb dfbd e3fc c6bd 801a 8c3d c9f3 2bbb
00000270: d6be eb3d f061 303e a648 803d 3901 163e
00000280: 4d8d 523c 6c72 023e 16c2 55bd 6a11 75be
00000290: df86 68be 5fa8 f23d a508 fb3c 7849 96bd
000002a0: 1aef f0bd 03bd f5bd 17df f63c 13c6 763d
000002b0: 4240 f63c 0d2e 053e aede 493e c0da f6bd
000002c0: 9359 0abe 141c ecbd 728b 003d 2652 1c3e
000002d0: c96b 8b3c b057 c4bb dec4 eabc a972 abbc
000002e0: 10b5 aa3c 5b40 77bc 7863 cbbd 694e fbbd
000002f0: ddfa 38be 760f 8cbd a1b8 8f3c c94d d6bd
00000300: 66c5 043e 7ee2 763d 4d03 023e 3a7e ef3d
00000310: 2c81 9fbc 916d 2a3e 75de 853d 11ef 4c3e
00000320: ce7d c6be 6c1b 3bbe 1060 12be f083 efbd
00000330: 3a31 903d 82a5 1abd 4fab ba3d e292 3ebd
00000340: a293 01bd 2e0e 363e cd58 ab3c 1701 283d
00000350: ac57 18be 860b 40be e74f 953c 1ac3 883d
00000360: 24ab 953d 34f9 bb3d 65ab d3ba 1647 a03d
00000370: 6f22 523d e034 813d a279 b7bc fa02 1c3e
00000380: 838b db3d b3fa 3abe 0e63 acbd 7c9e b53b
00000390: 85a4 333b e035 6e3d c811 503d 33de b83d
000003a0: 76c3 2fbd 837e ca3b c609 2abe 5921 e03d
000003b0: c08a 283e a46d e6bd 5655 3cbe 7924 573d
000003c0: 1b67 373e 104a 033d 5e42 b63c 9130 853d
000003d0: b374 273e d5d8 8f3d 07d5 9f3b 2cfa debc
000003e0: 88b7 4a3d 7784 6f3d d426 363c e423 c4bd
000003f0: 0ab9 2c3e 4d09 8b3d e7a0 76bd f0f6 633d
-0.08508178 0.0021969108 0.0892213 -0.023681689 -0.030426478 -0.13156824 -0.038311824 0.016036892
-0.0064135035 -0.012975409 -0.07599415 -0.08949874 0.074730255 -0.026775688 -0.0235586 -0.013990825
0.058883704 -0.07974679 -0.0067420253 -0.01801652 0.23292741 0.09357883 -0.003503051 0.04007199
-0.016680112 -0.24949187 0.08019021 0.09307204 0.0077579794 -0.03305306 0.016123772 0.07496937
0.076036364 0.024372606 -0.038802005 -0.020682726 -0.06937779 -0.14584316 -0.074789196 -0.12498658
-0.09025055 -0.018226463 -0.088976465 -0.06558299 0.038409345 0.066767566 -0.024144083 -0.10549395
0.02205867 0.023151737 -0.030618273 -0.1264321 -0.018309709 -0.086458445 0.09539277 0.0050970693
-0.111997224 -0.018283848 -0.0071142935 -0.08446812 0.08026701 -0.23671305 -0.09066907 -0.094750725
-0.13901997 0.08315566 -0.023640463 0.014356537 0.027941126 -0.019676615 0.065110035 0.08297937
0.0066451966 0.04043075 0.06887368 -0.091304794 -0.030232582 -0.020723648 0.0662812 0.105587885
0.050928336 0.11277187 0.088599235 -0.027708322 -0.069925174 -0.030931415 0.09702689 0.01092233
0.04753284 0.22544917 0.009713068 0.10999743 -0.00032593386 0.08038378 0.14846928 -0.039362956
0.15734266 0.0835995 0.115261175 0.015885184 -0.11468494 0.041090168 -0.01535793 -0.048672274
0.060400065 -0.12224053 0.044122588 0.05489016 -0.06686108 -0.1385966 0.0075318287 0.06523207
0.098116145 -0.25556424 -0.1707899 -0.09798958 0.0028899882 0.04017299 0.04333709 0.046525523
-0.08458162 0.06962705 -0.10664843 0.088148005 -0.17191234 -0.084599614 0.1622509 0.09195993
0.29880637 0.08572349 0.017946105 0.04260352 0.12352258 0.039301835 -0.0864245 0.15856272
-0.024126096 -0.026896987 0.028302673 0.04220968 0.054707624 -0.10792604 0.09333419 0.072346404
-0.058444154 0.14360651 0.08411031 0.026381245 -0.17439704 -0.15597364 -0.11583146 -0.054299243
-0.10924354 -0.09716203 0.06840992 -0.0026237837 0.115110084 0.1722486 0.062638566 0.14648904
0.012851072 0.12738961 -0.052187048 -0.23932424 -0.22707699 0.118485205 0.03064377 -0.07338232
-0.11764355 -0.11998942 0.030135674 0.060247492 0.030059937 0.13005848 0.19713852 -0.12053442
-0.13510732 -0.11528793 0.031382985 0.15265712 0.01701917 -0.0059918985 -0.028658327 -0.020928698
0.02083829 -0.015091027 -0.099310815 -0.12270815 -0.18064447 -0.068388864 0.017544093 -0.10464055
0.12965927 0.060274594 0.12696572 0.11693998 -0.019470774 0.16643359 0.06536571 0.20013072
-0.38767856 -0.1827218 -0.14294457 -0.11695087 0.07040639 -0.037755497 0.09114706 -0.046526797
-0.031634934 0.17778847 0.020916367 0.041016664 -0.14877194 -0.18754396 0.018226577 0.06677838
0.07308033 0.09178391 -0.0016149102 0.078260586 0.05130237 0.06308913 -0.022396866 0.1523551
0.10719969 -0.18259697 -0.08417331 0.0055425745 0.0027411294 0.058156848 0.050798208 0.09026756
-0.042911015 0.006179632 -0.16605291 0.109438606 0.16459179 -0.11251381 -0.18391928 0.052525017
0.17910425 0.032053053 0.022248443 0.06503404 0.16353111 0.07023779 0.0048776898 -0.0272189
0.049491435 0.058475938 0.011117656 -0.09577158 0.16867462 0.06788883 -0.060212042 0.05565542

C5_layer.0.bias f4 [120]
00000000: 953f d4ba a73f 9dba 6d9d 34bc 10da c23c
00000010: 4736 703d c058 033e 5703 8a3d db8a 933c
00000020: 3395 18bd 004c fcbc 586c b4bc 4125 99bd
00000030: 091c 933c 0868 f7bc d133 423d e13a 49bd
00000040: bee6 803c 64f5 123d 084e d33d 02b3 3d3d
00000050: 3174 6bbd ef40 9d3c db28 8cbd c735 903d
00000060: 376a 443b 7320 3bba fcc5 32bd a6ad 6b3d
00000070: aca9 8ebd 25c1 d33c dfc7 59bc 4196 69bd
00000080: df9e 0abd 36f5 1abd 353b 813c 4075 f33c
00000090: 1e76 b43d 7fb0 b43c cbc9 1d3d a7f5 743d
000000a0: 4c4e 36bd 59f2 42bd d05a 403c 12a7 1c3d
000000b0: 3c12 073e 08c4 623d dc71 6a3d 80bc 223d
000000c0: 52d7 b23d 2168 8fbc b9d1 393c 3c64 2fbd
000000d0: 15ae 6cbc 45be 063d b4b0 8e3c d117 d23c
000000e0: 8de6 9bbc ad0a 87bc 3df6 7a3c 5b95 2d3d
000000f0: 1979 e0bc 367e 27bd f255 183d c065 7f3d
00000100: eec3 c9bb d791 37bd 52d2 24bd dd7d 7ebd
00000110: f56d f03c 3c2d 33bd 9001 6e3d 2218 6b3c
00000120: 5809 1fbd 6bc4 46bd 6688 5abd 0db8 60bd
00000130: 778b c43c 5ba4 a93c 10b9 5c3d 0a65 44bd
00000140: d913 bdbd 01c1 b63c 60fa 2a3d bd64 043c
00000150: e67b 6cbd 41c7 07bd b110 4bbd e146 893d
00000160: 5c07 e13b 93e0 a9bb 83fc c63c f629 083d
00000170: 8570 933a 116d 323d f0fe ce3d 9204 b43d
00000180: 9e92 093d 35f1 113e 44cb d6bc 0b37 dabc
00000190: 3163 debc cb3f c53c 4dd3 883d 10cc d03d
000001a0: e61c 533d 569d 833d 1aba d73c 890c e7bc
000001b0: 8d51 94bd 6ce3 853d baa0 8abc 9c1f 8fbd
000001c0: 0336 37bc 9924 9abd 1e4e 1b3d 01de 133d
000001d0: 72a0 32bd f431 8f3d 662a 83bd 2f66 793c
-0.0016193265 -0.0011997119 -0.011023861 0.02378562 0.058645513 0.12826824 0.06738918 0.018010547
-0.037251662 -0.030797958 -0.022024319 -0.07477809 0.017957704 -0.030200973 0.047412697 -0.049128417
0.015735026 0.035878554 0.10317618 0.046313293 -0.057483856 0.019196002 -0.0684373 0.07041507
0.0029970536 -0.0007138319 -0.043645844 0.05753865 -0.06965956 0.025848934 -0.013292282 -0.05702806
-0.033842918 -0.037831508 0.015775302 0.029718995 0.088115916 0.022056816 0.038522523 0.059804585
-0.044508263 -0.047594402 0.011740401 0.03824527 0.1319055 0.05536273 0.05723749 0.03973055
0.08732475 -0.017505707 0.011341506 -0.0428202 -0.014445801 0.0328963 0.017418243 0.025646122
-0.019030834 -0.016484583 0.015317497 0.042378765 -0.027401494 -0.04089185 0.03719134 0.062352896
-0.00615739 -0.044816818 -0.04023964 -0.06213175 0.029349307 -0.04374431 0.05810696 0.014349015
-0.03882727 -0.048527163 -0.053352736 -0.054863025 0.023992283 0.020708254 0.053887427 -0.04794792
-0.09232301 0.022308828 0.041742682 0.0080806585 -0.057735346 -0.033149008 -0.049576465 0.06702972
0.0068673324 -0.005184242 0.024290329 0.033243142 0.0011248743 0.043561045 0.10107219 0.08789934
0.03358709 0.1425217 -0.026219971 -0.026637575 -0.027146908 0.02407827 0.066809274 0.10195172
0.05154123 0.06426494 0.026333857 -0.02820422 -0.07242117 0.06537518 -0.016922344 -0.06988451
-0.011182311 -0.07526512 0.037916295 0.03610039 -0.043610044 0.0699195 -0.06404571 0.015222116

fc_layer1.0.weight f4 [84, 120]
00000000: 19cc 143e fb04 80bd 033c 193d 4c5b 133e
00000010: 6f8e 0f3e 2c4e 783d f46a 21bd a648 ccbd
00000020: 2fe9 a0bd 2b67 8bbd 7068 67bd f656 d3bd
00000030: fd67 8a3a 207a c13d bd12 10be 34ac 033d
00000040: 69a5 09bd 5012 11bd 91c0 353c b0dd 3abd
00000050: 94b8 2abd 8f06 083c c347 183d ec46 a9bd
00000060: 668e 4d3c 3a7a 9abd 4f2a 903c b2bc 3dbe
00000070: ac2e fdbc 7371 63bd 4d96 4cbd 14cc f63d
00000080: 8eb8 a73d c161 3c3b 4720 f73c 61b7 2b3e
00000090: 39f0 853e 1966 753c 776c d23d 3c72 013c
000000a0: dd58 d33d 4996 2e3e acc9 b1bc 40b6 9d3d
000000b0: f482 1f3d 016b 2dbd 155d 033e 7280 0cbe
000000c0: 737e 83ba 505e 91bd ec76 46bd 777f 21be
000000d0: eae2 293e a039 b83c 3de8 b1bc 6a18 2f3c
000000e0: 54f7 eabd a284 c53d 2bbb b9bd 7e1b b63d
000000f0: 1a2e 33bc 4fb1 303d 4cfd 61bd b698 b6bd
00000100: fa57 203e 9b7b 493d ed36 893d a82c 6f3d
00000110: 4ab9 1cbc 0656 03bc 86d5 76bd da23 b63e
00000120: 8d3e 573c ac5d 163e 5372 62bd 461a 0e3d
00000130: 46f9 7dbd e266 233e 4d75 5b3b 0067 aebd
00000140: b657 0d3d 2ab3 ae3d 3d5a a1bd cb90 2ebd
00000150: ed3f 5fbd 39ef 573d 0c98 2f3e a031 85bd
00000160: 0805 87bd ef69 593d 4cb0 673d ccf6 813d
00000170: 361b eb3d f7be 54be 34ba fa3c fb6e dbbc
00000180: 1da4 8a3c fe63 9fbc b7a1 063d 5d77 babc
00000190: e168 edbd bef0 57bd 5ef7 773d d087 eabd
000001a0: a77f de3d 68ba 2a3e 32c1 583e d190 2a3b
000001b0: e4e1 a6bd e3ee 74bd b922 8d3d 681f 143e
000001c0: 5364 693d c3fc 333d f1e2 363d 98be 0dbd
000001d0: fa47 37bd 1a3d 843d e6e5 823d 6315 78bd
000001e0: 2831 aa3d d23f 5ebc 149a 443d 3c8e 183e
000001f0: 372f 773d d077 94bd 969f 0cbe 8f52 01be
00000200: 2f7f 6b3c cd0b c33c 5ed4 f73c 992a 563d
00000210: 965d 56bd a0d5 023c 4a87 6b3d 940e 853d
00000220: 26b1 af3b caf7 dbbc 362a 82bd 8133 843d
00000230: f1c8 c73c 5909 32be 46db 9b3d 46e1 2e3d
00000240: 7486 573d 53aa 0cbe 436f 27bd 253f ea3d
00000250: ceca 063d 6a79 b1bd 459b 2cbc 2a61 1dbd
00000260: e94d 5a3d 5028 4d3e c9ae 8dbe 96af 973d
00000270: 6623 35be 6d59 bd3d 6a70 a23d 6846 093e
00000280: d12f 493e 8924 16bc 0b99 f43d 64ff aebc
00000290: 8cf3 b63d 4a92 c5bd 5620 5abd 366b da3b
000002a0: b2c1 d8bd e084 31bd bb4f b53d de5c cbbd
000002b0: 2110 a9bc 50ba aa3d 4cb8 683d aea8 8bbb
000002c0: 9c16 983c 63ff 3f3d cbff 853d 779b c53d
000002d0: 1cff 9bbd 6350 a1bc 280f 1cbd 71a4 55be
000002e0: 4d40 683d b53d a1be da61 93bd a1c7 ba3d
000002f0: 6448 73bc 1509 da3c f1c0 21bd dc0a 033e
00000300: 05d0 b23d 5b42 a9bd fd77 dcbb 58cb 3bbc
00000310: e010 b2b9 cd5e cd3d 982e 2ebd 0a51 b2bd
00000320: d100 293d 47d2 2ebd 178a 78bd 9aa3 153d
00000330: c97b b43d e981 48bd 40cd 8f3d 0a19 b6bd
00000340: 8ab4 7dbd 0a39 a939 e622 9c3d b75d cabd
00000350: 6d4b c9ba 2779 afbd be56 58be d7a2 76bd
00000360: b6f1 c03d 3c8e be3c 8e36 9f3d 47b8 223d
00000370: 90ff a93d f819 3bbd f798 1abe 17a2 e23d
00000380: c6bb 8fbd d5cb 283e c17a 8abe 517d b8bc
00000390: 2096 cbbd 46a5 813c 5ded 813a 2ee7 b1bc
000003a0: 2d8b 3f3c 1681 edbd 25d0 423c 2def aabc
000003b0: 565d b1bd 3fe6 a8bd ac08 773d d330 9e3c
000003c0: 03ce 8f3c dc08 b73d 9f5a 223d 905f 32bc
000003d0: 05d9 f0bd db52 38bd 10c3 953d f34d aa3d
000003e0: 70b0 fd3c 9465 8bbd 39a0 f53c b18d ce3c
000003f0: 67e1 afbc 96d7 953d 97e1 2d3e 460c 963d
0.14530982 -0.0625095 0.037410747 0.14390296 0.14019178 0.060621426 -0.03940864 -0.09974794
-0.07856976 -0.06806787 -0.056496084 -0.10319321 0.0010559555 0.094471216 -0.14069648 0.032146648
-0.033605013 -0.035417855 0.011093275 -0.045621574 -0.041679934 0.008302345 0.037177812 -0.082654804
0.012546157 -0.07542844 0.0175983 -0.18529013 -0.030906044 -0.055528115 -0.049948025 0.120506436
0.08189498 0.002874479 0.030166758 0.16769172 0.26159838 0.014977955 0.10274594 0.007900771
0.10319684 0.17049517 -0.02170261 0.07700777 0.038943246 -0.042338375 0.12828477 -0.13720873
-0.0010032192 -0.07098067 -0.048453256 -0.1577128 0.16590467 0.022488415 -0.021717185 0.010686973
-0.11472955 0.09644438 -0.090689026 0.088919625 -0.010936284 0.043137845 -0.055173203 -0.08915846
0.1565856 0.049190145 0.066999294 0.058392197 -0.009565661 -0.008016115 -0.060262226 0.35574228
0.013137472 0.1468417 -0.05528481 0.034693025 -0.062005304 0.15957215 0.0033486665 -0.085157394
0.034507476 0.085302666 -0.0787854 -0.042618554 -0.054504324 0.052718375 0.17147845 -0.06503606
-0.065927565 0.05307954 0.056564614 0.06345901 0.114797994 -0.20775972 0.030606367 -0.026786318
0.016923958 -0.01945686 0.032869067 -0.022761995 -0.1159227 -0.052719824 0.060538642 -0.114516854
0.108641915 0.16672671 0.21167448 0.0026026259 -0.08148554 -0.059798133 0.068913884 0.14465106
0.056980442 0.043942224 0.044650022 -0.034605592 -0.044746377 0.06456967 0.06391506 -0.06056727
0.08310157 -0.013565021 0.047998503 0.14898008 0.060347762 -0.07249415 -0.13732752 -0.1262915
0.014373585 0.023809338 0.030252632 0.052286718 -0.052335344 0.0079855025 0.05750207 0.06496921
0.005361694 -0.026851553 -0.06355707 0.06455136 0.024387809 -0.17386378 0.076101825 0.042695306
0.05261846 -0.13736849 -0.04087759 0.11437825 0.032908253 -0.08665736 -0.010535066 -0.03842274
0.053296957 0.20034909 -0.27672413 0.07406537 -0.17689285 0.09245572 0.079315975 0.13405764
0.19647147 -0.009163984 0.11943253 -0.021362014 0.08933172 -0.09647043 -0.053253494 0.0066656126
-0.105838194 -0.04333961 0.08853098 -0.099298224 -0.020637574 0.083363175 0.056816384 -0.0042620515
0.018565468 0.046874415 0.06542929 0.09648793 -0.076170176 -0.019691652 -0.03810039 -0.2086351
0.056701947 -0.3149239 -0.07196398 0.091201074 -0.014848802 0.026615659 -0.039490644 0.12797111
0.08731083 -0.082646094 -0.006728171 -0.011462055 -0.00033963379 0.100278474 -0.042524904 -0.08706863
0.041260544 -0.042681005 -0.060678568 0.036532976 0.08812673 -0.048952017 0.0702157 -0.088914946
-0.061939754 0.0003227669 0.07623844 -0.09881156 -0.0015357562 -0.0856803 -0.2112684 -0.06021389
0.09421103 0.023261182 0.07774077 0.03972652 0.08300698 -0.045679063 -0.15097414 0.110660724
-0.07018237 0.16484006 -0.2704678 -0.022520693 -0.099407434 0.015825879 0.0009912659 -0.02171668
0.011690897 -0.11596887 0.011890446 -0.020866001 -0.086603805 -0.08247041 0.060311005 0.01931039
0.017554289 0.08937237 0.039637204 -0.010887042 -0.11760143 -0.045000892 0.07312596 0.08315649
0.030967921 -0.06806484 0.029983627 0.025214048 -0.021469785 0.073165104 0.16980587 0.0732656

fc_layer1.0.bias f4 [84]
00000000: 30e7 7c3d 5278 98bd 6d7d 943b 8892 803d
00000010: d7fb 923a b775 07bc 44f4 033d 10ee 103e
00000020: 54b8 0b3e 5203 ad3d 7556 623d d8b4 a1bd
00000030: e2db b23d 2fb8 a6bd 46cd 24bd dbcc bf3d
00000040: 8d26 be3d 1828 fd3d d8df 083d 1f2d 473c
00000050: 21aa e33d 719e 8a3d 0ed4 943d 561b 6e3d
00000060: b9e4 893d 3a41 973b fcf3 05bd e245 2cbd
00000070: 3ad5 483d 6a8b c83d a628 d13b 475b 973d
00000080: afc3 1e3d ecc7 083e 103b 5f3d 320f 213d
00000090: a318 fd3d b612 02bd 8f2e d9ba e6b4 973d
000000a0: 8b51 7b3d 71f8 f03d 6231 793d 16b7 873d
000000b0: 39aa e33d 25a7 4a3c b4c2 273c 4cc3 26bc
000000c0: b5b9 9d3d fd45 103e c5a7 bd3d 18a6 0abd
000000d0: 371d 513d b7f8 26bd 4743 a5bc 2219 123d
000000e0: b5c3 93bd 0f91 cebd d6b4 75bd 9d57 b5bd
000000f0: 60cf 263d b188 d33d abf4 c03d cf5f 97bd
00000100: 8d76 193e 51f8 3e3d 920c 6fbd 8419 debd
00000110: 6756 c7bc 3519 833d fdaf f93c 6249 9e3d
00000120: 6f17 4c3e 0e4b 0e3e 5880 09bd 15cb 33bb
00000130: a910 063e f5fd c1bd e6f1 783d 38b8 283e
00000140: bff2 973d f976 b1bd 3518 e63c 512d f23d
0.061743915 -0.07444824 0.0045315535 0.062779486 0.001121397 -0.0082678115 0.03221537 0.14153314
0.13644534 0.08447899 0.055258233 -0.07895821 0.087333456 -0.08140599 -0.040234827 0.09365245
0.09284697 0.12361163 0.0334166 0.012156754 0.11116434 0.067685015 0.07267009 0.05813154
0.067330785 0.00461593 -0.032703385 -0.042058833 0.049031474 0.09792216 0.0063830195 0.07390457
0.038760837 0.13357514 0.054499686 0.039321132 0.12358215 -0.031756125 -0.0016569662 0.074075505
0.061357062 0.117661364 0.06083811 0.06626718 0.11116452 0.012368952 0.010239292 -0.010178398
0.077014364 0.14089198 0.09260515 -0.033849806 0.051053252 -0.040764537 -0.020173682 0.0356685
-0.072150625 -0.100862615 -0.05998691 -0.088546015 0.040725112 0.10328806 0.09421667 -0.07391321
0.1498663 0.04662353 -0.058361597 -0.108447105 -0.024333192 0.06401292 0.030479426 0.077288404
0.19930814 0.13895819 -0.033569664 -0.0027434279 0.13092293 -0.094722666 0.060777567 0.16476524
0.07419347 -0.0866527 0.028087715 0.1182505

fc_layer2.weight f4 [10, 84]
00000000: 2347 4e3e cfee 61bc 0a38 58be 3dfd 903d
00000010: eb6f 913c bb76 87bd 29ff 9ebc f50b 2e3e
00000020: 4511 f8bd c252 17bd 3ed4 523e cde8 cfbd
00000030: 4957 823d 1bcb b8bd 1b00 d7bd a8d4 cbbd
00000040: 4aec e0bb a191 183e e09a 46be 56e9 023e
00000050: a268 8cbe 9818 c0bd 7b4a cdbc 2253 94bc
00000060: 472f 8dbd 3633 dabd 1d4e 403d d8a2 e93d
00000070: 0538 70be e3de 9ebe e988 303e b185 373d
00000080: 8fb9 b73d dd6a 5cbd 6aab c4be 6fde dfbc
00000090: 69d8 65be 13b7 a83c a746 a93d b10e dd3c
000000a0: f1f1 c3bd 9580 9b3c 96fc bebd d405 1ebc
000000b0: 00aa d6bd ff55 963a 0b3e 2abe f1f6 3abd
000000c0: 76e2 223e 029a fe3d 1a9b 55bd cd0a 1bbe
000000d0: cc74 1c3e bac9 54be 0744 e13d bd73 2e3d
000000e0: 8f9b d23a d64a 1fbe c6a9 813d 1bc1 8dbd
000000f0: 0b04 213d 3f80 24bc c715 95bd 8946 51be
00000100: a8f0 4abd 9afb f6bd e99f f83d 7236 fbba
00000110: fca5 4fbe 4573 a03d 05be 0b3e ad3d cd3d
00000120: 0485 bebd 28c3 a53d 17e4 8a3e c514 59bd
00000130: 5f58 babc 2d1a 02be 6277 bebd 3794 0bbe
00000140: a122 f73d 709e bfbc 7b69 af3d 2b75 053e
00000150: aadf 0d3e bb08 89bc 8c38 083e 211a 003d
00000160: a689 c6bd 949b 813d 2641 a03d abf5 293d
00000170: 553c 37be 2f02 16be 2df4 37be 8498 003e
00000180: a4ff 053e fe90 aabd 085e 37be c4fe 923c
00000190: e048 173e 8ec0 17be 84ea 28be 6984 673d
000001a0: c3c1 10bc 0e78 db3d f885 59bc e0ec 3c3e
000001b0: 9c9a 8b3c a868 a73d 2d3b 05bc 40eb 3dbe
000001c0: fb2a d3bd 17cc 883b a9bc 5fbe d6ef 08be
000001d0: 113a b43c b000 c33d 7346 143d 918d 523d
000001e0: 09f8 5f3d 92b0 5bbd d8ed 0dbe e502 2ebe
000001f0: 0ffe a03d 7b5e e3bd 479c 053e d8ff 75bd
00000200: f7c6 343e 593f 2c3d dee8 053e 02d7 35be
00000210: 84db 2b3d 3a05 1fbe 543c 8abe 0747 40bd
00000220: 33ed c5bd 3d74 1f3e 9224 71be 2c86 843e
00000230: 1fa8 c9be aa86 28be 5c38 86bd 7c8d 003d
00000240: 568a 483d 2050 acbd 926c 453d 1c04 2bbe
00000250: 70b1 f0bd 8b33 ef3d f0c0 6fbd 03d1 3c3e
00000260: 309e 68be 54bf 613b ca9e 80be 5631 003e
00000270: 2a8f 05be 1614 95be 661d 49be f91f 5bbd
00000280: 6c0b 82be 4863 11be 19be be3d 93b2 603c
00000290: ec3f 2ebe 124e 31bc c11b 043e ecfb 833d
000002a0: 36aa e53d ae14 d63b 443c 42bd d7d2 463d
000002b0: 6f22 eebd 885c 04bd 9fe3 263c 1174 ccbc
000002c0: 3b18 603d 98da 0b3e 4ec5 b43d 208a d0bd
000002d0: 1cd8 a83d 4f56 22bd 4e09 ffbd 7927 193e
000002e0: ac4e a9be c8ed a03d 5f0d 14be 0448 ebbd
000002f0: e557 6fbc db30 9dbe c52b 453e 71d2 2e3e
00000300: c273 cd3d 8b6f 9a3c 7cbc efbb f098 873e
00000310: f9ae 343d 6981 253d 8db2 68be 8b27 08be
00000320: 1cd8 a4bd 29ef a23c ba0b fd3d b227 0c3e
00000330: ff03 9dbe dceb 763d 78e5 913d 910b b23d
00000340: 8538 2abd be62 0e3e acdb 0c3e f1fa 8e3d
00000350: f219 49be 8fbd 023d 011f b93d 619d 5d3d
00000360: 0162 9dbe 93fc ab3d 878c de3c 5300 5b3a
00000370: 2056 293d 1837 95bd aac1 a1ba c30a 8cbe
00000380: c41b e1bd c810 0cbe c329 103d 7ea4 993c
00000390: 62fe 103e 71af 56be 3979 3cbe ddc3 04be
000003a0: 38ac f2bc d927 35be 2584 44bd b147 953d
000003b0: 4d28 033e bfe1 45be 0c0c f2bd ae18 9d3d
000003c0: 60eb 4ebd 5489 40be 4a47 163d 4997 8bbd
000003d0: f63a 37be ad1b 1fbe 8dd1 e6bd 8857 05be
000003e0: c6be ff3d 2987 b7bc 8ed4 14be 49ea 8dbe
000003f0: fbac 78bd bb26 0dbe 8273 e13c e95e 36be
0.20144324 -0.013789847 -0.21115127 0.07079551 0.017753562 -0.06614443 -0.01940878 0.16996749
-0.12112669 -0.03694416 0.20588776 -0.10151825 0.063643046 -0.09023114 -0.10498067 -0.0995267
-0.0068641054 0.14899303 -0.19395018 0.12784323 -0.27423579 -0.09379691 -0.02505993 -0.018106047
-0.06893783 -0.10654299 0.046949495 0.11408013 -0.2345887 -0.31029424 0.17239727 0.044805232
0.08970939 -0.05381285 -0.3841203 -0.027327744 -0.22445835 0.02059511 0.08265429 0.026984544
-0.09567631 0.018982211 -0.09325521 -0.009644944 -0.10481644 0.0011469721 -0.1662523 -0.045645658
0.159067 0.124317184 -0.05214987 -0.15140839 0.1527893 -0.20780078 0.10999303 0.042590845
0.0016068089 -0.15555891 0.0633121 -0.069215976 0.039310496 -0.010040342 -0.07279544 -0.20437063
-0.049545914 -0.12059708 0.121398754 -0.0019166006 -0.20278162 0.07834486 0.13646705 0.10021529
-0.093027145 0.08093864 0.27127144 -0.052998323 -0.022747217 -0.12705298 -0.09300114 -0.13630758
0.12067152 -0.023390979 0.08565041 0.13032977 0.13854852 -0.016727796 0.13302821 0.03127492
-0.09694223 0.06328502 0.07824926 0.041494053 -0.17894109 -0.1464927 -0.1796424 0.1255818
0.130858 -0.08328436 -0.17906964 0.017943747 0.14773893 -0.14819548 -0.1649571 0.05652276
-0.008835259 0.10716258 -0.01327657 0.18449736 0.017041497 0.081742585 -0.008131784 -0.18546772
-0.10310932 0.00417472 -0.21849312 -0.1337274 0.022000344 0.095216155 0.036199998 0.05140454
0.054679904 -0.053635187 -0.13860261 -0.16993292 0.07860958 -0.11102005 0.13047896 -0.060058445
0.17654024 0.0420526 0.13077113 -0.177578 0.041957393 -0.15529338 -0.26999152 -0.046942737
-0.09664383 0.15571685 -0.23549107 0.25883615 -0.3938608 -0.1645762 -0.065537184 0.03138493
0.048960052 -0.0841372 0.048199244 -0.16700786 -0.117525935 0.11679753 -0.05853361 0.18439107
-0.22716594 0.0034446316 -0.25121146 0.1251882 -0.13042894 -0.29116887 -0.19640121 -0.05349729
-0.2539934 -0.14198029 0.09313602 0.01371445 -0.17016572 -0.010821836 0.12901212 0.06444535
0.11214106 0.006533227 -0.047420755 0.048540916 -0.116276614 -0.032314807 0.010186105 -0.024957689
0.054710608 0.13657606 0.088266954 -0.10182595 0.082443446 -0.03963309 -0.124529466 0.14956464
-0.33067834 0.07857853 -0.14458226 -0.11488345 -0.014608358 -0.30701336 0.19254978 0.17072465
0.10031845 0.018852016 -0.0073161703 0.2648387 0.04411218 0.04040662 -0.22724362 -0.13296334
-0.08049032 0.019889431 0.12355752 0.13687018 -0.3066711 0.060283527 0.07123846 0.08693612
-0.041557807 0.13904855 0.13755673 0.06981457 -0.19638804 0.03191906 0.09039117 0.054105166
-0.30738834 0.08397784 0.027166618 0.00083542353 0.0413419 -0.07285899 -0.0012341042 -0.2735196
-0.10991624 -0.13678277 0.035196077 0.018755194 0.1415954 -0.20965363 -0.18405618 -0.12965341
-0.029623136 -0.17690982 -0.047977585 0.07289065 0.12808342 -0.19324397 -0.11818704 0.07670723
-0.05051744 -0.18802387 0.03668908 -0.06815965 -0.17893586 -0.15537901 -0.112704374 -0.13021672
0.12487559 -0.022403317 -0.14534208 -0.27717808 -0.060711842 -0.13784306 0.027520899 -0.17809643

fc_layer2.bias f4 [10]
00000000: 3450 ebbd 56f4 8d3d 2b57 97bd 14cf 37bc
00000010: a9e9 39bd a5cc aabd 55f1 e0bd 8bcd 00be
00000020: a1ab 783d 331f 7b3c
-0.11489907 0.06931369 -0.07389673 -0.011218805 -0.04538885 -0.08339814 -0.109835304 -0.12578408
0.060710553 0.015327263
