ml2/1126/mnist_weights_GaussianBlur.pth (torch, 250119 bytes, 10 tensors)

conv_layer1.0.weight f4 [6, 1, 5, 5]
0	0x3c93cd47	0.01804222
1	0x3e01b87e	0.12668034
2	0x3e7d320f	0.24726127
3	0xbdead10e	-0.11465655
4	0xbe92b95e	-0.2865705
5	0x3e765708	0.24056637
6	0x3d4e5bfe	0.0503807
7	0x3e97dfc0	0.29662895
8	0xbdfbef83	-0.123015426
9	0xbeedd5f9	-0.4645231
10	0xbd0ac38c	-0.033877894
11	0x3e993515	0.2992331
12	0x3e2d1858	0.16903818
13	0xbd9cfaad	-0.07665
14	0xbee86e0b	-0.45396456
15	0xbdc72d5a	-0.09725447
16	0x3ea4bd93	0.32175884
17	0x3e8a6266	0.27028197
18	0xbd53fc01	-0.051754
19	0xbdff0bbf	-0.12453412
20	0xbe35b0af	-0.1774318
21	0x3cea085d	0.028568441
22	0x3ec12a84	0.3772775
23	0x3e3efd02	0.18651202
24	0xbdfba0bf	-0.12286519
25	0xbb9495af	-0.0045344452
26	0xbde9ebe3	-0.11421945
27	0xbedbc9f2	-0.4292751
28	0xbe91ac80	-0.2845192
29	0xbe0ecc1b	-0.13945048
30	0xbd84228c	-0.06451902
31	0xbe8fcb78	-0.28084922
32	0xbf1f15e6	-0.6214279
33	0xbe677ac0	-0.22605419
34	0x3dfc78fc	0.123277634
35	0x3e4da5e7	0.20082818
36	0xbe799749	-0.24374117
37	0xbc356a38	-0.011072688
38	0x3d4a08b2	0.0493247
39	0x3e857c72	0.26071507
40	0x3ce0fe76	0.027465086
41	0x3ee85522	0.4537745
42	0x3ee2eeb7	0.4432275
43	0x3ed79cd5	0.4211184
44	0x3e37d1bd	0.17951103
45	0x3ec29565	0.38004604
46	0x3ed45f17	0.41478798
47	0x3e8cff95	0.27538744
48	0xbae4bbbe	-0.0017450971
49	0xbd3a34b4	-0.045460418
50	0x3e9984b8	0.2998407
51	0xbd0f4372	-0.03497643
52	0xbe8d74f7	-0.276283
53	0xbe6bcd4a	-0.2302753
54	0xbb9583e7	-0.004562843
55	0x3e27c110	0.16382241
56	0xbee412e6	-0.44545668
57	0xbf0d6cd7	-0.552442
58	0xbe1f4f15	-0.15557511
59	0x3eae4164	0.34034264
60	0xbe6ea90b	-0.23306672
61	0xbf3ee196	-0.74562967
62	0xbe181ffd	-0.14855953
63	0xbc59ce42	-0.013293805
64	0x3e8b8094	0.27246535
65	0xbe956d64	-0.2918502
66	0xbed71165	-0.42005458
67	0xbd2c0573	-0.041997384
68	0x3da433f9	0.080177255
69	0x3ee21603	0.4415742
70	0xbea76efa	-0.32701856
71	0xbd897e34	-0.067135245
72	0xbde39295	-0.11111943
73	0x3de76796	0.11299054
74	0x3ea45990	0.3209958
75	0x3e24e337	0.161023
76	0x3d049765	0.032370944
77	0x3e0b023c	0.13575071
78	0x3e04dd5f	0.12975071
79	0x3d2005bc	0.03906797
80	0xbdd0a56d	-0.101878025
81	0x3ec972dc	0.39345443
82	0x3de8d7b0	0.11369264
83	0x3e7fa86d	0.24966593
84	0x3e3d138e	0.18464491
85	0xbea1cd22	-0.31601816
86	0xbe492859	-0.19644298
87	0x3df1f481	0.118142135
88	0x3ddddaf5	0.10832778
89	0x3cf91540	0.03040564
90	0xbee34c86	-0.4439432
91	0xbe1d6f2d	-0.15374441
92	0x3de13c13	0.109977864
93	0x3e7506a0	0.23928308
94	0xbb7d465b	-0.0038646671
95	0xbe3050fa	-0.1721839
96	0xbd8bbe29	-0.068233795
97	0x3e263179	0.1622981
98	0x3e4ddd7d	0.20104022
99	0xbddc804c	-0.10766658
100	0xbda88458	-0.082283676
101	0x3bda57ba	0.00666329
102	0x3e4fc3fc	0.20289606
103	0x3e82d400	0.25552368
104	0x3dbd5226	0.09244184
105	0x3c37cf4e	0.011218859
106	0x3dd701c1	0.104983814
107	0x3eba7da7	0.3642399
108	0x3e4570a1	0.19281246
109	0x3ea63228	0.3246014
110	0x3eb62ac0	0.3557949
111	0x3e619b03	0.22031789
112	0x3e8f92b7	0.28041622
113	0x3e8d5325	0.27602497
114	0xbc7aad89	-0.015300163
115	0x3a3d3d9e	0.00072189595
116	0xbe90df6e	-0.28295463
117	0xbee82315	-0.45339265
118	0xbe421006	-0.18951425
119	0xbcdea9f3	-0.027180647
120	0xbed85852	-0.42254883
121	0xbef81ca0	-0.4845934
122	0xbe24f3ec	-0.16108674
123	0xbec7c328	-0.3901608
124	0x3d892668	0.066967785
125	0xbe924ac2	-0.2857266
126	0xbe0c7f3c	-0.13720411
127	0x3d5afcc6	0.05346372
128	0x3d09ebe8	0.033672243
129	0xbcbd81c5	-0.023133168
130	0xbe175cbc	-0.14781469
131	0x3c67931b	0.014134194
132	0xbd8949d8	-0.06703538
133	0x3ea143e3	0.31497106
134	0x3dc43a48	0.09581429
135	0x3d206bc0	0.03916526
136	0x3e99ca61	0.30037215
137	0x3e652935	0.22379
138	0x3e872d3c	0.264017
139	0xbd6ad026	-0.057327412
140	0xbb401627	-0.0029310079
141	0x3e1dc4e5	0.1540714
142	0xbd5ca4c2	-0.053868063
143	0x3e58893d	0.21146102
144	0xbe2b38f9	-0.16720952
145	0x3da458b0	0.08024728
146	0x3e0b5026	0.13604793
147	0x3bc4c11a	0.006004465
148	0xbd1d4602	-0.038396843
149	0xbe508590	-0.2036345

conv_layer1.0.bias f4 [6]
0	0xbe267d21	-0.1625867
1	0x3d7fc3d3	0.062442612
2	0x3d9aaeac	0.07552847
3	0xbe27da03	-0.16391759
4	0x3d16efdb	0.036849838
5	0xbd755850	-0.059898674

conv_layer2.0.weight f4 [16, 6, 5, 5]
0	0x3c777973	0.015104639
1	0xbd31a93c	-0.043374285
2	0xbe53c046	-0.20678815
3	0xbe89c407	-0.2690737
4	0xbe250814	-0.16116363
5	0xbd47405d	-0.048645366
6	0xbd8b1b71	-0.067923434
7	0x3d1ca18f	0.03824001
8	0xbceaa931	-0.02864513
9	0xbe79359d	-0.24336858
10	0xbe2be1bb	-0.16785328
11	0xbc770512	-0.015076892
12	0x3e8d2d25	0.27573505
13	0x3e455176	0.19269356
14	0xbdd70ca3	-0.10500457
15	0xbca62b86	-0.020284425
16	0xbe5df8e8	-0.21676981
17	0xb948e1c4	-0.0001915759
18	0x3e072e6a	0.132013
19	0x3c79742f	0.015225454
20	0x3e390cda	0.18071309
21	0xbe774f0c	-0.24151248
22	0xbdc26232	-0.094913855
23	0x3d8d1a11	0.068897374
24	0x3dc331a0	0.095309496
25	0xbdc2a374	-0.095038325
26	0x3dd5b938	0.10435718
27	0x3e11235a	0.14173642
28	0x3dd3df62	0.10345341
29	0x3d65c7ea	0.056098856
30	0x3b262844	0.002535359
31	0x3e30d9f8	0.17270648
32	0x3dd7bf78	0.10534567
33	0xbdcd1fe0	-0.10015845
34	0xbdd565ea	-0.10419829
35	0x3d80d58a	0.06290729
36	0xbd9f9f4c	-0.07794055
37	0x3d8b3965	0.067980565
38	0x3e1726c9	0.14760889
39	0x3e1fcdbc	0.15605825
40	0xbe528566	-0.205587
41	0xbe254fb0	-0.1614368
42	0xbe1c434b	-0.15260045
43	0x3b9ab044	0.0047207195
44	0x3e2329f0	0.15933967
45	0xbd76d3f7	-0.06026074
46	0x3cce9fb1	0.025222631
47	0x3cc58868	0.024112895
48	0xbdf8774d	-0.1213213
49	0x3c488549	0.012238809
50	0xbe0bc303	-0.1364861
51	0xbdbdb660	-0.09263301
52	0xbdd8ea41	-0.105915554
53	0xbcaa4899	-0.02078657
54	0xbd25ccfc	-0.04047869
55	0x3b2e8425	0.0026629057
56	0xbe07fbfe	-0.13279721
57	0xbe4a3175	-0.19745429
58	0xbe0c044f	-0.13673519
59	0xbd8e407a	-0.06945892
60	0xbe135b5f	-0.14390324
61	0xbe951bb1	-0.2912269
62	0x3d2fb2b4	0.042895034
63	0xbea001e9	-0.31251457
64	0xbeb88ac8	-0.36043382
65	0xbe3d6a44	-0.18497568
66	0xbd81f57c	-0.063456506
67	0xbd44ddb6	-0.048063003
68	0xbe776622	-0.24160054
69	0xbe76f87b	-0.24118225
70	0xbd9a7207	-0.0754128
71	0xbb7cb936	-0.0038562543
72	0x3d9d3e16	0.076778576
73	0x3da66208	0.08124167
74	0x3c7bcb13	0.015368241
75	0xba3ccfb5	-0.00072025816
76	0x3c94b3d5	0.018152157
77	0xbd2332cb	-0.03984336
78	0xbbb7e461	-0.0056119417
79	0xbe4a1a0f	-0.19736503
80	0x3da17870	0.078843
81	0x3d56fb15	0.052485544
82	0x3d24aaf8	0.04020211
83	0xbe4d28d9	-0.20035113
84	0x3d279ae3	0.040919196
85	0x3d14bb3e	0.03631138
86	0x3da58091	0.08081163
87	0x3c353194	0.011059184
88	0x3c3788e6	0.011202073
89	0xbdcbc35c	-0.09949371
90	0x3d2cbeb3	0.042174052
91	0xbdab90a8	-0.083772
92	0x3df8d897	0.12150686
93	0x3da6f7d1	0.08152736
94	0x3c3ae8d0	0.011408046
95	0xbde1f7aa	-0.11033566
96	0xbc875c02	-0.016523365
97	0xbca1858e	-0.019717004
98	0x3da5d11a	0.080965236
99	0x3e02fa2e	0.12790748
100	0x3d5e9e86	0.0543504
101	0x3bfb55a8	0.007670123
102	0xbe5d62e8	-0.21619761
103	0x3c6a1a73	0.014288533
104	0x3e15ad64	0.14616925
105	0x3d7ca717	0.061682787
106	0xbab41908	-0.001374037
107	0xbc999279	-0.018746601
108	0x3baf13e9	0.0053429496
109	0x3d6e9bde	0.058254115
110	0xbd15d21e	-0.036577336
111	0x3e35a9af	0.1774051
112	0xbcc9c281	-0.02462888
113	0xbe2b007b	-0.16699402
114	0x3c80fdf9	0.015746104
115	0xbc55e240	-0.0130544305
116	0x3ddf2c2e	0.108970985
117	0x3e4d4228	0.20044768
118	0xbbf17f40	-0.0073699057
119	0xbd1d886e	-0.038460188
120	0xbe1e1c4b	-0.1544048
121	0xbe122223	-0.14270835
122	0xbd01a3b2	-0.031650253
123	0x3ddd9941	0.108202465
124	0x3cab98ca	0.020946879
125	0x3e014ff1	0.12628151
126	0x3c76018e	0.015015019
127	0x3c835421	0.016031327
128	0xbd7180a4	-0.058960572
129	0x3d637279	0.05552909
130	0x3d68288e	0.0566793
131	0xbd8db212	-0.0691873
132	0x3dae3404	0.08506015
133	0x3d107b1f	0.035273667
134	0xbdf9509e	-0.1217358
135	0xbb8d623c	-0.004314689
136	0x3dba19b3	0.09086933
137	0xbdd1ff3c	-0.1025376
138	0x3aef3e7b	0.0018252874
139	0xba44115c	-0.00074793934
140	0xbe013df5	-0.12621291
141	0xbc9c13be	-0.019052383
142	0x39ce119c	0.00039304502
143	0x3d18704c	0.03721647
144	0x3d5f125b	0.054460865
145	0xbde67f76	-0.1125478
146	0xbe57067c	-0.20998567
147	0xbde962af	-0.113957755
148	0x3bbcf399	0.005766344
149	0x3c83580c	0.016033195
150	0xbd141ec0	-0.036162138
151	0xbdea696a	-0.114458874
152	0x3c16060b	0.009156714
153	0xbce3cf71	-0.027808877
154	0xbdc56c00	-0.0963974
155	0xbe73627a	-0.23768035
156	0xbe749359	-0.23884334
157	0xbc8aaa9d	-0.016927058
158	0x3de6cfaf	0.11270081
159	0x3e013531	0.12617947
160	0xbe748601	-0.23879243
161	0xbe35a0a0	-0.17737055
162	0xbe8cd05f	-0.27502725
163	0x3e2d6a18	0.16935003
164	0x3ebda9c2	0.37043577
165	0xbe5f55b4	-0.21810037
166	0xbeaa6da9	-0.3328679
167	0xbeb2584d	-0.34832993
168	0x3c6f4af7	0.014605275
169	0x3eaa442b	0.33255133
170	0xbd425f3f	-0.047454115
171	0xbe514254	-0.20435458
172	0xbe43a1c6	-0.1910468
173	0x3d86ffb4	0.0659174
174	0x3e332e27	0.17498074
175	0xbcf6fd88	-0.03015019
176	0x3c8f5d7c	0.017500632
177	0x3d4237ed	0.047416616
178	0x3d94e2a8	0.07269794
179	0x3d52c5d1	0.051458184
180	0xbd134376	-0.035953008
181	0x3db7a4ac	0.089669555
182	0xbd192a1d	-0.037393678
183	0x3d0faf67	0.035079386
184	0xbd838738	-0.06422275
185	0xbe0a22fa	-0.13489905
186	0xbe5cade2	-0.21550706
187	0xbdc2e139	-0.09515614
188	0xbd90c664	-0.0706909
189	0xbdb1b849	-0.08677728
190	0x3dc30792	0.09522928
191	0xbc2a3be7	-0.010390258
192	0x3dfa8b01	0.12233544
193	0xbd4a7f53	-0.049437832
194	0xbe23ccdf	-0.15996121
195	0x3ddcefca	0.10787924
196	0x3d88a56b	0.06672176
197	0x3d62229f	0.0552088
198	0x3da58492	0.080819264
199	0xbe462386	-0.19349489
200	0xbd384951	-0.044991795
201	0x3d991614	0.07474914
202	0xbe35df11	-0.17760874
203	0xbe60dc6c	-0.21959084
204	0xbd8fcfe6	-0.07022075
205	0xb9184430	-0.00014521251
206	0x3b9e9319	0.0048393128
207	0xbe4d4a61	-0.20047905
208	0xbdb00f4d	-0.085966684
209	0xbe91cce2	-0.28476626
210	0xbc8c9f09	-0.017165678
211	0xbd6726bd	-0.056433428
212	0xbd830f27	-0.063993745
213	0xbd3d18be	-0.046166174
214	0xbd9fae1c	-0.077968806
215	0x3d40875d	0.047004092
216	0xbe6072d6	-0.21918806
217	0xbdd63a9f	-0.104604
218	0x3ccaa924	0.024738856
219	0x3d13b1c6	0.03605821
220	0x3d0eb789	0.034843
221	0xbdcfabdb	-0.10140201
222	0x3d6d389d	0.05791532
223	0x3d7a553b	0.06111644
224	0xbd60517a	-0.054765202
225	0x3cda869d	0.026675517
226	0x3d34421b	0.044008356
227	0x3c159c29	0.00913147
228	0xbddee915	-0.108843006
229	0xbe0c2a9b	-0.13688128
230	0x3ce62168	0.028092101
231	0xbcb30cfb	-0.021856776
232	0x3c2fbe7e	0.010726569
233	0x3e2c7278	0.16840541
234	0x3d8679d3	0.06566205
235	0xbe26aba7	-0.16276418
236	0xbe0e9bf7	-0.13926683
237	0x3d2d8136	0.042359553
238	0x3de88140	0.113527775
239	0x3dfba5b1	0.122874625
240	0xbe16bba6	-0.1472002
241	0xbdbc01c9	-0.09180028
242	0x3bfa955e	0.0076472005
243	0x3e440f72	0.19146517
244	0x3db66e48	0.08907753
245	0xbdc1062b	-0.094250046
246	0xbda62b81	-0.081137665
247	0xbdde4e0f	-0.10854732
248	0x3dbac609	0.091198035
249	0xbddcb4cf	-0.10776674
250	0xbc420db4	-0.011844087
251	0xbd07c77a	-0.03314922
252	0x3df5fde3	0.12011316
253	0xbdbf6785	-0.09345917
254	0xbe804b21	-0.2505732
255	0xbcce4307	-0.025178446

conv_layer2.0.bias f4 [16]
0	0x3d628904	0.05530645
1	0xbe0a9416	-0.13533053
2	0x3ddd1120	0.10794282
3	0x3dc8b1cf	0.09799539
4	0x3c54e364	0.012993667
5	0x3de18b6c	0.11012921
6	0xbd3e9f6d	-0.04653876
7	0x3d249b2a	0.04018704
8	0xbe3507bb	-0.1767873
9	0x3d6dca29	0.058054123
10	0x3b422982	0.0029626791
11	0xbe16dcf1	-0.1473272
12	0xbe1e0ff0	-0.15435767
13	0x3c54299a	0.012949372
14	0xbca27d6b	-0.019835195
15	0xbd88feef	-0.0668925

C5_layer.0.weight f4 [120, 400]
0	0xbdaebacf	-0.08531725
1	0xbdec8dc6	-0.11550479
2	0xbdb7b062	-0.08969189
3	0x3ce9c5cd	0.028536702
4	0xbdb05cde	-0.08611463
5	0xbbe64e9d	-0.0070284144
6	0xbd8e05e2	-0.06934716
7	0x3cfc2bc9	0.030782597
8	0xbd2bbcb2	-0.041928
9	0xbd3b0365	-0.045657534
10	0x3ca234d7	0.019800587
11	0xbcd70ed8	-0.026252195
12	0xbcccac4d	-0.024984503
13	0x3d715189	0.05891565
14	0xbda3e83b	-0.08003279
15	0x3c041ad4	0.008063037
16	0x3dbd3d8c	0.09240255
17	0x3da469d5	0.08027998
18	0xbd650e0e	-0.055921607
19	0xbe072c00	-0.13200378
20	0x3df843da	0.12122317
21	0x3cc0ca0b	0.023533842
22	0x3d01dcd4	0.03170474
23	0x3c0ec419	0.0087137455
24	0xbcaa41ba	-0.020783294
25	0xbc97e964	-0.018543907
26	0x3d6f3dac	0.058408424
27	0xbd18a9b5	-0.03727122
28	0xbd5042d5	-0.050844986
29	0xbce62e69	-0.028098302
30	0xbd3e0d8c	-0.046399638
31	0x3d3a8787	0.045539405
32	0x3da9529f	0.08267712
33	0xbcdaca7f	-0.026707886
34	0xbd90d29a	-0.07071419
35	0xbb92b145	-0.0044766986
36	0x3cb84ee2	0.022498552
37	0xbb063c61	-0.0020482766
38	0xbd396269	-0.045259867
39	0xbdf0d590	-0.11759484
40	0xbd00b3a6	-0.031421326
41	0x3d8b07cb	0.06788596
42	0xbc5ec93d	-0.013597784
43	0x3cb26437	0.021776302
44	0x3d2599ac	0.040429756
45	0x3bd232cc	0.006414747
46	0xbd21fe40	-0.039549112
47	0x3c2f99bf	0.010717808
48	0x3da1019f	0.07861637
49	0x3cb21f09	0.021743314
50	0xbd90509f	-0.07046627
51	0x3d40447d	0.046940316
52	0xbd6866f0	-0.056738794
53	0xbd60a8f5	-0.05484863
54	0xbcc5d40c	-0.024148963
55	0x3d8d53d0	0.069007516
56	0x3d802a00	0.06258011
57	0xbc9764e6	-0.01848073
58	0x3db27f1c	0.087156504
59	0x3dafcece	0.08584367
60	0xbe41d116	-0.18927416
61	0xbd4738fa	-0.04863832
62	0x3cabb42e	0.02095994
63	0xbd76c427	-0.06024566
64	0xbd88d0a7	-0.06680422
65	0xbe0eee49	-0.13958086
66	0xbc73795a	-0.014860475
67	0xbddd58ce	-0.10807954
68	0xbcd8e21d	-0.026475007
69	0xbbb58e5a	-0.0055406513
70	0x3d9eb0c1	0.07748557
71	0x3e5f8703	0.21828847
72	0x3e2ae80a	0.16690078
73	0x3e5edf87	0.21764956
74	0x3ddb0285	0.1069384
75	0x3d9c11e0	0.07620597
76	0x3de48c28	0.11159545
77	0xba07436c	-0.0005159888
78	0xbd1d693a	-0.03843043
79	0xbcaa2bb6	-0.020772796
80	0xbd2041e7	-0.03912535
81	0xbe14ddd4	-0.14537746
82	0xbb55751b	-0.003257102
83	0x3c3fac9a	0.011698866
84	0x3d04b41c	0.03239833
85	0xbe3becd1	-0.18352057
86	0xbd2773af	-0.04088181
87	0x3dc62cd1	0.09676517
88	0x3d485253	0.048906635
89	0xbe2e7faf	-0.17040895
90	0xbdfa64e9	-0.12226278
91	0xbd7ee9ee	-0.06223481
92	0xb89c6b4b	-7.4586445e-05
93	0xbd501c1d	-0.05080806
94	0xbe80b403	-0.25137338
95	0x3d81a8b2	0.06331004
96	0x3e670b46	0.22562894
97	0x3e8baeb5	0.27281728
98	0xb7d21091	-2.5041665e-05
99	0xbe321dac	-0.17394131
100	0xbdb3d6bc	-0.08781192
101	0xbc3f68b3	-0.011682677
102	0x3c3297f1	0.0109004835
103	0xbe029eef	-0.12755941
104	0xbd89e4d9	-0.06733102
105	0x3da81e4e	0.08208905
106	0x3c8597f4	0.016307808
107	0x3dba64cc	0.09101257
108	0x3d6eb966	0.05828228
109	0x3abc134b	0.0014349011
110	0xbd03a2d3	-0.032137703
111	0x3d7fd636	0.062460147
112	0xbc8a5baf	-0.016889421
113	0xbd3f427f	-0.046694275
114	0xbd197612	-0.037466116
115	0x3b24d09f	0.0025148762
116	0x3c9777f0	0.018489808
117	0x3dc52d0e	0.09627734
118	0x3e142d59	0.14470424
119	0xbcec6210	-0.028855354
120	0x3df23dd5	0.118282
121	0x3be34b74	0.006936485
122	0x3d65312e	0.055955105
123	0xbd673c3a	-0.05645392
124	0xbdf9d3d5	-0.12198607
125	0xbec5ddf0	-0.38645887
126	0xbd34ecef	-0.04417127
127	0xbde1c78a	-0.11024387
128	0x3dcdd52e	0.100504264
129	0xbd676d63	-0.056500804
130	0x3d2751ee	0.04084962
131	0xbd096dff	-0.033552166
132	0x3d217def	0.03942674
133	0x3bda6efc	0.0066660624
134	0xbba36b93	-0.004987189
135	0xbe184f80	-0.14874077
136	0xbe464571	-0.19362427
137	0xbd4c6372	-0.049899526
138	0x3d8dd597	0.06925505
139	0x3d712556	0.058873497
140	0x3ce8a905	0.028400907
141	0x3d9c42e1	0.07629944
142	0xbc043016	-0.008068105
143	0xbca9b762	-0.020717327
144	0xbdc6137c	-0.09671685
145	0x3e30ae73	0.17254047
146	0x3e02919a	0.12750855
147	0x3d3f0e30	0.04664439
148	0xbe084edc	-0.13311332
149	0xbde1cdd1	-0.110255845
150	0xbcf3ff46	-0.02978481
151	0x3b740691	0.003723536
152	0x3d773474	0.060352758
153	0x3da74f9c	0.08169481
154	0xbd460b4a	-0.04835061
155	0xbc6a7a0b	-0.014311324
156	0xbe47eb49	-0.19523348
157	0x3d75405f	0.059875842
158	0xbccb1954	-0.02479235
159	0xbd98571f	-0.07438492
160	0x3dede12b	0.11615213
161	0x3c64b7a8	0.013959803
162	0xbd8a72cc	-0.06760177
163	0xbea57e14	-0.32322752
164	0xbdf3905d	-0.118927695
165	0x3ddf3a58	0.108998
166	0xbd4a5ff8	-0.04940793
167	0x3dab5a40	0.08366823
168	0xbd44f64d	-0.048086453
169	0x3daf9d5c	0.08574936
170	0x3e1df542	0.1542559
171	0xbd070d5f	-0.032971736
172	0xbd8c5a41	-0.06853152
173	0xbaa54734	-0.0012609721
174	0x3db808d8	0.08986062
175	0x3a26d07a	0.0006363463
176	0x3cbe85ba	0.023257125
177	0xbd3947f1	-0.045234624
178	0xbd86a4f8	-0.06574434
179	0x3da8654f	0.08222448
180	0x3d034c27	0.032055046
181	0x3ca127c3	0.01967228
182	0xbcea02e6	-0.028565835
183	0x3d5420b7	0.05178901
184	0x3d9e1c7e	0.07720278
185	0xbd15c45d	-0.03656422
186	0x3d1925ea	0.037389673
187	0xbd0088f0	-0.031380594
188	0x3c5d1786	0.013494378
189	0x3e1caedd	0.1530108
190	0x3c52aeff	0.012859105
191	0x3dac6378	0.0841741
192	0x3d28135c	0.041034088
193	0x3d8f41aa	0.06994946
194	0xbd2fe569	-0.042943392
195	0x3ccf3cba	0.025297511
196	0x3d1de0ef	0.03854459
197	0x3d0403ba	0.032230116
198	0x3c424688	0.011857636
199	0xbe5068af	-0.20352434
200	0xbc4a776b	-0.012357573
201	0x3d9482c5	0.07251505
202	0x3dc26c2a	0.09493287
203	0xbcb99dc2	-0.022658233
204	0xbe789d59	-0.24278773
205	0x3d4f8e8d	0.050673056
206	0xbd5eef2e	-0.05442732
207	0x3c6f3d7c	0.014602061
208	0x3dabfa2f	0.08397328
209	0xbe5a4c4d	-0.21318169
210	0xbcddec0b	-0.027090093
211	0xbdc3adc1	-0.09554625
212	0x3e108158	0.1411184
213	0x3d2b7430	0.041858852
214	0xbe0370ea	-0.12836042
215	0xbdca43fc	-0.09876248
216	0xbd0acacc	-0.03388481
217	0x3cb7e5d8	0.022448465
218	0x3db2d482	0.08731939
219	0xbe85d062	-0.26135546
220	0xbd4ca002	-0.049957283
221	0xbdac5fb8	-0.084166944
222	0x3cf1ff75	0.029540757
223	0x3dd1f861	0.10252453
224	0x3e4a83e1	0.1977687
225	0xbcbfc843	-0.023410922
226	0xbc92b309	-0.017907636
227	0xbd8b8cf8	-0.06813997
228	0xbd61277e	-0.054969303
229	0x3b7c35ac	0.003848414
230	0xbd685739	-0.056723807
231	0xbc863797	-0.01638393
232	0xbe28c1cd	-0.16480179
233	0xbdd80db5	-0.105494894
234	0xbcb46927	-0.022022797
235	0xbdfe6735	-0.12422029
236	0x3d1f6891	0.03891808
237	0xbe794024	-0.24340874
238	0xbd39b367	-0.045337107
239	0xbdf543c4	-0.11975816
240	0xbde1311e	-0.109956965
241	0x3dcfd1b6	0.10147421
242	0x3a79ad4e	0.00095244206
243	0xbd08d4bb	-0.033406
244	0x3e66e468	0.22548068
245	0x3d4598fa	0.048241593
246	0x3dcd485c	0.10023567
247	0x3e0930ea	0.13397565
248	0xbcbc155f	-0.02295941
249	0x3dc79945	0.09746031
250	0x3d1ac21e	0.03778278
251	0x3e06fe52	0.13182953
252	0x3dbc8add	0.092061736
253	0x3deba607	0.115062766
254	0xbe2de2c2	-0.16981032
255	0xbe4793f7	-0.19490038

C5_layer.0.bias f4 [120]
0	0x3d3dbff0	0.046325624
1	0x3c442de7	0.011973835
2	0xbbea7360	-0.007154867
3	0x3d918762	0.071059
4	0xbc3bba05	-0.011457925
5	0x3d32a9a6	0.04361882
6	0xbd075ece	-0.033049397
7	0xb9388650	-0.00017597643
8	0xbd0bd39c	-0.034137353
9	0x3ac3d765	0.0014941512
10	0xbc6e4c9e	-0.014544634
11	0x3ce5ffb5	0.028076032
12	0xbbfc95d3	-0.00770829
13	0xbc724edd	-0.01478931
14	0x3c46a6eb	0.012124757
15	0xbd8d429a	-0.06897469
16	0xbc1dc345	-0.009629075
17	0xbd58c155	-0.05291875
18	0xbd298c22	-0.041393407
19	0xba7e09ee	-0.00096908107
20	0xbd055cf0	-0.032559335
21	0x3d39ea91	0.045389716
22	0x3cf5fa9e	0.03002673
23	0x3c849eec	0.016189061
24	0xbd237eff	-0.039916035
25	0xbd3dfa12	-0.046381064
26	0x3d0fb726	0.035086773
27	0xbca8b860	-0.02059573
28	0x3ce94a4c	0.02847781
29	0x3d92af1c	0.07162306
30	0xbd2140c2	-0.0393684
31	0x3d2ad362	0.041705497
32	0x395775f0	0.00020547933
33	0x3d0a8a6c	0.033823416
34	0x3acb9093	0.0015530757
35	0xbd54dc2a	-0.051967777
36	0x3d9edd9b	0.07757112
37	0x3d84c29b	0.064824305
38	0x3dd96bb8	0.10616249
39	0x3c8b962e	0.017039385
40	0x3daa67e1	0.083205946
41	0xbcb02e3d	-0.021506423
42	0x3d31271b	0.043250185
43	0x3d3cf83a	0.046135165
44	0xbd654e6d	-0.055982996
45	0xbd438178	-0.047730893
46	0x3d17a676	0.037023984
47	0xbbc418a2	-0.005984382
48	0x3dbb3656	0.09141223
49	0xbc822f69	-0.015891748
50	0xbd791963	-0.060815226
51	0x3d1fa9a4	0.03898014
52	0x3d1defdd	0.03855883
53	0x3d440fbb	0.047866564
54	0xbb570879	-0.0032811447
55	0x3d8380e5	0.06421069
56	0xbd85fd76	-0.065424845
57	0x3d8f0711	0.0698377
58	0x3c657a7f	0.014006256
59	0xbd0ede24	-0.03487982
60	0xbd2dcaad	-0.042429615
61	0x3d79b652	0.06096489
62	0xbba37817	-0.004988681
63	0x3cd1eb6d	0.025624955
64	0xbc961606	-0.018321048
65	0x3d825fde	0.063659415
66	0xbd8393bd	-0.06424663
67	0xbd00cc63	-0.03144492
68	0xbc94bfff	-0.018157957
69	0xbc83f72d	-0.016109074
70	0x3c1d823b	0.009613569
71	0x3d353e5a	0.044248916
72	0x3cf69dff	0.030104635
73	0xbd5e9df5	-0.05434986
74	0x3cde784e	0.027156975
75	0x3c86863f	0.016421435
76	0xbbf81898	-0.007571291
77	0x3cf60a4c	0.030034207
78	0x3cf29c47	0.029615534
79	0x3b04d30e	0.00202674
80	0xbc986968	-0.01860495
81	0xbd7a6e09	-0.061140094
82	0x3d1b67b1	0.037940685
83	0x3c5a0365	0.013306473
84	0xbcc89d7c	-0.024489157
85	0x3ce41eee	0.02784678
86	0x3d667d85	0.05627205
87	0x3b982945	0.0046435916
88	0xbdba9d3e	-0.09112023
89	0xbd43fc30	-0.047847927
90	0x3b9b7d6c	0.004745176
91	0xbc3bf623	-0.011472258
92	0x3d71bee2	0.05901993
93	0x3cbb45e0	0.022860467
94	0x3c4f7e30	0.012664363
95	0xbbf04e1e	-0.007333531
96	0x3d3bf47a	0.045887448
97	0xbd368393	-0.044559073
98	0x3cc4b598	0.024012372
99	0x3c0b50ad	0.008503121
100	0xbb5af0e4	-0.0033407742
101	0x3c85d5b3	0.016337251
102	0x3cc126d9	0.023578094
103	0x3d210c72	0.03931851
104	0x3c1d831b	0.0096137775
105	0x3dfde0c7	0.123963885
106	0xbb32f1fa	-0.0027304874
107	0x3d94de0e	0.07268916
108	0x3d24b078	0.040207356
109	0x3c918ae8	0.017766431
110	0xbd6cff22	-0.0578605
111	0x3d60fe73	0.05493016
112	0xbcbae8b0	-0.022816032
113	0x3c737f7e	0.0148619395
114	0xbb17f324	-0.0023185695
115	0x3d24f9c4	0.040277258
116	0x3d015ad8	0.031580776
117	0xbcd352d5	-0.025796333
118	0x3c9aef51	0.018912943
119	0x3a90659f	0.0011016614

fc_layer1.0.weight f4 [84, 120]
0	0xbd32811c	-0.04358016
1	0x3d8dcaa8	0.06923419
2	0xbda1db70	-0.079031825
3	0x3cb956b6	0.022624355
4	0xbd62831a	-0.05530081
5	0xbd655273	-0.055986833
6	0xbaa5d247	-0.0012651169
7	0xbe299600	-0.16561127
8	0x3c0bf8e0	0.008543223
9	0xbcba8b67	-0.02277155
10	0x3dc5cac6	0.096578166
11	0x3e110ad4	0.14164287
12	0xbc2b8fd1	-0.0104713
13	0xbca47bce	-0.020078566
14	0xbc80c46d	-0.015718663
15	0xbd03cc53	-0.03217728
16	0x3d9ccb8e	0.076560125
17	0xbdaffba7	-0.08592921
18	0xbd7e5cce	-0.062100224
19	0xbc8e9241	-0.017403724
20	0xbdb10075	-0.08642665
21	0x3c8f25a3	0.017474001
22	0xbdf0d08e	-0.11758529
23	0x3d910db9	0.070826955
24	0xbd1a51aa	-0.037675537
25	0x3e4a33ae	0.19746277
26	0x3d272432	0.040806003
27	0xbddfd1b5	-0.1092867
28	0x3d094efc	0.03352259
29	0x3da6d764	0.08146551
30	0xbe103929	-0.14084305
31	0xbc2fdc12	-0.010733621
32	0xbbfaab1f	-0.0076497938
33	0xbd50dd82	-0.050992496
34	0x3e068a7f	0.1313877
35	0xbd9764ad	-0.07392249
36	0x3e1030d3	0.14081125
37	0x3c02a2d6	0.007973393
38	0xbdfdb211	-0.12387479
39	0xbd94047c	-0.07227418
40	0xbc4f6a4b	-0.01265962
41	0xbd70ad6c	-0.058759138
42	0xbd9c592d	-0.076341964
43	0x3df1141c	0.11771414
44	0x3dab2a23	0.08357646
45	0x3d0ac038	0.03387472
46	0x3d43603e	0.047699206
47	0x3d15a3ca	0.036533155
48	0x3c9d32c8	0.019189253
49	0xbc1b604d	-0.009483409
50	0xbcdb8736	-0.026797872
51	0xbd435ce7	-0.04769602
52	0xbd2f9741	-0.042868856
53	0xbda2cf5e	-0.079497084
54	0xbd07dbd6	-0.033168636
55	0xbd7267fb	-0.059181195
56	0x3c51914a	0.012790987
57	0xbd2c938e	-0.042132907
58	0xbe3a365f	-0.18184803
59	0x3df82ed8	0.1211831
60	0xbd4b504e	-0.04963713
61	0xbd83faf0	-0.06444347
62	0x3cc374a5	0.023859331
63	0x3cc44c31	0.023962112
64	0x3c1066a4	0.008813534
65	0xbdaa62b0	-0.083196044
66	0xbc785b58	-0.015158497
67	0x3a06f58a	0.00051482825
68	0xbd8c3165	-0.06845359
69	0x3dcc2f71	0.09969986
70	0x3d3c9620	0.046041608
71	0xbd2d7cab	-0.04235522
72	0x3c97f1ae	0.018547859
73	0xbdb67140	-0.089083195
74	0x3dd4f55b	0.1039836
75	0x3d71e92f	0.05906027
76	0x3cd7d7cb	0.026348015
77	0x3d014c18	0.03156671
78	0xbd7e406f	-0.062073167
79	0x3db7ba8d	0.089711286
80	0xbcb07851	-0.021541746
81	0xbc2879f5	-0.010282983
82	0x3c670c44	0.014102045
83	0x3de190b6	0.110139295
84	0x3d6be621	0.057592515
85	0x3d8782f5	0.06616775
86	0x3da916a6	0.08256273
87	0x3d9951f6	0.07486336
88	0xbd15600e	-0.036468558
89	0x3d77bb27	0.060481217
90	0x3d125a44	0.035730615
91	0x3c3d8085	0.011566286
92	0x3ca97e55	0.020690123
93	0xbdae54a1	-0.085122354
94	0xbcf02945	-0.029316554
95	0x3c0cfcee	0.008605225
96	0xbdeea2ae	-0.116521224
97	0xbd15b34f	-0.036547955
98	0xbdb3ccaf	-0.08779275
99	0xbdbe61d9	-0.09296007
100	0xbdcb304c	-0.09921321
101	0x3d383a58	0.044977516
102	0xbdaefc78	-0.08544248
103	0x3d598979	0.05310962
104	0x3d1c8b0d	0.038218547
105	0xbdfec99b	-0.12440797
106	0xbdbab156	-0.091158554
107	0x3e675573	0.2259119
108	0xbcc4af8d	-0.02400949
109	0x3e066810	0.13125634
110	0x3ce76645	0.028247008
111	0xbdb8a35f	-0.090155356
112	0xbdefe258	-0.117130935
113	0xbd2d16da	-0.04225812
114	0xbda3982a	-0.07988007
115	0x3ce5573b	0.027995696
116	0x3cc75a0f	0.024334935
117	0xbd778530	-0.060429752
118	0x3d5dc3f8	0.05414197
119	0x3ca5e451	0.020250471
120	0xbde8eaef	-0.11372935
121	0xbdd0573a	-0.10172887
122	0xbd7421e2	-0.059602626
123	0xbe1abb17	-0.15110432
124	0xbe3733c5	-0.17890842
125	0x3dca8a31	0.09889639
126	0xbe3c6073	-0.18396167
127	0xbdd9dc54	-0.106377274
128	0x3d842c3a	0.06453748
129	0x3c3d6eb9	0.011562043
130	0xbe0902c6	-0.13379964
131	0x3d62513e	0.05525326
132	0x3d87a35a	0.06622954
133	0xbdd752d1	-0.10513843
134	0x3d1a38c3	0.03765179
135	0x3c50f35c	0.012753334
136	0x3d8150fd	0.063142754
137	0xbdb53528	-0.088480294
138	0x3d5ec6cd	0.05438881
139	0x3b079aea	0.0020691701
140	0xbc041cd1	-0.008063511
141	0x3da64944	0.08119443
142	0xbd22eb39	-0.039775107
143	0xbd16e812	-0.036842413
144	0xbc9ef8a8	-0.019405678
145	0x3cb183d0	0.021669298
146	0x3dafe9e8	0.08589536
147	0x3d5009ba	0.050790526
148	0x3d354747	0.04425743
149	0x3e6c2345	0.2306033
150	0x3e063ab1	0.13108326
151	0xbd194f43	-0.037429105
152	0xbb65a18d	-0.0035038919
153	0x3d0078cd	0.031365205
154	0x3e2138c9	0.15744318
155	0xbda758cf	-0.08171236
156	0xbc2afcb9	-0.01043623
157	0xbd45142e	-0.048114948
158	0xbd8afb85	-0.06786255
159	0xbdde258c	-0.10847005
160	0x3b8a4e9e	0.0042207977
161	0x3d8f36ba	0.0699286
162	0xbe0d3f83	-0.13793759
163	0x3dd4716b	0.10373195
164	0x3be309f1	0.0069286753
165	0x3c18abb0	0.009318277
166	0xbd9a1384	-0.075232536
167	0xbc119362	-0.008885236
168	0x3df5de91	0.12005342
169	0xbd5e566a	-0.05428163
170	0xbd530889	-0.05152181
171	0x3e09360f	0.13399528
172	0xbe4fcb87	-0.20292483
173	0x3e6d59b4	0.2317875
174	0x3dc4fe6a	0.09618838
175	0x3ddef0d1	0.10885776
176	0x3b0c3180	0.002139181
177	0xbd04523e	-0.032304995
178	0xbdf8cc09	-0.121482916
179	0x3c3a9bbe	0.011389671
180	0xbc182bf1	-0.00928782
181	0x3c0c89eb	0.008577804
182	0x3d922bcd	0.071372606
183	0xbe2d6455	-0.16932805
184	0x3d46e219	0.048555467
185	0x3ba84b01	0.0051358943
186	0xbdee9082	-0.116486564
187	0xbd85e743	-0.0653825
188	0xbd535c5f	-0.051601764
189	0x3e4952c3	0.19660477
190	0xbcd678fb	-0.026180735
191	0x3c1d5ac9	0.009604164
192	0x3d22f869	0.039787684
193	0x3d1adcb8	0.03780815
194	0xbd8de65b	-0.069287024
195	0xbcff7ee3	-0.031188434
196	0xbe1a1bc2	-0.15049651
197	0xbd47e967	-0.048806574
198	0x3c97a1f6	0.018509846
199	0xbc1552d1	-0.009113983
200	0xbde02d83	-0.10946181
201	0xbd6ee248	-0.058321267
202	0xbc0b49a4	-0.008501444
203	0x3d3196cd	0.043356705
204	0xbd55acf7	-0.052166905
205	0x3da4d6f5	0.08048812
206	0x3e0fe711	0.14052989
207	0xbd3c4438	-0.045963496
208	0x3d8d6379	0.069037385
209	0x3bef393a	0.007300523
210	0xbd832efc	-0.06405446
211	0xbe040a7d	-0.12894626
212	0xbca7b424	-0.02047164
213	0xbdccc1d7	-0.099979095
214	0xbe483f75	-0.19555457
215	0xbdf88ef9	-0.12136645
216	0x3e3c38c6	0.18381032
217	0x3cb205df	0.021731315
218	0xbd0dc18f	-0.03460842
219	0xbd98a2b5	-0.07452909
220	0xbceb96dc	-0.028758459
221	0xbdec9ff4	-0.11553946
222	0xbca64489	-0.020296352
223	0xbd16eca8	-0.036846787
224	0xbd0ee5c6	-0.034887098
225	0x3e1defc0	0.15423489
226	0x3e1fd344	0.15607935
227	0x3e284529	0.16432633
228	0xbdebccec	-0.11513695
229	0x3e8a4aa4	0.2701007
230	0x3daad54d	0.08341465
231	0xbd6cf433	-0.057850074
232	0xbd17fde2	-0.037107356
233	0xbd891fda	-0.06695528
234	0x3dad4904	0.08461192
235	0xbe010d40	-0.1260271
236	0xbe0e51b2	-0.13898352
237	0x3dd3b1e4	0.10336664
238	0xbd35a127	-0.04434314
239	0x3e4aae3e	0.1979303
240	0x3c8974c0	0.016779304
241	0xbcbbb0c6	-0.02291144
242	0x3d855cfe	0.065118775
243	0x3d064b25	0.032786507
244	0xbd91acfd	-0.07113073
245	0xbd85e9cb	-0.06538733
246	0x3d694204	0.056947723
247	0x3e167ad2	0.1469529
248	0x3dd49dd1	0.103816636
249	0x3d190f58	0.03736815
250	0x3d95764d	0.07297955
251	0x3ca40b36	0.020024877
252	0xbd637b14	-0.0555373
253	0xbd0cf987	-0.034417655
254	0xbc9c4711	-0.019076856
255	0x3d51c7ec	0.05121605

fc_layer1.0.bias f4 [84]
0	0xbde507f9	-0.11183161
1	0xbb07e8e9	-0.002073819
2	0x3e143c10	0.14476037
3	0x3c2937e8	0.0103282705
4	0xbc42e55b	-0.011895503
5	0x3dba28d6	0.0908982
6	0x3dad4a13	0.08461394
7	0xbdcdeb42	-0.100546375
8	0x3de4473c	0.111463994
9	0x3de26a75	0.11055461
10	0x3d3cd47f	0.04610109
11	0xbd42c78d	-0.047553588
12	0x3caf137f	0.021371601
13	0x3ce4f278	0.02794765
14	0x3da91fbc	0.08258006
15	0x3c843393	0.016137874
16	0x3b905354	0.0044044647
17	0xbd5615ea	-0.052266993
18	0x3da09fe3	0.07842996
19	0xbdc5606b	-0.09637531
20	0xbe035f79	-0.12829389
21	0xbba73f73	-0.0051039993
22	0xbdd3ac06	-0.10335545
23	0x3e0e3e4c	0.13890952
24	0x3d85e77c	0.06538293
25	0xbe065833	-0.13119583
26	0x3d9415bd	0.07230709
27	0x3cc7980d	0.024364496
28	0xbd8f4f6f	-0.06997573
29	0xbd8c9549	-0.068644114
30	0xbda168f8	-0.07881349
31	0x3da81cfc	0.08208653
32	0xbdfd0971	-0.123553164
33	0xbc986504	-0.018602856
34	0x3bc03c95	0.005866597
35	0x3da26308	0.07929045
36	0x3cc0e270	0.023545474
37	0x3db91a50	0.09038222
38	0x3d2c252f	0.04202765
39	0xbda2cde2	-0.07949425
40	0xbdadf76e	-0.08494459
41	0x3c26d20a	0.010181913
42	0x3d6da0fd	0.05801486
43	0x3d9d3da0	0.0767777
44	0x3ddd9c55	0.108208336
45	0x3cea517e	0.028603312
46	0xbd4e6a1f	-0.050394174
47	0x3d16675f	0.036719676
48	0x3cdcebec	0.026967965
49	0x3c8fd0df	0.017555652
50	0x3e070797	0.13186489
51	0xb82a9dd3	-4.0678144e-05
52	0x3cedc430	0.029024214
53	0x3d6e26cf	0.05814248
54	0xbd1a7858	-0.037712425
55	0x3d89827f	0.06714343
56	0xbda91797	-0.082564525
57	0xbde97870	-0.11399925
58	0x3e04576e	0.12923977
59	0x3da1d3a6	0.07901697
60	0x3dc36cb6	0.09542219
61	0x3df1b169	0.118014164
62	0x3cbede80	0.023299456
63	0x3dc15a66	0.0944107
64	0x3e1028ee	0.14078113
65	0xbd98fd34	-0.0747017
66	0xbde4a306	-0.11163907
67	0x3e0e9540	0.13924122
68	0xbdc04bea	-0.093894795
69	0x3da8e9e9	0.0824774
70	0x3e0b59ea	0.13608518
71	0x3db86e7d	0.09005449
72	0xbbab5013	-0.0052280515
73	0xbdbd36b9	-0.09238953
74	0xbce051d0	-0.027382761
75	0x3db8daa5	0.09026078
76	0x3d5fcd30	0.05463904
77	0x3dc0c65a	0.094128326
78	0xbe06cb55	-0.13163503
79	0xbd4e69fe	-0.05039405
80	0xbb60476e	-0.0034222263
81	0xbe133c7e	-0.14378545
82	0x3c8281b0	0.01593098
83	0xbc257eb7	-0.010101012

fc_layer2.weight f4 [10, 84]
0	0x3d2001c7	0.039064195
1	0x3e323ba1	0.17405559
2	0x3d7d7e2c	0.061887905
3	0x3e35ff93	0.17773275
4	0x3db4337a	0.08798881
5	0xbd561991	-0.052270476
6	0x3c93f5a0	0.018061459
7	0x3d1557ba	0.036460616
8	0xbe9c0914	-0.30475676
9	0xbdc56964	-0.09639242
10	0x3dd10a36	0.10207026
11	0xbd1a6498	-0.03769359
12	0xbe276720	-0.16347933
13	0xbdf2aad5	-0.1184899
14	0xbe942c38	-0.28939986
15	0x3d436b09	0.0477095
16	0xbe6330f2	-0.2218664
17	0x3e0f3be5	0.13987692
18	0x3e5deaf5	0.2167166
19	0x3d96d5ed	0.07365022
20	0xbdc878c9	-0.09788663
21	0xbe77c350	-0.241956
22	0x3da760cc	0.081727594
23	0xbdfc6354	-0.12323633
24	0x3da8e20a	0.082462385
25	0x3e280e2e	0.16411659
26	0xbdcd7c1e	-0.10033439
27	0x3e5565b4	0.20839578
28	0xbdf42106	-0.11920361
29	0xbd32cc2a	-0.043651737
30	0xbd95edbd	-0.073207356
31	0x3ce06928	0.027393892
32	0xbaad0d7d	-0.0013202872
33	0x3db43ad6	0.088002846
34	0xbe36be6f	-0.17846082
35	0xbe5d782e	-0.21627876
36	0xbc854ecd	-0.016272927
37	0x3e49343a	0.19648829
38	0x3d84f734	0.06492463
39	0xbe38e9d1	-0.18057944
40	0xbd077248	-0.03306797
41	0xbe073200	-0.13202667
42	0x3c4544eb	0.012040357
43	0xbe518229	-0.20459808
44	0x3dbeb6ff	0.093122475
45	0x3e08184f	0.13290523
46	0xbd97c933	-0.074114226
47	0x3dde5971	0.10856903
48	0x3ce56fec	0.02800747
49	0xbdc84770	-0.097792506
50	0xbd554d55	-0.052075703
51	0x3d056004	0.03256227
52	0x3d67b84a	0.056572236
53	0xbe2479be	-0.16062066
54	0xbe6460bb	-0.22302525
55	0xbdb6a111	-0.0891744
56	0xbdc53654	-0.09629503
57	0x3c475638	0.012166552
58	0x3db55344	0.08853772
59	0x3e30fad2	0.1728318
60	0x3dca7c67	0.09887009
61	0xbe0facba	-0.14030734
62	0xbe4f19ec	-0.20224732
63	0xbdeccf53	-0.115629815
64	0x3cfd6248	0.030930653
65	0x3c404364	0.011734817
66	0xbe1244ec	-0.14284104
67	0x3d9a9d81	0.07549573
68	0xbcb41e45	-0.02198709
69	0xbe99e90e	-0.3006062
70	0xbd70a1a1	-0.05874789
71	0xbd9aac4f	-0.075523965
72	0xbe666d67	-0.22502671
73	0x3e438011	0.19091822
74	0xbb6d8753	-0.003624399
75	0x3d96a510	0.07355702
76	0xbd119791	-0.035544936
77	0x3db50834	0.08839455
78	0xbebe7bf7	-0.37203953
79	0xbd71da4e	-0.059046082
80	0xbe87bb4f	-0.26510093
81	0x3e3fa0b8	0.18713653
82	0xbda531fd	-0.08066175
83	0xbdb6ff94	-0.089354664
84	0x3d6b6319	0.057467554
85	0xbd1077cb	-0.035270493
86	0xbe13f26a	-0.14447942
87	0x3d2f1a54	0.042749718
88	0xbdd25b37	-0.10271304
89	0xbd465f8e	-0.04843097
90	0xbe93b385	-0.288479
91	0x3d02b8b5	0.03191443
92	0xbe447ea6	-0.19188938
93	0xbd4e9798	-0.05043754
94	0xbe19dc43	-0.1502543
95	0x3e21ca92	0.1579993
96	0xbe37b847	-0.1794139
97	0x3da59528	0.0808509
98	0x3bd28076	0.006424005
99	0xbdfe07e3	-0.12403848
100	0x3c9b1d9f	0.018935023
101	0xbcac9e78	-0.021071658
102	0xbe20b4a4	-0.15693909
103	0x3cbbe713	0.022937333
104	0x3d8602a6	0.06543474
105	0x3d9bd69c	0.07609293
106	0xbe9a96e3	-0.30193242
107	0xbdbf7ba7	-0.09349757
108	0xbdc8fd14	-0.09813896
109	0x3dc4c401	0.09607697
110	0xbe4d4268	-0.20044863
111	0x3d0ef165	0.03489818
112	0xbd906eb0	-0.07052362
113	0xbda9e8f3	-0.08296385
114	0x3d271f11	0.04080111
115	0xbe2d134e	-0.16901895
116	0x3dc605aa	0.09669049
117	0x3e25ad0c	0.16179293
118	0x3e0e7895	0.13913186
119	0x3cedd7be	0.029033538
120	0xbe537208	-0.20648968
121	0x3c78c892	0.015184538
122	0xbe161be2	-0.14659074
123	0x3d99aa70	0.075032115
124	0x3d09e8a7	0.03366914
125	0x3d3682d0	0.044558346
126	0x3d4dbfdf	0.05023181
127	0xbe35a4b9	-0.17738618
128	0xbd24d246	-0.040239595
129	0xbe989c88	-0.29806924
130	0xbcbaf5d2	-0.022822294
131	0x3e31b100	0.17352676
132	0xbe51a45c	-0.20472854
133	0xbe4875dc	-0.1957621
134	0xbd04c55e	-0.032414787
135	0x3d159750	0.036521256
136	0x3db3c65e	0.0877807
137	0x3dda52a3	0.10660293
138	0x3dd8fc51	0.105950005
139	0xbd9bb746	-0.07603316
140	0x3c652bb0	0.013987467
141	0x3d47e120	0.04879868
142	0xbb0e1c8d	-0.0021684498
143	0xbba5e20a	-0.0050623463
144	0xbdef56b3	-0.116864584
145	0x3d831513	0.06400504
146	0xbe065078	-0.13116634
147	0x3de6a5a7	0.112620644
148	0xbdf29caf	-0.11846291
149	0x3d0e6b42	0.034770258
150	0xbd973f14	-0.07385078
151	0xbe4d2ac2	-0.20035842
152	0xbe2c1010	-0.16803002
153	0x3e1f6475	0.15565665
154	0xbe16e933	-0.14737396
155	0x3dd8f92d	0.105944015
156	0x3e2df04a	0.16986194
157	0xbecb4f81	-0.39709094
158	0xbe4cc06f	-0.19995283
159	0x3e07477b	0.13210861
160	0x3e044653	0.12917452
161	0x3e2cdfc1	0.1688223
162	0xbe1d854e	-0.15382883
163	0x39a4085d	0.0003128675
164	0x3d95a5e4	0.07307032
165	0x3e4dae98	0.20086133
166	0xbe71d228	-0.23615324
167	0xbe77971e	-0.2417874
168	0xbe127500	-0.14302444
169	0x3cd8246c	0.026384555
170	0xbe629989	-0.22128882
171	0xbd3e2cc2	-0.046429403
172	0x3e2552c0	0.16144848
173	0x3d5b5498	0.05354747
174	0xbd76afbc	-0.060226187
175	0x3cf82d5b	0.030295065
176	0x3e018482	0.12648204
177	0x3db50e8e	0.08840667
178	0xbd9b183d	-0.075729825
179	0xbc0f0cfd	-0.008731124
180	0xbe18affa	-0.1491088
181	0xbe206320	-0.15662813
182	0xbd85a100	-0.06524849
183	0xbba357c4	-0.0049848277
184	0x3d91b0ef	0.071138255
185	0x3d2a5b74	0.041591123
186	0xbe0f2ba8	-0.13981497
187	0x3e05b761	0.13058235
188	0x3cd19173	0.02558205
189	0xbe105b04	-0.1409722
190	0xbed964b7	-0.42459652
191	0xbe8f1d93	-0.2795225
192	0x3d9839a7	0.07432871
193	0xbe196ae3	-0.1498218
194	0xbe447670	-0.19185805
195	0x3dc1cd90	0.09463036
196	0x3d7ceb46	0.06174781
197	0xbd90ea40	-0.0707593
198	0xbcbd7b59	-0.023130106
199	0xbde8c417	-0.11365526
200	0x3dd89fa9	0.10577328
201	0x3d8dba2c	0.06920275
202	0x3e003ece	0.12523958
203	0xbe3ca3b9	-0.1842183
204	0x3d8ffbd5	0.07030455
205	0xbe37ee06	-0.17961892
206	0xbe21a8d2	-0.15787056
207	0xbe2365df	-0.1595683
208	0xbd2d458e	-0.04230266
209	0xbd538b3d	-0.05164646
210	0x3c731301	0.014836074
211	0x3e5f1f25	0.21789224
212	0x3dd5bb11	0.10436071
213	0xbbbc789b	-0.005751682
214	0x3c3960fb	0.011314626
215	0x3dde8e03	0.1086693
216	0x3e29fa7a	0.16599455
217	0x3d1b048b	0.03784613
218	0x3dcb0d61	0.09914661
219	0x3d877e25	0.06615857
220	0xbe894d41	-0.26816753
221	0xbc335c86	-0.010947352
222	0xbd954110	-0.072878
223	0xbe3b4fa1	-0.18292095
224	0xbd9d2683	-0.07673361
225	0x3d811acc	0.06303939
226	0x3d8ea32f	0.069647186
227	0xbe52726a	-0.20551458
228	0xbd81c03a	-0.063354924
229	0x3e18ec94	0.14933997
230	0x3d86188e	0.06547652
231	0xbe60dc98	-0.2195915
232	0xbe40915e	-0.18805453
233	0x3cfd46bc	0.030917518
234	0xbc9d6999	-0.019215392
235	0x3ddc2605	0.10749439
236	0xbd230825	-0.03980269
237	0xbdc2d2e0	-0.095128775
238	0xbe3c2937	-0.18375097
239	0xbcdcc0a6	-0.02694733
240	0xbd8678f8	-0.06566042
241	0xbe98543f	-0.29751775
242	0xbe2e5dd6	-0.17027983
243	0x3d9063e6	0.07050304
244	0xbde2b235	-0.110691465
245	0x3dec7057	0.115448646
246	0xbe42e50f	-0.19032691
247	0xbdb85d86	-0.09002213
248	0x3df54727	0.11976462
249	0x3d2283e8	0.039676577
250	0x3ded25c0	0.11579466
251	0x3e208053	0.15673952
252	0xbdde2db6	-0.108485624
253	0xbd241d92	-0.040067263
254	0xbd546aa5	-0.051859517
255	0xbc1fa151	-0.009743051

fc_layer2.bias f4 [10]
0	0xbd6420e3	-0.055695426
1	0xbdde5554	-0.10856119
2	0x3cb9df71	0.022689553
3	0xbc2e0e0a	-0.010623464
4	0x3d0d8f8f	0.034560736
5	0x3e07ba36	0.13254628
6	0xbdac557a	-0.08414741
7	0xbd98f120	-0.07467866
8	0x3d392760	0.045203567
9	0xbd2456f2	-0.04012198
