ml2/1126/mnist_weights_RandomHorizontalFlip.pth (torch, 250119 bytes, 10 tensors)

conv_layer1.0.weight f4 [6, 1, 5, 5]
000000 36 95 aa 3e a3 80 92 3e e2 3d 6f 3d 3d b9 87 3e
       0.33316964 0.28613767 0.058408625 0.26508513
000010 22 0a 9b 3e c0 29 a7 3d 44 4f a4 3e a3 20 9b 3e
       0.30281168 0.0816226 0.32091725 0.30298337
000020 0d a9 e8 3e 2f 11 54 3d 2a 3d bc 3e 31 55 d1 3e
       0.45441476 0.0517742 0.36765414 0.40885308
000030 4a ec d0 3e d5 da 2a 3e d7 25 82 3e 69 eb 92 bd
       0.40805274 0.1668504 0.25419495 -0.07173807
000040 7f 00 d2 be 03 5e e5 be 6a 6b bf be fc 54 3c be
       -0.41016003 -0.44798288 -0.37386638 -0.18391794
000050 e3 c1 96 be 76 bc 1f bf 6f 68 be be 60 59 ef be
       -0.294448 -0.62396944 -0.37189052 -0.46747875
000060 a4 ae 66 be fc 49 bc bb 3b 30 d2 be 37 58 9d be
       -0.22527558 -0.0057461243 -0.41052422 -0.30731365
000070 1b 79 ee be c2 0d bd be fa 36 9d 3e a6 f2 81 bd
       -0.4657677 -0.3692456 0.30706006 -0.0634511
000080 2b 00 a3 bd 38 9a 87 be 88 b5 73 bd c5 89 c9 3e
       -0.079590164 -0.26484847 -0.059499294 0.39362922
000090 b7 56 c4 3e 5d e4 64 bc 0e 2e c9 3d 8e fa 14 be
       0.38347408 -0.013970462 0.09823237 -0.14548704
0000a0 e6 ff 5c bd 9e 3e b4 3e 50 53 90 3e 0e fd 57 3d
       -0.05395498 0.35204023 0.28188562 0.052731566
0000b0 4f 01 88 3e 92 8f cc bd 56 90 19 bd 3f 12 e4 3d
       0.26563498 -0.09988321 -0.037491165 0.11136293
0000c0 af cd 62 3e a6 96 54 3d 7f c9 19 be 1e d8 e7 3d
       0.22148775 0.051901482 -0.15018271 0.11320518
0000d0 a2 98 4f 3e 44 2c a4 bc 25 04 ae bc c4 86 5e bd
       0.20273069 -0.020040639 -0.02124221 -0.05432774
0000e0 ec 4d ba 3d ee 50 bf 3e cf af 37 3e cb 08 64 bd
       0.09096894 0.37366432 0.1793816 -0.055672448
0000f0 05 cd 9d 3e e6 6e a3 3e eb 45 f6 3e 56 b1 5a 3c
       0.3082048 0.31920546 0.48100218 0.013347944
000100 3e c1 80 3e ba bd 0e 3e 46 03 57 3e df fc 91 3e
       0.25147432 0.13939562 0.20997342 0.28513238
000110 f3 d8 d6 3d b4 c3 61 3d 88 1f af be 88 cc c0 3d
       0.104905985 0.055118278 -0.34203744 0.09414011
000120 e2 21 7e bd 3b f7 71 3e 9a 43 6a bc 10 c9 d6 3d
       -0.062044032 0.23629467 -0.014298344 0.104875684
000130 06 8d 2f 3e 63 ee 6c 3e 26 48 72 3e f3 89 07 be
       0.1714364 0.23137812 0.23660335 -0.13236217
000140 a2 ab b0 be 9f 8f 81 3e af 14 9c 3e 9c 07 df 3e
       -0.34505945 0.25304887 0.3048453 0.43560493
000150 5d 24 98 3d 12 b1 bf be e3 00 a1 be ae 54 c5 3e
       0.07428811 -0.3743978 -0.3144599 0.38541168
000160 60 aa e0 3e cd e0 78 3c d0 4a f2 be f4 b5 b6 bd
       0.43879986 0.015190315 -0.47322702 -0.089214236
000170 2e 40 97 3e 1a e0 32 3e a0 fc 91 3e 4d 8c bd be
       0.29541153 0.174683 0.2851305 -0.37021104
000180 84 c2 a8 3a 0a 6f bc 3b ad b5 88 3e 31 de bc 3d
       0.0012875353 0.0057505416 0.26701108 0.09222067
000190 a8 49 bd 3d bd 1a 08 be 98 53 90 bd 04 55 3d bd
       0.092425644 -0.1329145 -0.07047194 -0.046223655
0001a0 55 86 58 3d ad 36 06 bf 23 50 f9 be 52 dc a3 be
       0.052862484 -0.5242718 -0.48693952 -0.3200403
0001b0 47 55 87 bd ec 90 17 3e 54 14 85 be cf 49 4f be
       -0.06608062 0.14801377 -0.25992072 -0.20243
0001c0 eb 48 97 3d c0 bd d3 3d 4e 96 09 3e 91 f0 7b 3e
       0.07386955 0.10338926 0.13436243 0.24603488
0001d0 25 71 00 3f 1f e9 a8 3e 2e 5f 7a 3e 92 30 9a 3e
       0.50172645 0.32990357 0.2445037 0.3011518
0001e0 14 65 99 3e f1 15 c6 3e 1d b8 7d 3e 8c 19 83 3e
       0.2995993 0.38688615 0.24777265 0.25605428
0001f0 b9 1b 5f bd 52 15 b4 bb 95 5a 1f be f3 84 06 be
       -0.054469798 -0.0054957056 -0.15561898 -0.13136654
000200 cc 31 f9 3d b7 59 02 3e a4 a5 e7 be f2 4e 5d be
       0.12167701 0.12729536 -0.4524356 -0.21612146
000210 0a 58 df bc ce 15 b1 3e ae a3 f7 3d 3e df d4 be
       -0.02726366 0.34586948 0.12091766 -0.4157657
000220 bc 61 bb bd 00 0b 15 3d 9c 65 8e 3e 4d 0c 66 3d
       -0.09149501 0.036387444 0.27811897 0.056164075
000230 54 b8 cd 3c 11 35 be 3d 20 cd e5 3e 9d 86 f0 3e
       0.025112309 0.09287465 0.4488306 0.46977702
000240 be b5 cc 3d 67 96 03 bd 5b 3c cf 3d f7 6d 5e 3e
       0.09995602 -0.032125857 0.10118934 0.21721636
000250 17 82 21 bd b0 a0 ac be
       -0.039430704 -0.33716345

conv_layer1.0.bias f4 [6]
000000 aa 73 ba 3d a5 44 0a 3d 61 10 55 bc 74 8b a7 bd
       0.091040924 0.03375687 -0.013004393 -0.081808954
000010 bf 9a ba bb 83 03 e6 bd
       -0.0056947167 -0.112311386

conv_layer2.0.weight f4 [16, 6, 5, 5]
000000 9c 18 06 be 83 69 22 be 09 e3 80 bd 6e 45 c7 bd
       -0.13095325 -0.15860562 -0.062933035 -0.097300395
000010 fb c1 87 bd 5c 73 d2 bb 4a 1c 25 3d 17 e0 20 bd
       -0.06628796 -0.0064224433 0.04031018 -0.03927621
000020 5d 93 5e be 07 98 17 be ea c7 fa bb 2b 51 0a 3e
       -0.21735902 -0.14804088 -0.007653226 0.13507526
000030 44 74 68 3c dc ff 6c bd 2c ab 2a bd cc e5 df bb
       0.014187876 -0.057861194 -0.04166715 -0.006832814
000040 74 a0 9b bc a0 5d 10 3e d6 d9 47 3e 4d 71 23 3e
       -0.018997408 0.14098215 0.19516692 0.1596119
000050 e3 29 17 3e c2 2b 01 be 25 0e 9e bd d7 7c f2 bc
       0.14762072 -0.12614349 -0.077175416 -0.029600544
000060 24 50 a5 bd 45 55 37 bc 24 4d 4d 3d 4f 1c 8c 3d
       -0.08071926 -0.011189763 0.050122395 0.06841337
000070 14 c8 0d bd 79 95 6c 3b 7a e9 50 be 49 e3 06 3d
       -0.034614637 0.0036099835 -0.20401564 0.0329316
000080 9e 63 c2 3d 48 e4 fc 3d 1f 09 06 be 80 44 6a be
       0.09491657 0.12348229 -0.13089417 -0.22877693
000090 da ee 91 bd 73 0e b8 3d 24 6f 8f 3e 2c 20 b0 3d
       -0.071256354 0.08987131 0.2801448 0.08599886
0000a0 08 22 47 be d1 83 39 be af 15 4d be e7 2c bc 3d
       -0.19446576 -0.1811669 -0.20027803 0.09188252
0000b0 5c 04 32 3e 29 2c 85 be 33 57 4e be c3 69 46 be
       0.17384475 -0.26010254 -0.20150451 -0.19376282
0000c0 de bc 69 be 6f ee 4f bc db e8 ae 3d 12 69 9c 3d
       -0.22825953 -0.012691124 0.085405074 0.07637228
0000d0 37 c6 b8 3d ee b7 05 bd fc 5b 27 3c 16 47 90 bd
       0.090221815 -0.032646112 0.010214802 -0.070448086
0000e0 ea 9a ad 3c 6f 65 25 3e da d3 4c 3d 9b 0e 4d be
       0.021192033 0.16151975 0.050006725 -0.20025103
0000f0 83 cb 14 bd 21 04 b4 3d 2e b5 c4 3d 15 88 45 3e
       -0.036326896 0.0878985 0.0960487 0.19290192
000100 41 08 a4 3d 83 33 c6 bd cd aa ba bd 07 d4 03 3d
       0.08009387 -0.09677794 -0.09114609 0.032184627
000110 59 6b a4 3d e9 18 0a bd e7 da 64 be 15 2e 1c be
       0.080282874 -0.033715162 -0.2234913 -0.15251954
000120 13 ed 0b be 8d a6 cc ba 23 07 50 bd 45 7e 60 3e
       -0.13664655 -0.0015613601 -0.050788056 0.21923168
000130 d1 3c 26 3e 58 34 47 bd 88 f5 d4 bd 38 34 9a bd
       0.16234137 -0.048633903 -0.10398394 -0.07529491
000140 79 c8 01 3e be e3 85 3d 64 ee ba 3d 24 8d 9f bd
       0.1267413 0.06537579 0.09127501 -0.07790592
000150 d6 9e 10 be 6c 1b 8b 3c e3 60 eb 3b ad ef 7b 3e
       -0.14123091 0.01698085 0.0071831807 0.24603148
000160 f2 1d 10 3e 5f b2 85 bd 51 39 d1 bd 95 d1 90 bd
       0.14073923 -0.06528162 -0.1021601 -0.070712246
000170 ce 99 18 3e 10 07 2e 3e 00 c3 62 3c 4b 74 02 be
       0.14902422 0.16994882 0.013840437 -0.12739675
000180 3c 72 cd 3c 03 09 31 be 5f db a0 3c 25 0c 63 3d
       0.025078885 -0.17288594 0.019635854 0.055431504
000190 ab bc 19 bb 59 1f ae 3c cf 64 85 bd 85 4e f9 bd
       -0.0023458402 0.021255182 -0.06513368 -0.121731795
0001a0 63 ff dd bd 52 47 8a 3d 4f 39 05 bd f2 d7 92 bc
       -0.10839727 0.067518845 -0.032525357 -0.017925236
0001b0 fd 1a f5 3d 61 a8 31 bd fe 7f 29 3e 6e d6 e7 bc
       0.11968038 -0.04337347 0.16552731 -0.02830049
0001c0 80 f6 a6 bd ea 6d 3e bd 8e 6e 23 3d d6 00 28 bd
       -0.08152485 -0.04649154 0.039900355 -0.041016422
0001d0 72 c1 a6 bd a1 4d 0f be 80 87 5d be 1e 6e 38 be
       -0.081423655 -0.13994457 -0.2163372 -0.18010756
0001e0 d0 f7 d8 bd c4 b4 19 3e cd 33 4f 3e f5 85 62 3e
       -0.105941415 0.15010363 0.20234604 0.22121413
0001f0 cd 2a 5e bc ed ca 9d 3d f0 11 2c 3d b5 57 0b 3d
       -0.013560009 0.07704721 0.042009294 0.03401919
000200 7e e7 99 bd f5 ff a1 bd a8 a9 30 3d be 68 35 bd
       -0.07514857 -0.07910148 0.043130547 -0.044289343
000210 a7 fc c1 bd b8 f9 ba bd 4c 6a c4 bd de d4 db 3d
       -0.09472018 -0.09129661 -0.09590587 0.107339606
000220 f1 f6 be 3c c7 26 50 3c 94 d7 db bd 01 68 ad bd
       0.02331111 0.012704558 -0.10734478 -0.08467103
000230 90 1c c5 bc 34 07 84 3c a6 62 60 bd a8 93 29 3c
       -0.024061471 0.016116716 -0.05478158 0.010350145
000240 35 9c 45 bd ac b7 58 bd 63 e1 cb 3c 3e 52 f9 3d
       -0.048244674 -0.05290954 0.024887746 0.121738896
000250 6f 95 1d 3e ec 89 0a 3d 1b 73 01 bd 1e e1 4a bd
       0.15389036 0.03382294 -0.031603914 -0.049531095
000260 d9 f4 a9 3c 31 aa 9f bd 9c 15 ef bd d7 1f 3d 3e
       0.020746635 -0.07796133 -0.116740435 0.18469177
000270 fc 4b 6e 3e 6e 56 cc 3d c5 e2 a8 3d d0 e7 f2 3d
       0.23271173 0.09977423 0.08246378 0.11860621
000280 56 e0 34 3d b7 6e b9 3d e5 fd 3f 3e 77 ee 95 3d
       0.044159256 0.0905432 0.18749197 0.07320874
000290 dc d8 1d 3e 57 f5 36 be 9b df 79 be af c2 e4 be
       0.15414757 -0.17867027 -0.24401705 -0.44679782
0002a0 a5 18 85 be 74 ae 13 be 48 36 73 3d e5 c8 6e 3e
       -0.25995365 -0.14422017 0.05937794 0.23318823
0002b0 c4 6e 22 3d 96 3d 04 be c2 1d 10 be 5b 5e bc 3c
       0.039656416 -0.12914118 -0.14073852 0.022994211
0002c0 40 14 fe 3d bf 73 53 bd 0d ab 56 3d b3 6d 83 3d
       0.12406206 -0.051624056 0.05240922 0.06417408
0002d0 1b be 8a 3d f7 b7 f1 3d ef ac 47 3d f8 66 e6 bc
       0.06774541 0.11802667 0.048748907 -0.028125271
0002e0 da f7 ad 3c fd 0f 00 be 14 a0 0e be ef 6d 1b be
       0.021236349 -0.12506099 -0.13928252 -0.15178655
0002f0 e1 c4 65 be 5f dd ce bd 17 11 14 3e 02 2d e4 3d
       -0.22438385 -0.10100817 0.14459644 0.11141397
000300 5b 9c 0c 3d b4 7c 27 3d 53 dd ff bd f0 d5 f5 3c
       0.0343288 0.04089041 -0.12493386 0.03000924
000310 56 b4 d0 3d a7 b1 21 3e ba 4f d8 3d 53 c7 cb 3d
       0.10190646 0.15790425 0.10562082 0.099501275
000320 94 7d ae 3d 5e 57 86 3d bb c6 d4 3c 78 ba bb 3c
       0.08520046 0.06559633 0.025973668 0.022916064
000330 3c 8b 23 bc 80 52 c3 3d 4e e2 26 3d 52 70 2a bd
       -0.0099819265 0.0953722 0.040743165 -0.041611023
000340 c7 42 92 3d e9 f1 19 3e de 18 93 be 60 7d 91 be
       0.07141643 0.15033688 -0.2872991 -0.28415966
000350 cf 9a 96 be db 58 bf bd fb 0c a0 3d c5 a0 df 3c
       -0.29414985 -0.0934312 0.07814976 0.02729834
000360 bf 80 13 bd 95 f7 2f be b8 48 28 be 94 44 84 be
       -0.036011454 -0.17184289 -0.1643399 -0.2583357
000370 4a 07 26 3e 81 b0 33 3e 8e 49 f6 3d 8e a7 07 3d
       0.16213718 0.175478 0.12025748 0.033118777
000380 ff 70 bd 3c 17 3e 26 bc 75 c2 0b bd e8 5b a2 3c
       0.02312517 -0.010146639 -0.034120996 0.019819215
000390 e0 85 46 3d cf 97 42 3d 19 26 de 3d ef 9b 9f 3c
       0.048467517 0.047508057 0.1084711 0.019483535
0003a0 bb 00 51 3d e6 1d 91 3d 25 4a 37 3e e8 f9 16 be
       0.051026087 0.07085781 0.17899378 -0.14743769
0003b0 d3 a0 2a be 26 7a 0a be 31 99 88 bd 0a 40 11 3e
       -0.16662912 -0.13523158 -0.06669844 0.14184585
0003c0 bc 8c 20 be cb cd 78 be a1 2e 86 be bb 5d 4d be
       -0.15678686 -0.24297254 -0.2620745 -0.20055287
0003d0 9a 8c b0 bd d2 d2 2b 3d 4b 78 32 3d 49 36 02 3d
       -0.086205676 0.0419491 0.04357175 0.03179005
0003e0 8a b8 86 3d 91 5b 3e bd 93 e1 6a 3d 90 ac 05 3e
       0.06578167 -0.046474043 0.05734403 0.13054109
0003f0 8d fe 1f 3d ea ea 6e 3d 9c e8 f9 3c ca 84 4f be
       0.039061118 0.0583295 0.030506425 -0.20265499

conv_layer2.0.bias f4 [16]
000000 82 ff d9 bd 30 ed 8f bc 6e 33 06 bb dc 04 74 bc
       -0.106444374 -0.017569155 -0.0020477432 -0.014893737
000010 e2 ad 96 3d 7d 70 bf bd 14 0f f2 bd fd 72 b4 3c
       0.07357384 -0.09347627 -0.11819282 0.022027487
000020 5c 2d e1 bd 2b 0c 3f be 34 93 23 be 9d 59 f3 bc
       -0.1099498 -0.18656985 -0.15974122 -0.029705817
000030 2d 77 a6 bd 9e 39 81 be 94 48 ed bd 5b 4c e7 39
       -0.081282 -0.2523927 -0.11586109 0.00044116643

C5_layer.0.weight f4 [120, 400]
000000 ae 2b 7f 3d de e9 fb 3d 19 16 61 3d ec 1b d3 3d
       0.062297516 0.12300466 0.054952715 0.1030806
000010 37 76 8d 3b a7 af 13 3c 9f 4d 8e bd b9 15 16 be
       0.004317071 0.009014047 -0.06948399 -0.14656724
000020 13 27 06 bd 7a ab 4f 3b d6 b3 bf bd d1 52 eb bd
       -0.032752108 0.0031687901 -0.09360473 -0.11490405
000030 ba 48 ea bc b5 64 9b bc 5f 6c d1 bd 0f a5 b7 3c
       -0.028599132 -0.01896892 -0.10225748 0.022417573
000040 81 f1 81 3a e7 27 91 3d 4e 72 7e 3d 42 8c 3e bd
       0.0009913893 0.07087689 0.06212073 -0.04652048
000050 8a b1 70 39 59 d6 de 3c b5 8c e3 3c 8c 37 aa 3d
       0.00022954322 0.027201818 0.027777055 0.08311376
000060 de ab a8 3d ea 62 12 bc 11 6a 4f 3d 55 95 f7 3d
       0.08235906 -0.008934716 0.050638262 0.1208903
000070 52 b4 18 3c a1 63 21 be 77 c7 53 3d 95 ad d9 3d
       0.009320335 -0.15760662 0.051703896 0.10628811
000080 0d 95 05 3e 7c 9e de 3d 4f 67 dd 3d 97 04 13 bc
       0.1304514 0.10870072 0.1081072 -0.008973262
000090 31 6f 53 3e 33 73 80 bd 90 40 05 bd 8f 99 0b bd
       0.20647885 -0.062719725 -0.032532275 -0.03408199
0000a0 66 cd a8 bd be 56 03 3d 76 df 69 3d b6 64 9d 3c
       -0.08242302 0.032065146 0.057097875 0.019213062
0000b0 7b b1 38 bd 39 2d 21 3d 26 f9 c6 3c 12 78 d4 3d
       -0.045091134 0.03934977 0.024288725 0.10374464
0000c0 44 4f af 3d 47 e9 11 bc bf cf a9 bc 0b fc 12 3d
       0.085600406 -0.008905715 -0.020728944 0.0358849
0000d0 fa dc 0e bd 5d a5 de bd 01 09 ce 3b 82 12 8d 3d
       -0.03487871 -0.10871384 0.0062876944 0.06888296
0000e0 5b f5 ae bd e4 a3 b4 bd 67 6e 17 bd 5b e1 60 3c
       -0.085428916 -0.08820322 -0.036970522 0.013725604
0000f0 a5 c4 12 3e 28 71 88 3d be ef 23 3e b1 06 e9 3d
       0.14332826 0.06662208 0.16009423 0.113782294
000100 df ec 52 3d 99 7b 20 3d 60 7e 92 bc c4 e6 0a 3e
       0.05149543 0.039180372 -0.017882526 0.13564593
000110 00 31 ad 3d ed 1c 83 3c ef bb aa 3d 34 04 37 be
       0.08456612 0.016005004 0.08336627 -0.17872697
000120 43 5d 81 bb 39 d1 18 3c be 1a 26 3d 5a 06 1c be
       -0.0039478852 0.009327226 0.040552847 -0.15236798
000130 e1 fe 5b bd ef b5 89 bd 8c 13 0d bd cd 4a f1 bd
       -0.05370987 -0.06724154 -0.03444247 -0.11781845
000140 62 9b 0a 3e cd dc b1 3b 52 85 8d 3d bd ed d9 bd
       0.13535836 0.005427933 0.069101945 -0.10641048
000150 40 65 de bd 56 36 26 3d 36 44 05 3d ac 21 67 3c
       -0.10859156 0.040579163 0.032535754 0.014107149
000160 bc 13 06 3e c2 2c 33 3c 6e 5b c5 3d 60 54 81 3d
       0.13093466 0.010935964 0.096365795 0.063149214
000170 cb e4 65 bd 92 f2 9d bc ee 23 25 3d e6 42 01 bd
       -0.056126397 -0.019280706 0.04031747 -0.03155794
000180 ed 19 bc bd fa 57 5f 3d 98 78 d1 3d a3 af 4e 3d
       -0.091846325 0.05452726 0.102280796 0.05046047
000190 18 23 07 be c3 12 65 bd 66 e7 d2 bd b3 29 fd 3c
       -0.13196981 -0.055926096 -0.10298042 0.030903673
0001a0 e2 13 9e bd db f8 15 3e 4c b6 5b 3c 7a bb 1e 3c
       -0.07718636 0.14645712 0.013410162 0.009688253
0001b0 cd de 56 3d f7 93 84 3e b8 f4 ea 3d 20 45 3c bc
       0.052458573 0.25894138 0.11472458 -0.01149109
0001c0 be b5 ce bd 7f 6a 15 3c 68 27 2a 3e 5b 5e 04 bd
       -0.10093258 0.009119629 0.16616595 -0.032316547
0001d0 69 01 97 3c 05 f2 8c bc 20 25 92 3d be c6 c3 bd
       0.01843329 -0.017205248 0.07135987 -0.095593914
0001e0 b8 66 ed 3d a7 e1 a7 3d e9 16 27 3e 8e 46 85 bd
       0.11591858 0.08197337 0.16317333 -0.06507598
0001f0 f0 d4 a6 bd 1f 63 f3 bd df cc a4 bc 78 d2 5e 3c
       -0.08146083 -0.1188414 -0.020117221 0.013599984
000200 9b d6 0e bd 61 f8 03 bc 60 fc 96 bd 8b 3d bd bd
       -0.034872632 -0.008054824 -0.073723555 -0.09240254
000210 f7 00 3b bd 07 d2 b7 bd 35 6f 61 bd c4 ac a5 bd
       -0.045655217 -0.089756064 -0.055037696 -0.08089593
000220 02 2b 1f 3d 99 59 24 bd 77 de f3 3c 36 c7 fc ba
       0.038859375 -0.04012451 0.029769165 -0.0019285444
000230 cd c3 33 3d ef 66 9b bc 9a 90 97 3d ff 8b 8c 3c
       0.043887902 -0.018969981 0.074006274 0.0171566
000240 7a 49 27 3d de 30 98 3a d1 83 4a bd 31 8b 2a bd
       0.040841557 0.0011611243 -0.049442116 -0.04163665
000250 a0 1c 86 bd c8 71 f8 bb 84 be 75 3c 2e 91 25 3d
       -0.065484285 -0.007581923 0.014999036 0.040421657
000260 0f f5 87 3d 58 31 a1 3c 3f 3f 46 3d e0 57 21 3c
       0.06638538 0.01967685 0.04840016 0.009847611
000270 38 0c 01 3e 48 1a ae 3d f8 ae 10 3d 17 9a 72 bc
       0.12602317 0.085011065 0.035323113 -0.014807246
000280 65 1f 5f 3c 61 f9 6d 3d cb 49 f1 bc f5 e5 9b bd
       0.013618325 0.058099154 -0.029454133 -0.0761222
000290 ab d2 1b be f7 6c f7 3d e3 70 80 3d ca 16 14 bc
       -0.15217082 0.1208133 0.062715314 -0.009038636
0002a0 2a 3f cb ba 3b d7 4e 3c b6 3b 74 3d 65 30 f6 3c
       -0.0015506495 0.012624557 0.059627257 0.030052373
0002b0 3b 37 dc bb 7f ab 4b bd 49 16 4f 3d 17 19 92 3d
       -0.006720451 -0.0497241 0.050558362 0.07133692
0002c0 7b 79 99 3d da f5 17 bd fa eb 03 be ad ca b1 3d
       0.07493874 -0.037099697 -0.12882987 0.086812355
0002d0 09 54 91 bd f2 bd 2f 3d 32 a0 36 3d 02 8c 9e 3d
       -0.070961066 0.042905755 0.044586368 0.07741548
0002e0 af b0 ac bc af 70 6e bb 83 49 aa bc 0c 8c 14 be
       -0.021080343 -0.0036383083 -0.020787006 -0.14506549
0002f0 bd 1a f8 bd f3 0d 5a bd 96 e3 8f bd bc 60 32 bd
       -0.12114475 -0.05323596 -0.070258304 -0.043549284
000300 44 a4 06 3e 7c c1 2c be f3 b8 96 bc bd 29 8f bb
       0.131486 -0.16870683 -0.018398738 -0.0043689893
000310 e5 46 4e bd 3c b3 69 bd 66 cb 80 ba fe a6 b5 3d
       -0.05036058 -0.057055697 -0.0009826242 0.08869742
000320 a5 bd e5 bd 21 bc 7a bd a0 16 3a 3d 30 56 24 3d
       -0.112178124 -0.06121457 0.045431733 0.040121257
000330 e1 16 06 3d bc 31 4a 3e f3 7c 13 3e 49 86 8b 3d
       0.032736663 0.19745535 0.14403133 0.06812722
000340 1a 56 67 bd 3f 46 48 bd e7 f1 3e 3e ae bd 23 3e
       -0.056478597 -0.048895117 0.18646966 0.15990326
000350 d5 c3 31 3d 48 7b 9f 3d bd 0b 52 3e a2 9d f4 3d
       0.04339965 0.07787186 0.2051229 0.119441286
000360 5c 30 07 3d e3 a8 5d 3d 27 07 7b 3d 7e 12 18 3e
       0.033005103 0.05411614 0.061286118 0.14850804
000370 cf 0f 9e 3c 33 36 de 3a 20 93 37 bd b4 12 c1 bc
       0.019294647 0.0016953408 -0.044818044 -0.023568489
000380 0d 8a 01 3c 1d 8b 0e be da d1 28 bc 59 81 29 bd
       0.007906449 -0.13920255 -0.010303939 -0.04138312
000390 fa 89 e5 bc d2 94 ba bd 2e 65 8c bd d5 60 83 3d
       -0.028019894 -0.091104165 -0.06855236 0.064149536
0003a0 cf db da 3c 53 53 8f bc b1 5d 0f be 29 45 ea 3c
       0.026716141 -0.017495787 -0.14000584 0.028597431
0003b0 1d 01 7f 3d f4 ed 18 bd 0a 09 29 bd 76 ea ac bc
       0.06225692 -0.037336305 -0.041268386 -0.021107893
0003c0 15 9a 10 bd 7b e2 24 bd b2 2b b7 bc 0d f2 eb 3b
       -0.035303194 -0.04025505 -0.022359703 0.0072004856
0003d0 10 e3 bc 3c fa aa de bd 3a f0 4e bd 09 03 b5 bd
       0.02305749 -0.10872455 -0.050522067 -0.088384695
0003e0 38 b5 25 bd 5b 99 2c be d1 07 40 be 62 88 f3 3d
       -0.040456027 -0.16855375 -0.18752982 0.11891247
0003f0 7e 97 2b 3e 0b 6d 9a bc 15 54 17 3d 25 eb 76 be
       0.16757008 -0.018850824 0.03694542 -0.24113138

C5_layer.0.bias f4 [120]
000000 51 10 c5 bc 89 dc 6d 3a 42 a3 a2 bc 10 4d 7d 3d
       -0.024055632 0.0009073695 -0.019853238 0.06184107
000010 b1 bc 8e 3d 0f 20 60 bd 9c 57 1b 3d b3 9f 80 bd
       0.06969584 -0.054718073 0.037925348 -0.0628046
000020 93 16 73 bd fe c3 1b 3e c2 bc 77 bb 64 59 f3 3d
       -0.0593477 0.15211484 -0.0037801717 0.11882284
000030 01 3f 00 3d 70 d5 84 3d d7 7b 7f 3d 88 f4 2d 3d
       0.031310085 0.064860225 0.062373962 0.04246953
000040 cc 55 dc bb 61 c0 6d bb fd 89 66 3d 86 9a 6a bc
       -0.006724095 -0.0036277997 0.05628394 -0.014319068
000050 86 71 e1 bc eb 03 58 bc e4 57 df bd ac e6 39 3d
       -0.027519953 -0.013184528 -0.10905436 0.045386
000060 5d 54 0c bd 36 7a 1a 3c 27 69 1d 3e dc 23 98 3d
       -0.034260143 0.009428551 0.15372144 0.07428715
000070 6d 9d 3d 3d f7 7a df 3d 77 98 96 3b 3f 82 fe 3d
       0.04629271 0.109121256 0.004595812 0.12427186
000080 93 19 b4 bc ac 10 f2 bc 8a 7a d7 3d b9 96 2e bd
       -0.021984851 -0.029548965 0.10521419 -0.04262421
000090 36 02 ce bc 0d 5f 93 3d 43 76 38 bc d4 85 55 bb
       -0.025147539 0.07195864 -0.011258665 -0.0032580988
0000a0 62 d2 b2 bb bc d6 f3 3b e4 58 6f 3d e5 38 8d bd
       -0.0054572085 0.00744137 0.058434382 -0.068956174
0000b0 d0 ba c7 bd 4a 02 42 3d 1a c9 28 3e af e8 5c bd
       -0.097524285 0.047365464 0.16482964 -0.053932842
0000c0 e3 26 83 3d b4 f8 d7 3d 1e ec 86 bd 5f c6 80 3c
       0.064039014 0.10545483 -0.065880045 0.01571959
0000d0 15 97 7d 3d d9 6b 02 3d 7b e2 32 bd f7 ed 7f bb
       0.06191166 0.031841133 -0.04367302 -0.003905175
0000e0 00 9b 61 3d 23 89 ad 3d 1e 3f c6 bc 60 24 26 bd
       0.05507946 0.084734224 -0.024200018 -0.040562034
0000f0 d0 5d 86 3b bc 9b b7 3c 2e 02 12 bc 47 b9 4c bc
       0.004100539 0.022413127 -0.0089116525 -0.012495345
000100 6e 8f a9 bb 44 42 c1 3d ed 39 b6 3d bd 78 21 bd
       -0.005174569 0.09436467 0.08897767 -0.039421786
000110 09 fa 6d 3d 5e 90 b9 3c 4f 84 2d 3d 82 17 4a bc
       0.05809978 0.022651847 0.042362507 -0.012334706
000120 0f 7b 24 bd aa de 15 3d 23 5e 7f bd b6 6a cb 3d
       -0.04015642 0.036589302 -0.062345635 0.09932463
000130 61 97 96 3d a2 26 6c 3d b6 b9 99 3d 0a 77 94 bc
       0.07353092 0.05765403 0.07506125 -0.018123168
000140 0f 25 89 bd eb 1c 03 3e 2a b8 05 bc 86 ee f8 3c
       -0.066965215 0.12804 -0.008161584 0.030387174
000150 d7 52 74 bd be ab b6 3d 72 36 e4 3d 37 3f a1 bd
       -0.059649315 0.08919476 0.11143197 -0.078733854
000160 c5 f5 12 bd c5 ee 8b bb 48 5f 8f bd 03 e8 14 be
       -0.035878915 -0.004270407 -0.07000595 -0.1454163
000170 27 2a 93 3d a7 03 72 bd 43 11 69 bd 44 1e af 3c
       0.07185774 -0.059085514 -0.056901228 0.021376736
000180 66 92 91 3c d2 6e ae 3d 46 a8 48 bd ec f3 52 bd
       0.017770004 0.08517231 -0.048988603 -0.051502153
000190 31 c0 83 bd 3c 93 21 bd d5 4e f1 bb 8d 18 db bb
       -0.06433142 -0.039447054 -0.007364134 -0.0066862763
0001a0 50 4d c2 b8 05 5b e1 3c 15 ab 4a bd 6d 5f 08 bc
       -9.2650414e-05 0.027509222 -0.049479563 -0.0083235325
0001b0 2a 2f e7 3d 33 80 35 3e 05 32 0b be 38 30 3c 3d
       0.11288293 0.17724685 -0.135933 0.045944422
0001c0 a0 92 26 bd 31 4d 5a bb 5b 45 6f bd 5a e5 68 bc
       -0.040667176 -0.003331017 -0.058415752 -0.014214838
0001d0 40 12 ec 3d 31 53 3b bd c2 6b 35 bd d7 34 d4 bd
       0.115269184 -0.045733634 -0.04429222 -0.10361641

fc_layer1.0.weight f4 [84, 120]
000000 b3 c4 56 bd 21 fe 9a 3d 7a 8b 5e bc 6a d3 e9 bd
       -0.05243368 0.075680025 -0.0135830585 -0.11417277
000010 a3 06 4e 3c 14 30 e6 3c 22 4f bc bd 92 3e 91 bc
       0.0125748245 0.028099097 -0.09194781 -0.017730031
000020 eb b4 f1 3c 0b 83 0d bb 4d b5 e5 3d da 55 1f bb
       0.029505214 -0.0021593 0.11216221 -0.0024312646
000030 4e c6 49 3d a4 9c c0 bd 7b 80 92 bd 0c 53 b3 3d
       0.049261384 -0.09404877 -0.07153412 0.08756074
000040 b0 75 f3 3b ae 1d 91 3d af e3 b6 3d b3 5f 4d 3d
       0.007429801 0.07085739 0.08930146 0.050140094
000050 21 31 c5 3c ce 9d 78 bd 5f e4 b3 bd a7 71 c7 bc
       0.024071278 -0.06069737 -0.08783793 -0.024346186
000060 3c b7 1b 3d ea b5 15 be d2 ad 80 bd 8d 12 3d bd
       0.038016543 -0.14620176 -0.062831536 -0.04616027
000070 4e e2 d8 bc 66 e2 a2 3c 21 3d 77 bd 4f e0 c6 bd
       -0.026475098 0.019883346 -0.06036103 -0.09710752
000080 d3 1c d1 3c d2 d2 1c 3d ab 40 c0 bd 09 83 07 be
       0.02552644 0.03828699 -0.093873344 -0.1323358
000090 2b 68 b3 3c df 8f 98 bd 4f 64 45 bd b2 2a 3e 3d
       0.021900257 -0.07449316 -0.048191365 0.046427436
0000a0 64 b8 25 bd ad 19 ab 3a 9c 6a c9 bc 24 26 f9 3b
       -0.04045905 0.0013053917 -0.024586968 0.0076034237
0000b0 eb 88 f1 3d da 7c d3 3d 0b b9 fa bc d9 8d fa 3d
       0.11793693 0.10326548 -0.030605813 0.122340865
0000c0 9d 63 0e 3e 1c 37 fa bd 49 a4 c9 bd 80 9d a1 3d
       0.13905187 -0.122175425 -0.09845788 0.07891369
0000d0 b2 75 8d 3d d3 18 6e 3d e7 24 d2 3d f4 02 a0 3c
       0.06907214 0.058129143 0.10260945 0.019532658
0000e0 f6 55 67 bd 3b 5d 98 bd 2a 21 70 bd 97 76 eb 3b
       -0.056478463 -0.07439657 -0.058625378 0.007185768
0000f0 0b 7b 83 bd 90 f3 d0 bc d4 53 37 3e c2 c3 38 3d
       -0.06419953 -0.025506765 0.17903072 0.045108564
000100 bc 18 97 3d 25 c7 9b 3c e0 ca 2e bd 84 1b 08 3d
       0.073777646 0.019015858 -0.042673945 0.033229366
000110 2e e1 85 3d 97 30 43 3d 64 69 52 3d 08 de 44 3e
       0.0653709 0.04765376 0.05137004 0.19225323
000120 bd bc 54 3c d9 3c 73 3d a3 b0 39 3e cd 9a 57 3c
       0.012984452 0.0593842 0.18133788 0.013159466
000130 8e 0c 86 3d 3e 00 d8 3c cd fa 96 bd 7b 26 3a 3c
       0.06545363 0.026367303 -0.07372055 0.0113617135
000140 37 43 27 3d cb f1 9c 3d 3d 7c 4a bd d2 de 92 3d
       0.040835585 0.07663306 -0.04943489 0.07171406
000150 9a 2d 39 3d 15 f5 74 3c 9b e3 59 bd b4 59 41 3e
       0.045209505 0.01495101 -0.053195577 0.18881875
000160 95 4b 99 3d f3 f0 81 3c e0 c7 81 bd 1c 21 a6 bc
       0.07485119 0.015861964 -0.06336951 -0.02027946
000170 24 e5 ca bd 77 83 0e 3d bf 58 f4 3c bf 95 45 bc
       -0.09906986 0.034793343 0.029827474 -0.012059628
000180 1b c5 64 3c 72 0d 5e 3a c0 ae d7 bc 9c 7b 6c 3d
       0.013963009 0.00084706314 -0.026328444 0.05773507
000190 8b 03 45 bd 97 d8 0d bd 02 1b 14 3d 46 03 df bd
       -0.048099082 -0.034630384 0.03615857 -0.10889296
0001a0 86 3f 1b bd 7d 84 24 3e 64 94 40 3d e5 e1 bb bd
       -0.037902378 0.16066165 0.047016516 -0.09173945
0001b0 2c 0a 37 bb 2a 72 32 bd d4 9e 89 bd 1d 11 df 3c
       -0.0027929647 -0.043565907 -0.06719747 0.02722984
0001c0 a3 9e 34 bd cc 59 0a 3e b0 61 a7 3c cd 38 e5 bc
       -0.0440966 0.13510817 0.020432323 -0.027981186
0001d0 a4 1e 8e bd 3c db e7 3c 7c d4 53 bd 79 66 52 3d
       -0.06939438 0.028302781 -0.051716313 0.051367257
0001e0 bc eb 3f 3e d3 50 7a be 86 f8 4e 3b e9 d9 d1 3d
       0.1874227 -0.24444894 0.0031581237 0.10246641
0001f0 12 8d 3d be 94 63 5f bc b9 a2 a1 3d 57 68 76 bd
       -0.18510845 -0.013634581 0.07892365 -0.0601581
000200 89 00 17 3d a3 3a 5c bd 47 5f be 3d fe d8 cb 3d
       0.036865745 -0.053766858 0.092955165 0.09953497
000210 33 c4 00 3d 6c 1d c2 3c d8 0f 51 3c a3 eb 0f bd
       0.03143711 0.02369567 0.012760125 -0.03513683
000220 8c af b3 bd 3a 98 5c bd b7 49 5b bd 7b ca 75 bc
       -0.08773717 -0.053856112 -0.053537097 -0.015001888
000230 ff 00 c5 3d 17 9d ad 3d 95 ab 29 3d 7c 88 a5 bd
       0.096193306 0.08477228 0.0414234 -0.08082673
000240 47 cc 40 be f8 8f 61 3d 64 cb 17 be ec 31 2a be
       -0.18827926 0.05506894 -0.14823681 -0.16620606
000250 6a a0 91 bc 34 0c 2f 3e c1 d3 fa bc 2e e3 5c 3d
       -0.017776687 0.17094499 -0.03061855 0.053927593
000260 3a b2 8f bd ff 62 4d 3d f3 34 13 be 20 1e 90 3d
       -0.07016416 0.05014324 -0.14375667 0.07036996
000270 b9 ca 8e 3e dd ed 64 3c d0 28 ff 3d 17 ba aa bd
       0.2788904 0.013972727 0.12458956 -0.08336275
000280 dc 0e b1 3c 51 29 dc bd cb f9 bf 3d 30 8a d6 bc
       0.02161353 -0.10750068 0.09373816 -0.02618894
000290 e1 76 e8 3d dd 7a 25 3e bf 3a 16 be 49 ae ce bd
       0.11350799 0.1616015 -0.14670847 -0.10091836
0002a0 72 01 47 3c 25 28 57 3d 87 3e 84 3d 60 17 05 be
       0.012146341 0.05252852 0.06457239 -0.12997198
0002b0 f7 b8 fb 3c 51 91 04 3e 6c 6f aa bd 12 cb d0 bc
       0.030727847 0.12946059 -0.08322033 -0.025487456
0002c0 16 3c 4d 3d 7e 01 35 be 4b 1f a3 bb c3 7d 3e 3e
       0.05010613 -0.1767635 -0.0049780956 0.18602662
0002d0 d7 35 83 3d 7a f6 80 3d b4 6f 89 bd 6c 2e 7d 3b
       0.064067535 0.06297012 -0.06710759 0.0038632406
0002e0 e0 78 7d bc 9c 2d d2 bd 9d bf 14 bd 87 3a 41 bd
       -0.015470713 -0.102626055 -0.03631555 -0.047174957
0002f0 06 a3 cf bc bc dc fb 3d f5 dd b5 bd a0 48 be bc
       -0.02534629 0.12297961 -0.088802256 -0.02322799
000300 b5 6d 00 bd 02 b8 a5 3d 1c ab 2b be a2 b4 bc bc
       -0.031354625 0.08091737 -0.16764492 -0.023035351
000310 26 20 e9 3c 47 49 f4 3c 03 7c 52 3e a6 79 42 bd
       0.028457712 0.029820098 0.20555119 -0.047479294
000320 20 f4 e2 3b 67 a4 93 3d e9 74 2a 3d f0 1e a8 bb
       0.0069260746 0.07209092 0.0416154 -0.005130641
000330 4b 92 57 3d 50 db e0 bd 3f 2b 02 3e 51 3b 96 bd
       0.05262975 -0.109793305 0.1271181 -0.073355325
000340 28 5b 23 be 0c ae 6d 3d 37 4d 5c bb fc 63 09 3e
       -0.15952742 0.058027312 -0.003361536 0.13417047
000350 2d f2 89 3d af 36 44 bd 1a d4 68 bd 38 30 9b bd
       0.067356445 -0.047903713 -0.0568429 -0.07577556
000360 50 0f ab bc db b1 8a bd 16 0f a0 3d 69 a7 a8 3d
       -0.020881325 -0.067722045 0.078153774 0.08235056
000370 cc 32 11 bd ce 11 d1 bb 18 6d 54 3d 69 72 9f 3d
       -0.035448834 -0.0063802963 0.051861852 0.07785494
000380 33 26 eb 3d dd c8 fc 3d 5b 0c 4c 3b 46 65 77 bd
       0.11481895 0.12342999 0.0031135294 -0.060399316
000390 7c 03 4c 3c 5f e9 15 bd 32 ac 44 3e dd 14 8e 3d
       0.012452003 -0.036599513 0.19206312 0.06937573
0003a0 8c b7 43 3d c9 ef dc 3c 1c d9 a4 bd f7 fb 75 3d
       0.047782466 0.026969807 -0.08049223 0.060054746
0003b0 02 e8 8d 3d 9f a7 b2 3d d6 f2 bb 3e 01 4f 57 3e
       0.069290176 0.087233774 0.36708707 0.21026231
0003c0 db 68 35 be 2d 9a ed bd a1 aa 7f 3c f2 c3 8d bd
       -0.1771578 -0.11601672 0.015604646 -0.06922139
0003d0 fa b1 df 3d 08 0d ad 3d c9 fe 29 bc ba 22 fb bd
       0.10922618 0.08449751 -0.010375687 -0.12262483
0003e0 2d 3e 86 3d 0f 60 90 3d e3 2c e4 3d 7e 91 28 3d
       0.06554828 0.07049572 0.11141374 0.041154377
0003f0 2c 86 8e 3c 4a ec fd 3c 5b 34 d3 3c dc 90 bd 3d
       0.017397963 0.03099646 0.025781801 0.09256145

fc_layer1.0.bias f4 [84]
000000 b0 cf 50 bd a7 e5 8e bd af 92 35 3e 63 c4 92 3d
       -0.050979316 -0.069773965 0.17731737 0.07166364
000010 23 7a 46 3d 14 b4 37 3d 25 68 8c bd b0 5e 3b bc
       0.048456322 0.04484947 -0.068558015 -0.0114361495
000020 f3 7f 08 be 26 48 e9 bc ae 9d ad 3d fa 0d 44 3c
       -0.13330059 -0.028476786 0.08477341 0.011966223
000030 24 74 99 3d 8f 21 cb 3d d5 30 0e 3e b5 dc 03 3e
       0.07492855 0.0991851 0.13885815 0.12877162
000040 6a 00 0d bd c8 60 81 bd 3a 1b 16 be 51 fa c4 3a
       -0.034424223 -0.06317288 -0.14658824 0.0015028213
000050 c5 66 1f bc 7b 85 f1 bc e1 02 07 bd e9 7a 63 be
       -0.009729092 -0.029482594 -0.03296173 -0.22214855
000060 48 7c 78 3c 6f 5f 17 3d e6 b8 9e bd 3b d2 09 3d
       0.01516635 0.036956247 -0.0775011 0.033647757
000070 4f ad 14 be d4 49 98 bd f4 2d 98 3d 35 f2 fe 3d
       -0.14519237 -0.074359566 0.0743064 0.12448541
000080 e3 6c 11 3e 06 c8 e1 3d ef 52 ad 3d 3c f3 17 3d
       0.14201693 0.110244796 0.08463084 0.0370972
000090 1b 3a 7e 3e d6 0c 1d 3d be 2f cc bb 6c d7 eb bd
       0.24826853 0.03834232 -0.0062312772 -0.11515698
0000a0 87 90 f2 3c 17 33 0f 3e d2 b6 3f be bb 8a 6f 3d
       0.029609932 0.13984333 -0.18722084 0.058481913
0000b0 3d 1e 6e 3d f1 e0 ba bd 4a 69 db 3d c7 ac 96 bc
       0.058134306 -0.091249354 0.10713442 -0.018392934
0000c0 38 73 18 3e c9 c9 fe 3d e1 4f 57 3e 82 21 02 3d
       0.14887702 0.12440831 0.21026565 0.031770237
0000d0 e1 3b 49 bd da 2a 44 bc e1 71 af bd c8 36 b0 3c
       -0.04912937 -0.011973107 -0.085666426 0.021510497
0000e0 1a 8a b5 bd ad ba e0 bd 42 fb 14 3d 3a a1 f2 3d
       -0.088642314 -0.109731056 0.03637243 0.11847158
0000f0 5d 86 df bd 16 23 c5 3d 8c c1 cc bc 38 22 61 bd
       -0.109143 0.09625833 -0.024994634 -0.054964274
000100 22 c0 52 bc 4a 4a da 3d 95 6d ab 3c d5 c3 d6 bd
       -0.012863191 0.10658701 0.020926276 -0.10486571
000110 f3 97 25 3c 0e 35 c1 3c 2e b7 e2 3d 3b b4 3e 3d
       0.010107028 0.023584869 0.11070095 0.0465586
000120 b0 4d f1 3a 34 8b 2d 3d 95 f4 0f 3b a3 6a 2e be
       0.0018409993 0.042369083 0.002196585 -0.17032866
000130 19 36 01 3d f6 d2 f8 bd 18 12 fc bd 6e 50 6d 3d
       0.031545732 -0.121496126 -0.123081386 0.05793803
000140 8b fa 65 3c ab cf 46 bc d2 3d b9 bb 1a 31 97 3d
       0.014036785 -0.012134473 -0.0056531215 0.07382412

fc_layer2.weight f4 [10, 84]
000000 94 a0 bf 3d 99 3d 9d 3c 6e 57 8a bd 6a 8b 93 3d
       0.093568 0.019194411 -0.06754957 0.072043255
000010 98 c4 4d 3c 25 7d b2 be fc c8 ee 3d db 10 b6 bd
       0.012559079 -0.34861103 0.116594285 -0.08889934
000020 a2 47 90 bc 38 0e 86 3d 27 86 91 bd fd d5 83 be
       -0.017612282 0.06545681 -0.07105666 -0.25749198
000030 71 cf 8e bd 41 81 a9 3d 9b 5f 9d bc e2 a5 7b bd
       -0.0697316 0.08276606 -0.019210627 -0.061437495
000040 7c 2d 55 bd a3 eb d3 bc f8 78 23 3e 3b ea 38 be
       -0.05204533 -0.025869196 0.15964115 -0.18058102
000050 64 49 46 3e 61 9b cb 3d 20 67 34 bc 64 96 19 3e
       0.19363934 0.099417455 -0.011010915 0.14998776
000060 12 c4 f9 bc b7 5b a3 be 85 ba 9d bd 9d d1 ed bc
       -0.030489001 -0.3190591 -0.077015914 -0.029030615
000070 ff 62 be bd d1 14 be 3d 7f 48 aa 3d e0 5e 85 be
       -0.09296226 0.09281314 0.08314609 -0.26048946
000080 9e 3a 46 bd a7 8d 2b be 33 6a 4d bd a9 09 d6 3c
       -0.048395745 -0.16753255 -0.050150108 0.026127653
000090 bd b1 1c bc b6 c8 6f be 03 49 64 3e fc 78 e3 bd
       -0.0095638605 -0.23416409 0.22293477 -0.1110706
0000a0 b6 10 7f 3d 56 2e d9 3d e8 84 77 be ae 05 8a 3b
       0.062271796 0.10604541 -0.24171793 0.004212103
0000b0 dc d3 3d be 0a e4 2c 3d 1d 5a 80 be 23 0d 88 be
       -0.18537849 0.042209662 -0.2506875 -0.26572523
0000c0 93 69 b9 bb b1 78 14 3e fd fd 85 be a9 9a c4 3c
       -0.0056583374 0.14499165 -0.2617034 0.023999529
0000d0 57 28 37 bd 01 9f 96 bd ab 09 52 bd 0d e0 21 3e
       -0.044716205 -0.07354546 -0.05127875 0.15808125
0000e0 28 6e 7a bd f5 e3 95 3b ca 3c e7 3c 6d d1 ca bd
       -0.06114021 0.0045742937 0.028227229 -0.09903226
0000f0 71 19 75 be 1b 29 22 3d 88 78 b9 be 3b b9 96 3d
       -0.23935486 0.039589982 -0.3622477 0.07359549
000100 c6 8b 9a bd d8 f9 ba be 7f dc 9a bd ac bc 38 bd
       -0.07546191 -0.3651874 -0.075615875 -0.045101807
000110 2d f3 4f bd 4a 13 44 3d eb ab 31 3d 43 de 1c 3d
       -0.05076902 0.047869958 0.043376844 0.038297903
000120 45 ad 25 be df c4 4f bd 52 c5 9a bd 45 73 24 be
       -0.16179378 -0.05072486 -0.07557167 -0.16059597
000130 38 81 25 3e 3b 44 00 3b 48 a4 13 bd 24 55 15 3e
       0.16162574 0.0019571919 -0.036045343 0.1458326
000140 4d 84 c5 bd 42 f0 98 bd 53 ce 7b be 32 f0 01 3e
       -0.09644375 -0.074677005 -0.24590425 0.12689283
000150 c0 77 1b be a7 5c cf 3d 0b 83 02 3e d9 80 26 bd
       -0.151824 0.10125094 0.12745301 -0.040650222
000160 74 d9 29 3e a3 ba eb bd d0 60 f6 3d f6 45 50 be
       0.16586858 -0.115102075 0.12030184 -0.20339188
000170 7c 54 8c bd ea a1 92 3c 28 c2 c1 bd 31 93 ac 3d
       -0.068520516 0.017899472 -0.094608605 0.08426512
000180 64 e3 d5 bd 9d b3 35 be c1 09 b1 bd 38 95 a8 3d
       -0.10443762 -0.17744298 -0.086444385 0.08231586
000190 d3 e6 e5 3c d1 09 eb 3d f6 1e 5b 3e b8 8d cb 3d
       0.028064167 0.11476482 0.2139853 0.0993914
0001a0 98 34 1e be b2 ed ab bd 15 27 51 be 68 b2 db 3d
       -0.1544975 -0.08394946 -0.20425065 0.10727388
0001b0 ac b6 3b 3e da a5 20 3e df 46 b9 3d a7 44 45 be
       0.18331403 0.15688267 0.09046721 -0.1926447
0001c0 ea 71 15 b6 c1 db 80 bd 10 50 88 be 34 95 b8 bd
       -2.2269037e-06 -0.06291915 -0.26623583 -0.09012833
0001d0 99 72 08 3e a9 f5 5a be 7c 57 a4 3d 9a 53 24 be
       0.13324966 -0.21382774 0.08024499 -0.16047516
0001e0 11 12 95 bd 97 0f 6f 3e a3 83 f5 3d cc 04 d8 3b
       -0.072788365 0.23345791 0.11987998 0.0065923687
0001f0 08 0a 2c 3e 14 d2 aa 3d 06 02 02 3e b4 b9 f0 bc
       0.16800702 0.083408505 0.12696084 -0.029385425
000200 ac 20 d6 bd 21 d2 77 be 4e cd b4 bd 51 b4 02 3e
       -0.104554504 -0.24201252 -0.08828221 0.12764098
000210 0b a8 d7 3d e8 c3 92 3c 29 e8 37 be 2e b9 7c bd
       0.105300985 0.017915681 -0.17959656 -0.06170004
000220 68 6f bb 3d 12 aa b2 bd ef f9 53 be 37 2b 5c be
       0.091521084 -0.087238446 -0.20700811 -0.2150086
000230 89 ee 82 be 95 77 f2 bd 68 6d 6e be d0 fc eb bd
       -0.25572613 -0.11839215 -0.23283923 -0.115228295
000240 09 44 81 bd 6b 0e b1 bd 78 bf 89 bc 73 4e 83 bd
       -0.06311805 -0.08645328 -0.016814932 -0.064114474
000250 f1 4b e5 3d d0 3d d7 bd 84 aa 8d bd b9 33 bd bb
       0.11196125 -0.10509837 -0.06917289 -0.005773988
000260 5e 82 92 be 64 62 07 3e 26 75 0d be 46 68 9a 3d
       -0.28615087 0.13221127 -0.1381422 0.0753942
000270 21 2c 42 3e 7e b9 08 ba 47 c0 0b be df 95 b1 3c
       0.18962146 -0.0005215629 -0.13647567 0.02167791
000280 74 c6 24 be 0f 28 91 bd 13 ec c8 3d a4 ee 72 3c
       -0.16091329 -0.07087719 0.098106526 0.014827404
000290 1d b2 92 3b 6e 9e 0c bc 07 88 18 3c a0 df 04 be
       0.004476799 -0.008582694 0.009309775 -0.12975931
0002a0 26 3c b3 3c 58 ee 4f 3d 75 ed 41 be 39 40 29 3e
       0.021879267 0.05076441 -0.18938239 0.16528405
0002b0 9b fd 09 be 9e 37 e4 3d 3d 68 a9 3d af 98 70 bd
       -0.13475649 0.11143421 0.08271835 -0.05873936
0002c0 29 c5 9c 3c 5c 15 0f 3d e1 16 51 bd 3f d9 74 bd
       0.019136982 0.03493248 -0.05104721 -0.059777495
0002d0 60 5a a0 3d b3 8c 24 be e5 a2 b2 bb 32 bd 5e 3d
       0.07829738 -0.16069297 -0.0054515474 0.05437965
0002e0 88 67 74 bd 17 4f a4 3b 14 a5 59 be 7d 74 7d be
       -0.059669048 0.005014311 -0.21254379 -0.24751468
0002f0 c0 78 b8 bd c8 7a 1b 3d 25 66 9c be a4 e9 e9 3c
       -0.09007406 0.03795889 -0.3054668 0.028553791
000300 4e 50 98 3d 04 ad 30 3e bb 4c e3 3d 34 1f ef 3d
       0.07437192 0.172535 0.110986196 0.116758734
000310 7e df 17 be ae 3f ab bc 00 22 72 3d 49 8a 8c bb
       -0.14831349 -0.020904388 0.059114456 -0.004288946
000320 fe ec 9c 3d 4f d0 ef 3d f6 c1 b9 bd 7e ce fc bd
       0.0766239 0.117096536 -0.09070198 -0.12344073
000330 3f c0 0c bc d4 94 07 bd 1e 0b 15 3e 96 f9 c1 bc
       -0.008590757 -0.033100918 0.14555022 -0.023678582
000340 80 89 e9 3d f2 43 d8 bb dc 10 85 bc 14 71 77 bd
       0.11403179 -0.0065998966 -0.01624339 -0.060410574
000350 a4 e0 a4 bd 39 c7 ba 3d c5 6b c7 3d a8 cf f2 bd
       -0.08050659 0.0912003 0.09737352 -0.118560135
000360 94 9e 2a be d1 34 b5 bd 28 ec 5e 3d b4 10 c8 bd
       -0.16662055 -0.088479646 0.054424435 -0.09768811
000370 91 7f 59 3d 62 6d 05 bd aa c0 c4 bc 52 a0 20 3e
       0.053100172 -0.03257502 -0.02401765 0.15686157
000380 49 ca 09 3e ae 86 a1 bc c0 64 e7 3d 9b 6a 14 be
       0.13456072 -0.01971754 0.112985134 -0.14493792
000390 77 a7 34 bd 91 bc 07 be 28 ba db bd ef 35 6b bb
       -0.04410502 -0.13255526 -0.10728866 -0.0035890301
0003a0 66 82 bb 3d 31 93 1e be 9a ab c9 bd de 1c 3d bb
       0.09155731 -0.15485837 -0.098471835 -0.0028856318
0003b0 f2 62 2c be 08 8f 0c bb 1c 82 76 3d 70 6c 1d be
       -0.1683462 -0.0021447558 0.060182676 -0.15373397
0003c0 cd 22 4e be 69 92 98 bd ba 66 67 bd cf 60 1b 3e
       -0.20130463 -0.074498005 -0.056494452 0.15173648
0003d0 96 60 9f bd 1e 57 66 bd 04 a8 c4 3c 08 5f 8a bd
       -0.07782094 -0.056235425 0.024005897 -0.06756407
0003e0 35 be b4 bd ab 89 85 3d d9 2c df 3d 58 c3 ff 3c
       -0.088253416 0.06520399 0.10897226 0.031221077
0003f0 ec 2a 5d 3d da af 92 be 1e f9 a7 bd a3 0c 54 bd
       0.05399601 -0.2864979 -0.08201812 -0.051769864

fc_layer2.bias f4 [10]
000000 5f e9 2e bd 8b 27 0d be 3f 73 b2 bd ff f2 74 bd
       -0.04270303 -0.13784616 -0.08713388 -0.05980205
000010 03 7b 31 3c 42 51 05 3d 5f 46 81 bd 9b 6a fa bc
       0.010832551 0.032548197 -0.0631225 -0.030568412
000020 3e 73 1f 3e 52 34 06 3e
       0.15571305 0.13105896
