ml2/1126/MNIST_BaseModel_weights.pth (torch, 250119 bytes, 10 tensors)

conv_layer1.0.weight f4 [6, 1, 5, 5]
0.17567557 0.24240266 0.085469656 -0.018415663 0.07366738 -0.024894856 0.21108648 -0.08948453
-0.08468447 -0.07894951 0.02550999 0.21448202 0.14389588 0.31710497 -0.20665507 0.06508208
0.053251375 0.03533126 0.18402034 -0.0028750456 -0.14729846 -0.09890095 0.24150051 -0.12708662
0.03492038 -0.07947304 -0.27559167 0.1173845 0.2668597 -0.20018876 0.2578757 0.13574731
0.30644572 0.23697887 -0.36669305 0.18552381 -0.099071644 -0.06670895 -0.018746207 -0.28295755
0.11297277 -0.13237683 -0.26778597 0.21297437 -0.045475166 -0.0493277 0.025789896 -0.052494038
0.15429088 0.16804527 0.07031797 0.2554249 0.38224682 0.24324857 0.28781456 0.07522828
0.13451464 0.32630336 0.32441086 0.3204391 0.083229765 0.0416454 -0.16284212 -0.025102353
0.023771457 -0.053724114 -0.3354806 -0.30871627 -0.17624243 -0.2782835 -0.19398257 -0.3345107
-0.3384591 -0.31223533 0.020009492 -0.15678044 -0.06368431 0.046597328 0.16972806 0.23063983
-0.4229956 -0.25958863 -0.16075628 0.39029416 0.17445417 -0.197762 -0.17380823 -0.06103331
0.3472287 0.38672957 0.01992085 0.11244672 0.24132659 0.32065657 -0.044786837 -0.094059676
-0.025100952 0.08458074 0.07964214 0.18475649 0.17609346 0.30517447 0.37223175 0.26617324
0.013166355 -0.2462221 -0.21008702 -0.2072411 -0.031944044 0.16304457 -0.3064619 -0.50230175
-0.23273116 -0.18102406 -0.062857166 0.24046744 -0.10676795 0.0652428 -0.027364722 -0.116643116
0.35808444 0.23964217 0.11572207 -0.009949901 0.10353489 -0.4207323 -0.64359444 -0.44096634
-0.3365125 -0.28191575 -0.15547946 -0.27556923 -0.30359536 -0.20867762 0.14490162 0.07884909
-0.038266998 0.027106851 0.37310523 0.17916657 0.34299275 0.22107062 0.2902167 0.1734878
0.023350766 0.19910789 0.24319841 0.3775921 0.095187604 -0.052401282
00000000: 4ce4 333e 6738 783e b70a af3d 72dc 96bc
00000010: ecde 963d 4cf0 cbbc 0e27 583e aa43 b7bd
00000020: 0d6f adbd 48b0 a1bd 54fa d03c 2da1 5b3e
00000030: 7159 133e 955b a23e 639d 53be c149 853d
00000040: 1d1e 5a3d 83b7 103d d46f 3c3e 436b 3cbb
00000050: 68d5 16be 958c cabd e94b 773e ff22 02be
00000060: ac08 0f3d c3c2 a2bd 5a1a 8dbe 4967 f03d
00000070: d6a1 883e 48fe 4cbe 4908 843e 5801 0b3e
00000080: 74e6 9c3e 97aa 723e 31bf bbbe f4f9 3d3e
00000090: 13e6 cabd b49e 88bd a591 99bc d0df 90be
000000a0: 455e e73d cb8d 07be 3e1b 89be f415 5a3e
000000b0: 2b44 3abd d80b 4abd 5545 d33c fd03 57bd
000000c0: 6efe 1d3e 0f14 2c3e de02 903d 0dc7 823e
000000d0: dbb5 c33e 2716 793e 6e5c 933e 4911 9a3d
000000e0: 35be 093e 3c11 a73e 2e19 a63e 9810 a43e
000000f0: 5e74 aa3d 5e94 2a3d 16c0 26be 73a3 cdbc
00000100: 5cbc c23c d10d 5cbd 1dc4 abbe 0f10 9ebe
00000110: e578 34be 2d7b 8ebe 5ea3 46be fd44 abbe
00000120: 834a adbe 4fdd 9fbe f2ea a33c 0d8b 20be
00000130: eb6c 82bd d7dc 3e3d 31cd 2d3e d92c 6c3e
00000140: e192 d8be cde8 84be 4b9d 24be a3d4 c73e
00000150: 1da4 323e 1f82 4abe c9fa 31be 10fe 79bd
00000160: f6c7 b13e 6b01 c63e 0d31 a33c 774a e63d
00000170: 511e 773e 192d a43e 6772 37bd 5ca2 c0bd
00000180: 83a0 cdbc ab38 ad3d 6b1b a33d ce30 3d3e
00000190: d851 343e d43f 9c3e 2995 be3e dc47 883e
000001a0: b2b7 573c a521 7cbe 0d21 57be 0337 54be
000001b0: c2d7 02bd 28f5 263e 93e8 9cbe d996 00bf
000001c0: 1451 6ebe 5f5e 39be 42bb 80bd 193d 763e
000001d0: 28a9 dabd 049e 853d fb2b e0bc 96e2 eebd
000001e0: d856 b73e c264 753e b1ff ec3d e904 23bc
000001f0: 1a0a d43d 396a d7be 9bc2 24bf 57c6 e1be
00000200: 5e4b acbe 4357 90be 0236 1fbe 6917 8dbe
00000210: da70 9bbe 96af 55be 1761 143e a27b a13d
00000220: dbbd 1cbd 300f de3c a607 bf3e 7177 373e
00000230: bf9c af3e 5660 623e 4997 943e c9a6 313e
00000240: 1b4a bf3c f0e2 4b3e 0109 793e c053 c13e
00000250: b8f1 c23d baa2 56bd

conv_layer1.0.bias f4 [6]
-0.04469542 0.008375194 0.041788116 -0.010745718 -0.12665762 0.16020761
00000000: 8b12 37bd 1c38 093c 042a 2b3d cf0e 30bc
00000010: 89b2 01be 770d 243e

conv_layer2.0.weight f4 [16, 6, 5, 5]
0.09382027 0.17584068 0.03138398 -0.06257442 -0.110451 0.05012187 0.01065508 -0.199518
-0.14051725 0.01449266 -0.12649117 -0.28119588 -0.26885614 -0.11371262 -0.023255078 0.08124627
-0.106147364 -0.18299466 -0.16505793 0.08620336 0.1005771 0.0453683 -0.015410318 -0.13644361
-0.08864363 0.0025262912 0.12152674 0.13840029 0.09562611 0.053057555 0.018017562 0.009935997
-0.081056185 -0.15992247 -0.036252387 -0.089768514 -0.05109638 -0.15595748 0.093451574 0.025618006
0.14827211 0.03787703 -0.15868819 -0.010254645 -0.07080282 0.1694131 0.015133257 -0.107561596
-0.08240215 -0.09146252 0.39033404 0.20948982 0.294362 0.1209538 -0.009937121 0.19384104
0.103921846 -0.22000326 -0.45566824 -0.14242412 -0.25726268 -0.5103997 -0.3179065 0.24650054
0.27303696 -0.29659322 -0.40851843 0.10889842 0.20700881 0.11084116 -0.1392514 -0.40265173
-0.24370334 -0.10894291 -0.077581644 0.17862546 0.029516136 -0.06565446 -0.18265602 -0.004882328
-0.062111408 -0.3465157 -0.17037076 0.072735235 0.05688618 -0.18771096 -0.45722437 0.0036113951
0.07239599 0.07145941 -0.012487441 -0.26040462 -0.22408746 -0.13160312 -0.054333586 0.17350869
-0.0037412036 -0.118566304 -0.14480415 0.0030285262 -0.089615926 -0.25305012 -0.21298261 -0.06637758
0.162446 -0.010003152 -0.011989824 -0.027631031 0.14057142 -0.015615315 0.05923576 -0.15973686
-0.61463827 -0.35016948 -0.029477648 0.061416775 0.12782837 0.24687879 0.3559214 0.24963196
-0.08839355 -0.057775512 0.07546138 0.2979956 0.17441814 -0.23076364 0.036743596 -0.14118458
-0.16227616 0.0049346266 -0.18287815 -0.17296235 -0.062682964 0.2770492 0.24123691 0.06304414
-0.18974604 0.017713394 0.07847874 0.05129635 0.107074335 0.06510157 -0.062265787 -0.19059445
0.017607538 0.13904184 0.13756616 0.23304361 0.051911823 0.21727626 0.048736878 0.10591556
-0.068099044 -0.001516036 -0.0063739056 0.17380746 -0.03755217 -0.20544267 -0.09912086 -0.116477825
0.1336941 -0.08406459 -0.16118099 -0.12065965 -0.053479426 0.07814261 -0.043521844 -0.15432376
-0.08239109 -0.04145677 -0.015149581 0.021150561 -0.11695549 0.0024129876 0.08830908 0.049677487
0.0075123133 -0.082720526 -0.0404931 0.105267495 0.041986268 -0.08728921 -0.1899657 -0.0021304756
-0.008728855 0.05274768 0.056613047 0.015196733 -0.13626844 0.031437483 0.06403568 0.104039095
-0.014084014 -0.14670016 0.076511286 0.051285405 -0.047220144 -0.14975916 0.11271816 0.16188474
0.08762879 0.24043295 0.2842817 0.30503744 0.24445632 -0.090327516 -0.19410087 0.0030142637
-0.029311577 -0.22203213 -0.14092122 -0.15339296 -0.108601615 -0.35992363 -0.2926385 0.06986472
0.11623245 -0.12736052 0.0140629 0.08989068 0.070276 -0.051534273 -0.09149971 0.035154216
-0.11783184 0.047501788 -0.18417491 -0.18058607 0.018082945 -0.18259713 -0.03373528 -0.23579615
-0.24069118 -0.09253199 -0.12072472 0.10973262 -0.15677884 -0.27400243 0.035735235 0.13211824
0.059868015 -0.17871924 0.025016678 0.19375661 0.11638422 0.006549945 -0.105041884 0.12809739
0.066157684 0.041922793 -0.21287873 -0.057256855 0.09522173 0.05381797 0.085715786 -0.1575875
00000000: d724 c03d 940f 343e 7d8c 003d 0427 80bd
00000010: 2234 e2bd 974c 4d3d a592 2e3c 724e 4cbe
00000020: c1e3 0fbe 9f72 6d3c e786 01be e8f8 8fbe
00000030: 83a7 89be 2ae2 e8bd 6f81 bebc 7264 a63d
00000040: ca63 d9bd f462 3bbe f204 29be 638b b03d
00000050: 5efb cd3d 1cd4 393d 8f7b 7cbc e0b7 0bbe
00000060: cb8a b5bd 2290 253b 03e3 f83d ceb8 0d3e
00000070: 9fd7 c33d e152 593d 9199 933c 98ca 223c
00000080: c900 a6bd b7c2 23be 627d 14bd 8ed8 b7bd
00000090: 704a 51bd 51b3 1fbe 8a63 bf3d dadc d13c
000000a0: a5d4 173e f224 1b3d 287f 22be 1903 28bc
000000b0: 1201 91bd a17a 2d3e 7bf1 773c 4149 dcbd
000000c0: 75c2 a8bd b450 bbbd ddd9 c73e 8084 563e
000000d0: 9eb6 963e a0b6 f73d 4ecf 22bc 447e 463e
000000e0: fad4 d43d 8948 61be 594d e9be a1d7 11be
000000f0: efb7 83be 8ea9 02bf a4c4 a2be a36a 7c3e
00000100: 80cb 8b3e 11db 97be 5429 d1be 2306 df3d
00000110: 1efa 533e b100 e33d eb97 0ebe 5e28 cebe
00000120: 5e8d 79be 761d dfbd 20e3 9ebd 98e9 363e
00000130: d3cb f13c d875 86bd 2e0a 3bbe f0fb 9fbb
00000140: 8868 7ebd 816a b1be ac75 2ebe 36f6 943d
00000150: 7c01 693d 4d37 40be 5019 eabe 28ad 6c3b
00000160: 5944 943d 5059 923d 2098 4cbc c153 85be
00000170: 2f77 65be f8c2 06be e58c 5ebd 43ac 313e
00000180: fb2e 75bb e4d2 f2bd 8a47 14be 3d7a 463b
00000190: 8e88 b7bd c98f 81be 1d18 5abe f8f0 87bd
000001a0: 3f58 263e 43e4 23bc f770 44bc 795a e2bc
000001b0: f4f1 0f3e 61d7 7fbc 32a1 723d 0f92 23be
000001c0: ef58 1dbf 6a49 b3be 1c7b f1bc 2890 7b3d
000001d0: 71e5 023e cbcd 7c3e 543b b63e 859f 7f3e
000001e0: ad07 b5bd 04a6 6cbd 7f8b 9a3d e192 983e
000001f0: ab9a 323e 4e4d 6cbe 7480 163d b192 10be
00000200: b92b 26be a6b2 a13b 6944 3bbe 0b1d 31be
00000210: ed5f 80bd 65d9 8d3e cf06 773e 491d 813d
00000220: c94c 42be ae1b 913c 76b9 a03d 1f1c 523d
00000230: ca49 db3d f953 853d 690a 7fbd 312b 43be
00000240: af3d 903c fc60 0e3e 25de 0c3e fca2 6e3e
00000250: 7ea1 543d ab7d 5e3e 52a0 473d 42ea d83d
00000260: 8377 8bbd bab5 c6ba 32dc d0bb 95fa 313e
00000270: 4ed0 19bd 905f 52be e1ff cabd ed8b eebd
00000280: 1be7 083e 0e2a acbd a10c 25be 681c f7bd
00000290: 3e0d 5bbd 3c09 a03d f643 32bd 0c07 1ebe
000002a0: a9bc a8bd 93ce 29bd f335 78bc f143 ad3c
000002b0: 5c86 efbd 3723 1e3b 64db b43d 9f7a 4b3d
000002c0: da29 f63b 6169 a9bd 18dc 25bd 7c96 d73d
000002d0: cbf9 2b3d afc4 b2bd 5e86 42be 739f 0bbb
000002e0: 7903 0fbc f40d 583d 15e3 673d b8fb 783c
000002f0: f489 0bbe 97c4 003d 2325 833d 7312 d53d
00000300: a3c0 66bc 9138 16be f3b1 9c3d a510 523d
00000310: e969 41bd 775a 19be c7d8 e63d 1dc5 253e
00000320: b976 b33d 0e34 763e 5f8d 913e de2d 9c3e
00000330: c252 7a3e a2fd b8bd 61c2 46be f48a 453b
00000340: d51e f0bc 645c 63be a74d 10be 0b13 1dbe
00000350: 866a debd e947 b8be b7d4 95be 3c15 8f3d
00000360: 470b ee3d cc6a 02be 1468 663c 9b18 b83d
00000370: ddec 8f3d 9a15 53bd 3364 bbbd defd 0f3d
00000380: d251 f1bd 3c91 423d 5998 3cbe 8eeb 38be
00000390: af22 943c befa 3abe 012e 0abd 8c74 71be
000003a0: c077 76be 6981 bdbd 863e f7bd 7fbb e03d
000003b0: a28a 20be 0c4a 8cbe 1c5f 123d 014a 073e
000003c0: 2a38 753d 2d02 37be c7ef cc3c 2268 463e
000003d0: da5a ee3d eca0 d63b 3320 d7bd f62b 033e
000003e0: ae7d 873d 3cb7 2b3d e2fc 59be 2a86 6abd
000003f0: 9c03 c33d 3b70 5c3d c28b af3d 9e5e 21be

conv_layer2.0.bias f4 [16]
0.062344644 0.0009790211 0.045535013 -0.045238122 -0.1307538 -0.023845373 -0.028863318 -0.0563004
-0.030431248 -0.07881303 0.0514871 -0.067404054 0.07409719 0.06125163 0.12759246 -0.0646218
00000000: 195d 7f3d 7f52 803a ec82 3a3d 9c4b 39bd
00000010: 53e4 05be 5f57 c3bc c472 ecbc 409b 66bd
00000020: f44a f9bc ba68 a1bd 23e4 523d 230b 8abd
00000030: 44c0 973d fde2 7a3d 99a7 023e 6f58 84bd

C5_layer.0.weight f4 [120, 400]
-0.062197 -0.0013687452 0.0777277 0.21555091 0.049064383 -0.18394777 -0.22449507 0.13427466
-0.033481143 -0.26401195 -0.07986207 -0.12693815 -0.043281052 -0.025024608 -0.06361736 -0.038318027
-0.041986044 0.17689776 -0.015143369 -0.055808652 -0.052491177 -0.06875154 -0.022960113 0.30377603
0.11514929 0.03905117 0.055045493 -0.06607996 -0.046666667 -0.26903728 0.106434636 0.11959415
-0.01009945 -0.056033332 0.0475135 0.0021353858 -0.22306818 0.1024186 0.31280643 0.15268542
-0.041771412 0.08005844 0.00478194 -0.054653816 0.106610514 0.057122767 0.06006797 -0.0038892338
0.11781459 -0.054959044 0.122205414 -0.0031549819 0.063165575 0.022293273 0.008607642 0.034309678
0.022318717 0.18028839 0.13016407 0.16380681 0.003270499 -0.0876928 -0.02369778 -0.09078582
-0.053147558 -0.025969485 0.036395047 -0.16304736 -0.18953432 -0.17815956 -0.08091958 0.011200997
-0.010025016 -0.21939571 -0.20959197 0.036878966 0.03870627 0.06939849 0.073187225 0.088894196
-0.00737721 -0.055225328 -0.060562447 -0.00025153987 -0.07685271 -0.08557772 -0.12558663 -0.18191727
-0.05717486 -0.13496299 -0.13163729 -0.015866702 -0.10842505 -0.07918132 -0.056805283 0.10043483
-0.020866944 -0.09663806 -0.1114776 -0.061094068 0.029124158 -0.07905446 0.018378565 0.12236784
0.2288658 -0.023476778 -0.024581699 0.08642477 0.040835377 0.19265983 -0.03675083 -0.062882856
-0.036624532 -0.08136811 0.011978323 0.06077694 -0.06754609 -0.047606673 -0.15247327 -0.06877976
-0.046570327 -0.11749598 -0.053268168 -0.13765466 -0.037208837 -0.00875417 0.04841522 -0.08773864
-0.089606695 -0.06467953 0.007555873 0.045865912 -0.16678488 -0.05888255 -0.07673153 0.050770998
0.028056076 -0.036082253 0.07491419 0.22403803 -0.009328312 -0.11676974 -0.027900372 -0.01731044
0.1437383 -0.07715666 -0.049293086 0.03904622 -0.05894799 -0.08019222 -0.1021479 -0.115596265
0.0028238434 -0.15292427 -0.044803035 0.066993415 0.0958967 -0.1434253 -0.005034693 -0.033614464
0.05659107 0.018757936 0.008165 0.0067926 0.090261705 0.043806244 -0.05960622 0.011095301
0.094173186 0.10754383 -0.090693265 0.019343289 0.02354537 -0.043667283 -0.03699994 0.051995914
0.07583622 0.031167874 0.055907387 0.019958831 -0.03043416 0.08607841 0.048272256 0.0057339068
0.07562741 0.07296343 -0.018793164 -0.08216785 -0.18284078 -0.10769507 0.048140593 -0.10833514
-0.10335196 -0.08925353 0.0053975624 0.060765818 0.0044013527 0.079246365 -0.060913395 0.095025904
0.07428617 0.060984306 0.022230582 0.11871245 0.085422054 0.0419926 0.046158463 0.033492796
0.051419284 0.16451459 -0.016334476 -0.1373654 -0.16549723 -0.13009423 0.023330027 -0.08117368
0.04530483 0.020229554 -0.06158187 -0.14937665 0.04975699 0.028345183 -0.07400056 -0.13000128
-0.18697637 -0.049890116 -0.029906228 0.0103845 -0.0780419 0.10772022 0.037791576 -0.093415014
-0.038892906 -0.116630904 -0.08328776 0.06016131 -0.10643175 -0.051049557 0.0639014 0.062462624
-0.028444417 0.06089869 0.05300421 0.06722495 0.00013353198 -0.04854824 -0.078760795 -0.11847124
-0.15020256 -0.028121252 -0.11434848 -0.11849635 0.036281206 0.11155312 0.10227456 -0.039600763
00000000: 48c2 7ebd 7867 b3ba b32f 9f3d 61b9 5c3e
00000010: bcf7 483d ce5c 3cbe 09e2 65be 4c7f 093e
00000020: 8623 09bd 932c 87be ba8e a3bd 13fc 01be
00000030: 7947 31bd 6800 cdbc d249 82bd 5df3 1cbd
00000040: 8ff9 2bbd b024 353e e51b 78bc 9d97 64bd
00000050: fd00 57bd 9bcd 8cbd d916 bcbc 8888 9b3e
00000060: 64d3 eb3d 1ff4 1f3d 6277 613d ee54 87bd
00000070: 8c25 3fbd 41bf 89be 67fa d93d c7ed f43d
00000080: 2a78 25bc 3583 65bd 849d 423d d4f1 0b3b
00000090: fc6b 64be d8c0 d13d 2a28 a03e 9159 1c3e
000000a0: 8018 2bbd aef5 a33d d2b1 9c3b aedc 5fbd
000000b0: 9d56 da3d 90f9 693d d509 763d 84e2 7ebb
000000c0: c748 f13d bc1c 61bd d546 fa3d d0c3 4ebb
000000d0: f45c 813d 62a0 b63c 1107 0d3c 4e88 0c3d
000000e0: bed5 b63c 859d 383e bb49 053e f9bc 273e
000000f0: de55 563b 4898 b3bd d921 c2bc eaed b9bd
00000100: 41b1 59bd f5bd d4bc f912 153d e3f5 26be
00000110: 4915 42be 766f 36be 2ab9 a5bd 6384 373c
00000120: f73f 24bc 45a9 60be 479f 56be 660e 173d
00000130: 778a 1e3d cc20 8e3d 2fe3 953d 290e b63d
00000140: 86bc f1bb f433 62bd 5410 78bd 1ce1 83b9
00000150: f464 9dbd 5f43 afbd c899 00be 8548 3abe
00000160: 3030 6abd bd33 0abe edcb 06be e3fa 81bc
00000170: f40d debd d129 a2bd a8ac 68bd c7b0 cd3d
00000180: 27f1 aabc 2dea c5bd 5e4e e4bd c63d 7abd
00000190: c995 ee3c 4ee7 a1bd a58e 963c fd9b fa3d
000001a0: cc5b 6a3e 5f52 c0bc 8f5f c9bc 78ff b03d
000001b0: ff42 273d 9e48 453e 0a88 16bd bac8 80bd
000001c0: 9b03 16bd 53a4 a6bd ba40 443c 3ef1 783d
000001d0: 9b55 8abd 37ff 42bd f421 1cbe 67dc 8cbd
000001e0: 87c0 3ebd bba1 f0bd b92f 5abd 58f5 0cbe
000001f0: 4b68 18bd a66d 0fbc 0a4f 463d 51b0 b3bd
00000200: b783 b7bd b476 84bd 4297 f73b e5dd 3b3d
00000210: a8c9 2abe d42e 71bd 6c25 9dbd 40f5 4f3d
00000220: dbd5 e53c fcca 13bd 9c6c 993d 3a6a 653e
00000230: c7d5 18bc f924 efbd 528f e4bc a0ce 8dbc
00000240: 2230 133e 5004 9ebd 8ce7 49bd eeee 1f3d
00000250: 7373 71bd d23b a4bd eb32 d1bd bcbd ecbd
00000260: 3b10 393b 2e98 1cbe 6383 37bd d833 893d
00000270: 7d65 c43d 15de 12be 11fa a4bb 52af 09bd
00000280: 0acc 673d 3eaa 993c 7ec6 053c 7594 de3b
00000290: 21db b83d 2d6e 333d a725 74bd 11c9 353c
000002a0: dfdd c03d f13f dc3d 64bd b9bd d175 9e3c
000002b0: 38e2 c03c 77dc 32bd 408d 17bd abf9 543d
000002c0: 0550 9b3d c553 ff3c 25ff 643d b480 a33c
000002d0: 0f51 f9bc e149 b03d 21b9 453d 7fe3 bb3b
000002e0: 8be2 9a3d da6d 953d 1ff4 99bc 9e47 a8bd
000002f0: 9d3a 3bbe 3c8f dcbd 122f 453d d0de ddbd
00000300: 31aa d3bd 8eca b6bd 09de b03b 94e5 783d
00000310: 3939 903b eb4b a23d 5380 79bd f19c c23d
00000320: 5923 983d aeca 793d e91c b63c 831f f33d
00000330: c2f1 ae3d 6f00 2c3d a810 3d3d be2f 093d
00000340: 079d 523d 8376 283e e1cf 85bc 84a9 0cbe
00000350: 1b78 29be 6c37 05be 9d1e bf3c 633e a6bd
00000360: 8f91 393d 73b8 a53c 453d 7cbd 31f6 18be
00000370: fccd 4b3d 2834 e83c 9b8d 97bd 0e1f 05be
00000380: bc76 3fbe 9459 4cbd e8fd f4bc c023 2a3c
00000390: 6fd4 9fbd 6b9c dc3d 57cb 1a3d 5f50 bfbd
000003a0: 2b4e 1fbd 2fdc eebd c692 aabd b56b 763d
000003b0: e4f8 d9bd 5719 51bd bdde 823d cfd8 7f3d
000003c0: 4404 e9bc e870 793d f11a 593d 3cad 893d
000003d0: b804 0c39 85da 46bd 574d a1bd 0da1 f2bd
000003e0: b3ce 19be 8a5e e6bc 892f eabd 37ae f2bd
000003f0: 9a9b 143d f675 e43d 5375 d13d 6934 22bd

C5_layer.0.bias f4 [120]
0.01797277 0.05455871 -0.019662905 0.057076864 0.0037492868 -0.027298907 0.030919379 0.017556908
0.0010248838 -0.0015976485 -0.045506164 -0.03493794 0.0064955074 -0.04620397 0.04183554 -0.019059282
0.051165078 -0.07523517 -0.043636743 0.045167796 0.018430568 -0.0017232827 -0.018405788 0.028224219
-0.05367045 -0.042791087 0.02154487 -0.0148951495 -0.056021918 0.040525604 0.016971989 -0.069684446
-0.017126646 -0.019006252 0.034370143 -0.028643562 0.019588372 0.028174425 0.011139877 0.07001058
0.013070688 0.078656174 0.060402643 -0.03905318 0.02760939 -0.041939836 -0.015185823 0.030845702
0.003904118 -0.019878672 0.072045386 -0.027282652 0.028604385 -0.04220519 0.015747793 0.019580211
0.11594082 -0.036607876 0.09117931 -0.04504021 -0.043644078 0.099406995 -0.0042205607 -0.03510884
-0.046230167 0.056761272 -0.033212017 0.02275722 0.050109923 -0.032017365 0.036604613 0.017137222
0.07104493 0.07787198 -0.020121213 -0.048379432 -0.04789099 -0.059087213 0.06118598 0.080670156
0.046645723 -0.055234842 0.016971119 0.0012566668 0.04970952 0.024481872 0.010350268 0.05383087
0.0020332844 0.009696636 -0.01623536 -0.045338072 0.06708009 0.00844019 -0.015271733 -0.037176467
-0.050797157 -0.07908512 0.007454208 0.0016123751 0.021129789 0.12344425 0.03426837 0.037661225
0.097138144 0.022895142 0.046246763 -0.064830095 -0.033223722 0.013609868 -0.040681317 0.009010044
0.03605045 -0.0418433 -0.06067703 0.09724725 -0.036016073 -0.043676045 -0.0033141007 -0.03943417
00000000: a13b 933c f478 5f3d 1a14 a1bc 6ec9 693d
00000010: 98b6 753b f5a1 dfbc a34a fd3c 81d3 8f3c
00000020: 6555 863a 3068 d1ba ac64 3abd 161b 0fbd
00000030: 44d8 d43b 6040 3dbd be5b 2b3d 3622 9cbc
00000040: 7992 513d e614 9abd 71bc 32bd de01 393d
00000050: b4fb 963c c6df e1ba bcc7 96bc 7a36 e73c
00000060: 8cd5 5bbd b545 2fbd de7e b03c c90a 74bc
00000070: 3d77 65bd 2dfe 253d d708 8b3c b8b6 8ebd
00000080: 2e4d 8cbc 00b3 9bbc b5c7 0c3d e7a5 eabc
00000090: cb77 a03c 0dce e63c 0884 363c b561 8f3d
000000a0: 7026 563c 7d16 a13d c368 773d 3af6 1fbd
000000b0: 162d e23c 1bc9 2bbd f5cd 78bc 20b0 fc3c
000000c0: 3bdc 7f3b 99d8 a2bc 888c 933d de7f dfbc
000000d0: be53 ea3c 59df 2cbd 8401 813c ae66 a03c
000000e0: 6172 ed3d 24f2 15bd 38bc ba3d 157c 38bd
000000f0: 22c4 32bd e595 cb3d a14c 8abb 49ce 0fbd
00000100: d85b 3dbd 827e 683d 5309 08bd 596d ba3c
00000110: 1040 4d3d a424 03bd b8ee 153d 5c63 8c3c
00000120: 0180 913d 587b 9f3d 3ed5 a4bc 8329 46bd
00000130: 5829 44bd 6f05 72bd 269e 7a3d 6536 a53d
00000140: 960f 3f3d ee3d 62bd 0407 8b3c beb6 a43a
00000150: 369c 4b3d 358e c83c 2c94 293c c27d 5c3d
00000160: da40 053b a4de 1e3c 0500 85bc 6ab4 39bd
00000170: 4961 893d b948 0a3c 4a36 7abc 5a46 18bd
00000180: ae10 50bd 61f7 a1bd 6e42 f43b 5556 d33a
00000190: 6118 ad3c 57d0 fc3d fe5c 0c3d a842 1a3d
000001a0: 5df0 c63d 988e bb3c 3f6d 3d3d a4c5 84bd
000001b0: 9915 08bd ecfb 5e3c 74a1 26bd dd9e 133c
000001c0: a3a9 133d e163 2bbd 7a88 78bd 9129 c73d
000001d0: 9785 13bd a7e5 32bd 6231 59bb b985 21bd

fc_layer1.0.weight f4 [84, 120]
0.15216537 -0.13574067 -0.06697656 0.045945458 -0.10823953 0.056278534 0.042064235 0.15832792
-0.0725411 -0.06760824 -0.036452167 -0.015754439 0.10538093 0.023416247 0.026896 0.1118508
0.10498237 -0.056679297 -0.056619834 -0.14530122 -0.050161883 0.124786906 0.019935185 -0.031581424
-0.11983659 0.018237215 -0.007982835 -0.2080803 0.07961196 0.090860575 -0.100028135 0.049582757
-0.0455989 -0.0851534 -0.25585997 0.040828668 -0.05383063 -0.03323424 0.025010439 -0.160509
0.09807434 -0.011950305 0.044718795 -0.007582527 -0.11695953 0.04358749 0.21347407 -0.054817885
-0.09352843 0.055519037 0.019211547 0.044731002 -0.03254842 -0.0053950264 0.07790705 -0.09560101
0.098827064 -0.005680868 -0.04837167 0.057493187 0.036952272 -0.1123229 -0.060524695 -0.056668084
0.0029076864 0.18741213 0.002351765 0.092423975 0.19672635 0.1932939 0.033036213 -0.018338505
-0.04331728 -0.03103175 0.067797415 0.047952928 0.03504424 0.047778316 0.15862857 0.13110802
0.013466211 0.08692299 -0.12839256 -0.028841736 0.0043079597 0.037130438 -0.17972896 0.1772837
-0.022941481 0.014753498 0.095101565 0.05220135 -0.09078326 0.18228926 -0.08755871 0.047262643
0.017512076 -0.012227174 -0.013011847 -0.10086567 0.041713636 -0.019428538 -0.0397304 0.1399874
-0.015158272 -0.0033624351 -9.469235e-06 -0.018459165 0.017806446 0.12221541 3.574355e-05 -0.13873994
-0.05525221 -0.07686912 0.038722675 -0.055520974 0.07643767 0.12684026 0.101531506 0.025705084
-0.038175985 -0.066126086 0.054311164 -0.0063009704 -0.04899942 -0.07394293 -0.0399648 -0.07896112
-0.028951196 0.02080672 0.0225166 -0.08991186 -0.018271063 0.015329853 -0.09330853 -0.0066552777
-0.0862802 -0.0018760053 -0.10127869 -0.10494328 0.034710802 -0.034189276 0.053287175 -0.041169073
0.06603905 -0.03852903 -0.0455266 -0.07075469 -0.039986987 -0.002168083 -0.060965776 -0.08151718
-0.078020096 0.0649139 -0.011954745 0.0007176857 0.07147271 -0.016491916 0.0039797 0.05519438
0.06585997 -0.10705811 0.0621645 -0.027150478 0.0037178204 -0.081853956 -0.0009964401 0.058068812
-0.05951783 -0.013267828 -0.014063539 -0.03752793 -0.05396433 0.009141139 -0.086017005 0.07320062
-0.02150869 0.013558143 0.04269844 -0.09420067 0.068128265 0.014061877 -0.041241594 -0.07654882
0.05144485 0.019627279 0.054510254 0.05696692 -0.05164267 -0.10738725 0.030315299 -0.050807793
-0.011743572 -0.039896768 0.04655466 -0.0778455 0.026463056 -0.019316083 0.029440211 -0.030853355
-0.00042730005 0.005033735 0.021863688 -0.01585835 -0.08406055 -0.04712436 0.0023893781 0.025794726
-0.05383334 0.034500487 -0.010551927 -0.03811836 -0.03282618 -0.00111383 -0.061211362 0.028985564
0.0754423 0.07130783 -0.11261213 0.056742996 0.037784446 -0.046784945 0.021272823 -0.02664289
-0.02155421 0.06650978 -0.056575797 -0.07021257 -0.089485414 0.031741038 0.055691753 -0.08311192
-0.037552945 0.019044869 0.080760516 -0.038476747 0.046863645 0.05980478 -0.029550854 -0.06326122
-0.03787874 -0.07188677 -0.07796231 0.12607019 0.10393313 0.049595393 0.14631069 -0.010485557
-0.019778587 -0.059847567 0.054847486 0.034712747 -0.02686329 -0.02376947 0.12652726 -0.12332334
00000000: 3dd1 1b3e 9aff 0abe 022b 89bd 4e31 3c3d
00000010: b0ac ddbd 5284 663d 8c4b 2c3d b720 223e
00000020: 6e90 94bd 3076 8abd de4e 15bd 740f 81bc
00000030: f5d1 d73d 6ed3 bf3c 0055 dc3c 0812 e53d
00000040: ff00 d73d 8d28 68bd 33ea 67bd d8c9 14be
00000050: 8c76 4dbd 4790 ff3d 1d4f a33c 865b 01bd
00000060: e36c f5bd 3666 953c 70ca 02bc 0113 55be
00000070: 980b a33d 1c15 ba3d 8ddb ccbd 4a17 4b3d
00000080: eac5 3abd e864 aebd 1400 83be f63b 273d
00000090: 827d 5cbd a020 08bd b1e2 cc3c 795c 24be
000000a0: 33db c83d 36cb 43bc 0e2b 373d d976 f8bb
000000b0: 7a88 efbd cc88 323d f298 5a3e b888 60bd
000000c0: d58b bfbd ee67 633d 8961 9d3c db37 373d
000000d0: 7e51 05bd c3c8 b0bb bb8d 9f3d 76ca c3bd
000000e0: d865 ca3d 9326 babb 5f21 46bd fa7d 6b3d
000000f0: 445b 173d 8c09 e6bd bee8 77bd cb1c 68bd
00000100: e28e 3e3b f7e8 3f3e 1220 1a3b c848 bd3d
00000110: a272 493e d6ee 453e fb50 073d a23a 96bc
00000120: 766d 31bd 4c36 febc 5fd9 8a3d 4a6a 443d
00000130: 8d8a 0f3d 32b3 433d 876f 223e 2e41 063e
00000140: 62a1 5c3c ae04 b23d 5779 03be 8145 ecbc
00000150: c929 8d3b 1616 183d de0a 38be dc89 353e
00000160: c6ef bbbc a8b8 713c 9cc4 c23d 15d1 553d
00000170: 93ec b9bd 09aa 3a3e fb51 b3bd 7996 413d
00000180: 7c75 8f3c 7c54 48bc a42f 55bc a992 cebd
00000190: ebdb 2a3d 9928 9fbc 58bc 22bd db58 0f3e
000001a0: 675a 78bc 4d5c 5cbb 0ede 1eb7 ad37 97bc
000001b0: d3de 913c 134c fa3d 58eb 1538 d811 0ebe
000001c0: 2450 62bd 8f6d 9dbd ab9b 1e3d f669 63bd
000001d0: 5a8b 9c3d 6ae2 013e c0ef cf3d 7893 d23c
000001e0: 6c5e 1cbd 1d6d 87bd 6275 5e3d 5f78 cebb
000001f0: 9eb3 48bd 646f 97bd 21b2 23bd 5eb6 a1bd
00000200: 0f2b edbc db72 aa3c bc74 b83c b623 b8bd
00000210: 32ad 95bc 102a 7b3c 8b18 bfbd 8414 dabb
00000220: acb3 b0bd 4be4 f5ba 346b cfbd 81ec d6bd
00000230: ea2c 0e3d 0e0a 0cbd a743 5a3d e7a0 28bd
00000240: 7b3f 873d 9ed0 1dbd 1a7a 3abd d6e7 90bd
00000250: 65c9 23bd 6616 0ebb 40b7 79bd 7bf2 a6bd
00000260: 00c9 9fbd 94f1 843d d6dd 43bc 1223 3c3a
00000270: 4960 923d 0e1a 87bc 2568 823b 8113 623d
00000280: 98e1 863d 4841 dbbd 34a0 7e3d ae6a debc
00000290: ada6 733b 0ca3 a7bd fb9a 82ba 90d9 6d3d
000002a0: f8c8 73bd 4e61 59bc c26a 66bc e3b6 19bd
000002b0: b409 5dbd b7c4 153c af29 b0bd 35ea 953d
000002c0: fe32 b0bc f922 5e3c 8fe4 2e3d 48ec c0bd
000002d0: d586 8b3d c963 663c f2ec 28bd a1c5 9cbd
000002e0: d6b7 523d 63c9 a03c 2546 5f3d 2556 693d
000002f0: 4487 53bd d9ed dbbd ca57 f83c d51b 50bd
00000300: 1c68 40bc cb6a 23bd 19b0 3e3d 766d 9fbd
00000310: 0dc9 d83c c33c 9ebc 992c f13c 2dc0 fcbc
00000320: 3e07 e0b9 08f2 a43b 7a1b b33c 5fe9 81bc
00000330: f027 acbd 7905 41bd 1d97 1c3b 764f d33c
00000340: 5980 5cbd 6250 0d3d fde1 2cbc ff21 1cbd
00000350: bf74 06bd effd 91ba c4b8 7abd 2273 ed3c
00000360: 7e81 9a3d d709 923d 30a1 e6bd 586b 683d
00000370: ddc3 1a3d 92a1 3fbd 5844 ae3c 3142 dabc
00000380: 7492 b0bc 4836 883d 06bc 67bd 9ccb 8fbd
00000390: 2144 b7bd e402 023d 091d 643d 9536 aabd
000003a0: 1ed1 19bd fc03 9c3c c565 a53d cb99 1dbd
000003b0: 18f4 3f3d dbf5 743d a214 f2bc 198f 81bd
000003c0: bd26 1bbd 5f39 93bd b4aa 9fbd 8b18 013e
000003d0: e5da d43d 8a24 4b3d 78d2 153e 9dcb 2bbc
000003e0: b406 a2bc b922 75bd c2a7 603d f42e 0e3d
000003f0: 6710 dcbc 31b8 c2bc 5d90 013e f390 fcbd

fc_layer1.0.bias f4 [84]
0.08507355 -0.09863568 0.112216905 0.0746491 0.09543721 -0.077547625 0.07044951 0.06404642
-0.13656914 0.010710141 -0.026595104 -0.01648014 0.04898782 0.060605034 -0.009908742 0.15144227
0.0807375 0.09216938 0.026579104 0.14339663 -0.005931012 -0.01645654 0.0070786783 0.01864459
0.020163387 0.11967097 -0.042813968 0.04890052 -0.03686021 -0.010378087 0.043503396 0.0370786
-0.021477735 -0.04172016 -0.02800431 -0.087921 0.11354892 0.003657624 0.077073984 0.08693864
-0.048800074 -0.09638018 0.12297596 0.07532979 0.14173289 0.13351032 -0.031288598 -0.047888115
0.13108432 -0.028347114 0.07675752 -0.019966006 0.09533107 -0.10705386 0.09609573 0.0256129
-0.025279563 -0.036551416 0.13668962 -0.030594124 0.101205125 0.0847954 -0.13502488 -0.03475447
0.045376197 0.061429016 -0.12475894 0.08195742 0.044772167 0.09966005 0.08170604 -0.09540537
0.074515015 -0.03220339 0.087480545 0.035704255 0.11725597 -0.109260246 0.0010570749 0.11361453
-0.06789433 -0.05810118 0.0010980358 0.07396755
00000000: 0b3b ae3d 8101 cabd fad1 e53d a1e1 983d
00000010: 9574 c33d 4ad1 9ebd d547 903d c52a 833d
00000020: c8d8 0bbe 9679 2f3c fadd d9bc 5c01 87bc
00000030: 74a7 483d fc3c 783d 4758 22bc af13 1b3e
00000040: b459 a53d 4dc3 bc3d 6cbc d93c 91d6 123e
00000050: ef58 c2bb decf 86bc 42f4 e73b 8abc 983c
00000060: b02d a53c 0e16 f53d b35d 2fbd e94b 483d
00000070: bbfa 16bd da08 2abc 9e30 323d bbdf 173d
00000080: 13f2 afbc c2e2 2abd 4b69 e5bc ed0f b4bd
00000090: 568c e83d bfb4 6f3b f7d8 9d3d e30c b23d
000000a0: 96e2 47bd f962 c5bd d2da fb3d 8146 9a3d
000000b0: 6d22 113e eeb6 083e 7928 00bd 5426 44bd
000000c0: f83a 063e 3538 e8bc 0c33 9d3d c08f a3bc
000000d0: f03c c33d 0e3f dbbd d7cd c43d 25d2 d13c
000000e0: 1617 cfbc f0b6 15bd 5df8 0b3e 87a0 fabc
000000f0: a244 cf3d 36a9 ad3d f643 0abe b45a 0ebd
00000100: 64dc 393d fe9c 7b3d 9d81 ffbd 4bd9 a73d
00000110: 0563 373d 911a cc3d 7f55 a73d e463 c3bd
00000120: 549b 983d b4e7 03bd 0029 b33d a03e 123d
00000130: e623 f03d d6c3 dfbd 8c8d 8a3a bcae e83d
00000140: 2f0c 8bbd 81fb 6dbd f8eb 8f3a 4d7c 973d

fc_layer2.weight f4 [10, 84]
0.17592199 -0.045576286 -0.22543392 0.2030014 0.14108968 -0.079644136 0.16664892 -0.07788618
-0.07617675 0.15299241 -0.08510796 -0.09201077 -0.06981572 -0.5155047 -0.0120366365 -0.19218394
-0.19032928 -0.07930056 -0.1596159 -0.02406647 0.25287426 0.0026590342 -0.12984045 0.090109386
0.048953585 -0.048760157 -0.06729516 -0.04240007 -0.2888128 -0.1162276 -0.09645138 0.16888745
-0.053178005 -0.07269681 -0.1753431 0.06758669 0.00469578 0.092439294 -0.19474688 0.1481836
-0.08712351 0.02136401 -0.117359936 -0.27974525 0.13918835 0.15945686 -0.15362883 -0.07503101
-0.12047938 -0.044625938 0.07557283 -0.19926423 -0.18916474 -0.08884999 0.12417629 0.19705357
-0.2231432 -0.016417554 0.11466392 -0.12609603 -0.004248104 -0.2561653 -0.1456423 -0.057570603
-0.12798753 -0.18458593 -0.05490311 -0.012761821 -0.1799251 0.024959851 0.16270767 -0.03406182
0.027941365 -0.04584373 -0.17341557 0.17278923 0.14571385 -0.11156733 -0.22633664 -0.17121287
0.07186716 -0.31153822 0.06354528 0.1338388 0.025418147 0.08566664 0.09535151 0.03841729
-0.052886765 0.07557146 0.3194221 0.04966029 -0.19256802 0.027053973 0.2304586 0.035189163
0.06985721 -0.30999634 -0.09607371 0.03492867 0.064660326 -0.16403736 0.078075126 0.18694389
0.16413546 -0.17185676 -0.058142703 0.060099714 0.03000944 -0.09514433 -0.010519277 0.04845329
-0.08168669 -0.2168192 -0.038603894 -0.21160683 0.08193698 -0.059744712 0.15541641 -0.15020345
-0.16181405 -0.15266347 0.045722414 0.19978167 0.09947825 0.054647572 0.0624764 0.08223344
0.15258986 -0.12835255 -0.10554973 -0.03478217 0.019947972 -0.10870565 -0.16744961 0.1874588
0.104757816 -0.10796758 -0.22667018 -0.012529535 -0.164905 -0.18682659 -0.08361261 0.040379886
-0.2175584 0.03036916 -0.08889213 0.09205458 -0.16408856 0.15676802 -0.043954853 0.10047828
0.1257813 -0.03789691 -0.16584508 0.07560037 0.14946504 -0.16005462 0.12354436 -0.048764914
0.06643443 0.036825124 -0.44102287 -0.008091955 0.066555746 0.13406481 0.006474243 -0.07510075
0.00900836 0.05835202 -0.20498016 -0.15568732 0.005636224 -0.042539883 -0.107487336 -0.17391121
-0.037363116 -0.20352423 0.15847646 0.07986752 -0.078605786 0.15490866 -0.088522956 -0.199007
-0.015358697 -0.22886688 -0.375164 -0.39809352 -0.039357733 0.09213761 -0.21315765 -0.2046193
0.07425674 0.18290174 -0.044436853 -0.0013414839 0.05917102 0.1457136 0.053374242 -0.054452367
0.19701925 -0.07551722 0.17225736 0.08299254 -0.06930066 0.008487383 0.0065444456 0.07078232
0.06357721 0.080453254 0.018533422 -0.030392267 0.07752679 -0.028844563 0.0870609 -0.083597474
-0.17625754 -0.07787994 0.097459264 -0.28657967 -0.0594248 0.011731182 -0.06316764 0.09445362
0.108615324 0.0043790825 -0.07308773 -0.14898734 -0.120873526 -0.21626687 0.010351959 0.17455988
0.1196418 -0.19195779 -0.074733704 0.06068458 0.09249535 0.11174598 0.051837053 -0.05609036
0.1726842 -0.19254625 -0.14994504 0.09321467 0.12416824 0.009267299 0.012889609 -0.1256009
-0.1341512 0.1477664 0.14913931 0.026320115 0.07063959 0.03545995 -0.23264332 0.15802096
00000000: e524 343e 33ae 3abd 26d8 66be 99df 4f3e
00000010: d079 103e 771c a3bd 04a6 2a3e ca82 9fbd
00000020: 8e02 9cbd 0baa 1c3e 154d aebd 2570 bcbd
00000030: 8bfb 8ebd 1ef8 03bf 5035 45bc decb 44be
00000040: aee5 42be 5568 a2bd 5a72 23be 0c27 c5bc
00000050: bc78 813e 3143 2e3b e5f4 04be 458b b83d
00000060: 8e83 483d bbb8 47bd 0bd2 89bd b2ab 2dbd
00000070: 45df 93be bc08 eebd 4d88 c5bd d5f0 2c3e
00000080: 2ed1 59bd 11e2 94bd 248d 33be e46a 8a3d
00000090: 0fdf 993b d050 bd3d ba6b 47be 71bd 173e
000000a0: d06d b2bd 9403 af3c 685a f0bd c53a 8fbe
000000b0: 6487 0e3e a948 233e e050 1dbe dca9 99bd
000000c0: e5bd f6bd b0c9 36bd eec5 9a3d ec0b 4cbe
000000d0: 67b4 41be fcf6 b5bd 2450 fe3d 69c8 493e
000000e0: a77f 64be 1b7e 86bc ebd4 ea3d 511f 01be
000000f0: ae33 8bbb 1928 83be 4123 15be 27cf 6bbd
00000100: 2a0f 03be 1804 3dbe 15e2 60bd f516 51bc
00000110: 493e 38be 9a78 cc3c d79c 263e 6884 0bbd
00000120: 4ae5 e43c a3c6 3bbd da93 31be a9ef 303e
00000130: 0336 153e 6a7d e4bd cbc4 67be 6d52 2fbe
00000140: 172f 933d f081 9fbe 0724 823d 0a0d 093e
00000150: b839 d03c fe71 af3d a747 c33d 735b 1d3d
00000160: cb9f 58bd 36c5 9a3d 4b8b a33e 9768 4b3d
00000170: 8d30 45be 4ba0 dd3c 57fd 6b3e 8322 103d
00000180: 4c11 8f3d d7b7 9ebe 4bc2 c4bd 5d11 0f3d
00000190: a26c 843d 69f9 27be dae5 9f3d 386e 3f3e
000001a0: 2013 283e 38fb 2fbe 0b27 6ebd 1e2b 763d
000001b0: 5bd6 f53c 08db c2bd 0c59 2cbc f576 463d
000001c0: 5a4b a7bd da05 5ebe 1e1f 1ebd 76af 58be
000001d0: 93ce a73d dfb6 74bd 7b25 1f3e efce 19be
000001e0: 95b2 25be d053 1cbe 6d47 3b3d 9193 4c3e
000001f0: 41bb cb3d 22d6 5f3d 41e7 7f3d 016a a83d
00000200: 8440 1c3e da6e 03be 752a d8bd c077 0ebd
00000210: ee69 a33c 11a1 debd e977 2bbe 33f5 3f3e
00000220: 448b d63d 1b1e ddbd 3a1c 68be ae48 4dbc
00000230: dbdc 28be 784f 3fbe 173d abbd 6165 253d
00000240: a1c7 5ebe bfc8 f83c 140d b6bd 1d87 bc3d
00000250: d506 28be cc87 203e 010a 34bd 8ec7 cd3d
00000260: d0cc 003e ca39 1bbd 4bd3 29be 5ed4 9a3d
00000270: 5d0d 193e 5ce5 23be d304 fd3d b8bd 47bd
00000280: c60e 883d f1d5 163d c0cd e1be 1f94 04bc
00000290: 614e 883d 4948 093e e325 d43b 6cce 99bd
000002a0: cd97 133c 8702 6f3d 52e6 51be 7f6c 1fbe
000002b0: 13b0 b83b 4d3e 2ebd 5222 dcbd c815 32be
000002c0: 110a 19bd a868 50be a747 223e 9591 a33d
000002d0: 12fc a0bd 60a0 1e3e 864b b5bd 7ec8 4bbe
000002e0: 0ba3 7bbc 145c 6abe 7f15 c0be ead2 cbbe
000002f0: 9335 21bd a5b2 bc3d 0046 5abe b987 51be
00000300: eb13 983d 984a 3b3e 6b03 36bd bbd4 afba
00000310: 505d 723d f235 153e f39e 5a3d 7209 5fbd
00000320: 6abf 493e c6a8 9abd 3c64 303e fef7 a93d
00000330: 81ed 8dbd aa0e 0b3c ca72 d63b 52f6 903d
00000340: c534 823d adc4 a43d 67d3 973c 34f9 f8bc
00000350: 5ec6 9e3d 6f4b ecbc fc4c b23d 2735 abbd
00000360: db7c 34be 857f 9fbd b998 c73d 92ba 92be
00000370: 6b67 73bd 2534 403c 095e 81bd e670 c13d
00000380: b671 de3d 687e 8f3b 05af 95bd 2390 18be
00000390: 8a8c f7bd 1075 5dbe 439b 293c d3bf 323e
000003a0: c306 f53d 9590 44be fc0d 99bd 6590 783d
000003b0: 346e bd3d 14db e43d 1753 543d 01bf 65bd
000003c0: 20d4 303e d82a 45be 318b 19be 55e7 be3d
000003d0: eb4b fe3d dfd5 173c f02e 533c 869d 00be
000003e0: ef5e 09be 1350 173e fab7 183e 489d d73c
000003f0: 7dab 903d 743e 113d 0d3a 6ebe 3fd0 213e

fc_layer2.bias f4 [10]
0.089305125 0.083671965 -0.028999005 -0.084324926 0.095513776 -0.06264988 0.049186714 -0.15821823
0.028406743 -0.011223166
00000000: 9be5 b63d 355c ab3d 528f edbc 8cb2 acbd
00000010: ba9c c33d 954e 80bd 0278 493d f603 22be
00000020: 42b5 e83c 5fe1 37bc
