ML2_Project_Team6/data_aug/mnist_weights_RandomAffine.pth (torch, 250119 bytes, 10 tensors)

conv_layer1.0.weight f4 [6, 1, 5, 5]
00000000: 7fa6 843c 2d96 783d db7c 693e daab a53e
00000010: a74f 993e 9db5 583d b855 223e 1d94 963e
00000020: 186e 0ebd a988 c0bb 461d c63b 3300 52be
00000030: 8972 90be 279a fbbe 9748 a4be 3677 893d
00000040: 642a 81be ff57 f5be 8ed4 04be 5cc1 9bbd
00000050: edaf 07be 5cd9 953e 63ff 923e 49d6 a13e
00000060: 1777 003e b1cd 8b3e c552 b23e 5e86 a33e
00000070: 31b8 a73e 15c7 be3d 9be7 1b3e e037 5d3e
00000080: 33a9 f03d 06b4 373e 7fdc 453e 9683 16bd
00000090: 8bdf 3dbe d72c 933d ccb4 0c3e acb5 fc3d
000000a0: 07b2 67be 4f3b a3be 3798 dfbe ccdb 75be
000000b0: 02d5 913d c0cb a0be 4768 bebe 1935 7ebe
000000c0: efbf 34be 8807 c9bc 9613 18bd da5f 183e
000000d0: 779c 38bc 94cf 4c3e 5827 72bc c20b 5fbe
000000e0: 5dd0 ae3d f452 6e3e 74d6 cd3d 7387 9bbd
000000f0: 54a1 b2be 19e6 30be cf04 2f3e f06f 913e
00000100: ca7c d3bd 8df8 35be c1e5 cf3d fe35 b73e
00000110: aebd 903e 359e 473e a2c4 17bd bad0 e63d
00000120: 6b0f 47bd a853 293e 72a3 59bb 0155 483e
00000130: 10be 603e f32c 1bbe 251e 78be d029 90be
00000140: eb12 553e 89ec b73d dac6 ecbe e381 23bf
00000150: 9a85 a9bd 96f4 343e 5859 4abe d91d 8fbf
00000160: d6d3 6abe fb83 143e bc2e d63d 37e3 34bf
00000170: 6b5f 0cbf f1d1 bb3d 8903 a63e f525 a2bc
00000180: f7d9 0fbf 8981 c1bd 4c9d 403e f506 c53e
00000190: bcd4 d2bd 97c4 f3ba 2b73 363e b02a e43d
000001a0: 204f 763e c36f 2fbc 02bf 413e 7ad3 563e
000001b0: 7831 763e 70ca 1dbe e608 1a3e 69b0 b13e
000001c0: 5818 943e 5d54 a33c 5e8a d5be 57a6 b33d
000001d0: 281d d73e fc41 fbbb 43fe a8bd 82e9 dfbe
000001e0: 0eac e73d ff76 8d3e 2a4c 2d3e 7f41 91bd
000001f0: 3f83 75be 8fa5 923d 7897 86be 6440 a8be
00000200: 272d acbe b66d 30be 88cd ef3d 6bc8 e13d
00000210: 6807 473e 6228 aebc 695f d0be 683c 873e
00000220: 4eab 013e 75fe 3c3e 0039 873d 82ea 423e
00000230: 0301 da3d 256c 90be c5d7 493d e80e 223c
00000240: 6586 b63e c858 09be f182 693e fcb4 933e
00000250: 3803 2fbe 9649 773e
0.016192673 0.060690094 0.22801535 0.32357675 0.29943582 0.052907575 0.15853012 0.29409876
-0.034772962 -0.005875666 0.00604597 -0.20507888 -0.28212383 -0.49141046 -0.32086632 0.06712191
-0.25227654 -0.47918698 -0.12971708 -0.0760524 -0.13250704 0.29267395 0.2871047 0.316088
0.12545429 0.27305368 0.34828773 0.31938452 0.32757714 0.09315316 0.15225069 0.21603346
0.11751022 0.17939767 0.19322394 -0.036746584 -0.18542306 0.07186287 0.13740844 0.12339339
-0.22626506 -0.31881186 -0.43670818 -0.24009627 0.07120706 -0.3140545 -0.37188932 -0.24824943
-0.17651342 -0.024539724 -0.037128054 0.14880314 -0.011267773 0.2000106 -0.014779888 -0.21781829
0.08535836 0.23273832 0.10050669 -0.07594194 -0.3488871 -0.17275275 0.17091678 0.28405714
-0.10326536 -0.17770596 0.10151244 0.3578338 0.28269714 0.19493945 -0.037052758 0.1127028
-0.048598688 0.16535819 -0.0033208993 0.19563676 0.21947503 -0.15153866 -0.24230249 -0.281569
0.20807998 0.089806624 -0.46245462 -0.63870066 -0.082774356 0.17671427 -0.19760644 -1.1180984
-0.22932371 0.14503472 0.104581326 -0.706592 -0.54833096 0.091709025 0.32424572 -0.01979349
-0.5619196 -0.09448535 0.18810004 0.3848187 -0.10294482 -0.0018598017 0.1781737 0.111409545
0.24053621 -0.010707798 0.1892052 0.2097911 0.24042308 -0.15409255 0.15042457 0.34704903
0.28924823 0.019937688 -0.41707128 0.08771961 0.42014432 -0.007667778 -0.082516216 -0.4373284
0.11312114 0.2762985 0.16923586 -0.070925705 -0.23975848 0.07160484 -0.26287436 -0.32861626
-0.33628199 -0.17229351 0.11709124 0.11024555 0.19436419 -0.02125949 -0.40697792 0.26413274
0.12663004 0.18456443 0.06602669 0.1903477 0.10644724 -0.28207508 0.04927804 0.009891249
0.3564941 -0.13412774 0.22803856 0.28849018 -0.17091072 0.24149165

conv_layer1.0.bias f4 [6]
00000000: 2c9a d53a a897 2a3e 8268 b4bb ecaa f63d
00000010: e78b a8bd f698 83b8
0.0016296557 0.16659415 -0.0055056224 0.120443195 -0.08229809 -6.275058e-05

conv_layer2.0.weight f4 [16, 6, 5, 5]
00000000: d54f 34be d915 af3c 6cdc c9bd 3e37 adbd
00000010: 6a94 913d 5a0d 753d 5c21 a8bd 185d fbbd
00000020: ebf0 b239 19dd 843d 5ff2 1bbe 982c 88be
00000030: 2218 a8bb 570d fd3c fc40 2abd 4c76 b8be
00000040: 9ce8 94bd b53d 8a3d 9a69 353d 60a3 793c
00000050: fdab 0fbe 5924 8d3b 99b6 943c 3297 74bd
00000060: dcdf cfbd afac fcbd 3ec9 1b3e 81c4 1cbe
00000070: c3d9 70be f1f0 043a 8f92 043e 6081 5ebc
00000080: dece b6be 8054 aa3b 3bed 4d3d 7bba 113d
00000090: 7a16 13be cf0f 87be bcd0 623d 03a6 9b3d
000000a0: a7ae 2dbe 4d1f f6bd fd50 0cbd 6d7c 32bd
000000b0: 28f8 933d 6370 1cbe 1082 a03c a5a6 1abd
000000c0: 6a7d 6cbd 720a 853d 04ac 40bd 2280 273d
000000d0: d8d4 053e 9972 d93d 6a20 84bd 8f75 0abe
000000e0: 9e69 863d d601 ff3d 504f c8bc 51c8 30be
000000f0: 2d2c 0dbe 6972 4f3e e1bc 3d3e 57b1 4fbe
00000100: e919 66be c3fa 5bbd e9c2 263e 86bc ee3c
00000110: 23ef 1abe 6695 56be ca1c f03c 6be4 723d
00000120: 0f8d c2bc a11c 1dbe c30f 33be b8c6 aebc
00000130: 2f53 f3bb 0e5b bb3d 2873 2c3e 8758 8c3d
00000140: ba1c b9bc 2f23 ac3e e3d3 fb3d 6cf0 0f3e
00000150: 5f42 c23d ddb0 8e3d c65e a63e e3a0 753e
00000160: 2143 723e b4e0 cf3d bc8c 233e dfa1 c43e
00000170: 99c6 8b3e 6e82 353d 4d5d 05bd e49c b93d
00000180: 0200 543e cbd3 10be 748b 9abd f390 00be
00000190: c1e2 15be ffff acbd b8f9 473e 600f 1b3e
000001a0: 995f ca3d 9e5b 81be eccb 26bd b4a6 573e
000001b0: ae51 8d3d b7fc dcbd c9aa 4cbe cae3 393e
000001c0: 7711 7b3e 5c3f 0d3c 118f 8dbe 1913 1c3d
000001d0: 8140 263e 0c84 943d 890d 88bc afe0 75be
000001e0: 56bb 283e f271 2f3d 53e8 21bc f5ec 1dbe
000001f0: 155e d3bd b28a b33b 3aeb 483d 19d3 1f3d
00000200: 55e6 893d 6603 58bc 4a41 e2bc 726d ff3c
00000210: 2be0 9b3c d2ca dc3c 3b2e 8bbb bf19 6bbc
00000220: 52a0 163d c6d4 833c f300 f5bc a1fc babd
00000230: 7408 713d f2c0 85bb 1628 7cbd 1128 183d
00000240: f182 9cbd a20a 53bd 5e64 1bbd 58d1 8a3d
00000250: 2729 923c 2144 65bd d278 5fbd 107d af3d
00000260: 0343 7f3e 5466 513e 9627 053e 13f8 963d
00000270: 5241 373e a37f 8e3d 28c4 563c 0a71 81bd
00000280: c9bf 793d 92eb 593e c4a2 8b3e 110a c83d
00000290: 8ecb ffbd 6f0a f33d 0fea 6f3e 22ed 0f3e
000002a0: f3b5 d6bd 692b 0ebd 7596 623e 012f 823d
000002b0: c05c d2bd a4b8 17bb a8cd bcbc 4770 abbc
000002c0: 7502 8cbc 9939 193d 22ce 9b3d 985a 8e3d
000002d0: ffe8 8cbc 1f03 79bd 2ec1 f2bb 230a ed3a
000002e0: 5f82 22be 2998 90bc 3999 c03d c428 253e
000002f0: 932b 993d 877a 69be c9f5 013c 6c28 b73c
00000300: a50a dbbd 8274 87be ff84 52be 9e6d 8dbc
00000310: c564 63be f371 bfbd a321 193e f0bd afbc
00000320: b123 28bd ce8a 08be 5b16 9cbc 95f4 cb3c
00000330: bd2a 27be 6667 93bd 4e65 573d 9da8 05bb
00000340: c3fd c8bc 127e 8bbd 26ba 883d 3745 673c
00000350: 5615 06bc 1735 083e 7cb2 313d c087 06be
00000360: f986 8fbd 64c9 94bd 202e 333e 81e2 a03d
00000370: 9ad2 5dbd 75e9 463d c48b d13d 3156 f43d
00000380: 2b6e 0a3e b35d 653b 83e9 bc3d a9a7 813d
00000390: 6d11 4fbe a32f 17be fa2b 2f3e d605 fdbd
000003a0: e9e4 d5be 2818 e5be 0f91 8fbe cad1 303d
000003b0: 12df 12bf af1f 13bf cfa7 f9be 0843 8dbe
000003c0: be53 14be c093 05be d265 52be 2730 0dbe
000003d0: 649f 023d 7196 753d 15ce eabb 7b8e 2abe
000003e0: 552f 593e 96e9 1b3e 2a47 cabd 2c28 b2bd
000003f0: 72d6 5dbd e053 993b bb76 cbbb 5451 16be
-0.17608579 0.021372722 -0.09856495 -0.08457802 0.07108386 0.059827186 -0.08209488 -0.122736156
0.00034130304 0.064874835 -0.15229176 -0.26596522 -0.00512983 0.03089015 -0.04156588 -0.36027753
-0.07270929 0.06750051 0.044290163 0.015236706 -0.14030452 0.0043073115 0.018153476 -0.059714504
-0.1015012 -0.12337624 0.15213487 -0.15309335 -0.2352057 0.00050713035 0.12946533 -0.01358065
-0.35704702 0.0051980615 0.05027507 0.035578232 -0.14364043 -0.26379248 0.055374846 0.076000236
-0.16961156 -0.12017689 -0.034256924 -0.043575693 0.072250664 -0.15277247 0.019593269 -0.03775658
-0.05773679 0.06496133 -0.047039047 0.04089368 0.13069475 0.10617561 -0.06451495 -0.13521408
0.06563114 0.12451522 -0.024451882 -0.17263915 -0.13786383 0.20258488 0.18529083 -0.20282494
-0.22470821 -0.053705942 0.1628529 0.02914263 -0.15130286 -0.20955428 0.029310603 0.059299868
-0.023748903 -0.15342952 -0.17486481 -0.02133499 -0.0074256877 0.09148227 0.16840804 0.06852823
-0.022596706 0.33620593 0.122962736 0.14056557 0.094853155 0.06967328 0.3249418 0.23987155
0.2365842 0.101502806 0.15971655 0.38404748 0.27299955 0.04431384 -0.03255968 0.09063128
0.20703128 -0.14143293 -0.0754613 -0.12555294 -0.14637281 -0.08447265 0.19528854 0.15142584
0.09881515 -0.2526521 -0.04072182 0.21059686 0.06900345 -0.10790389 -0.19987024 0.18153301
0.24518381 0.008621063 -0.27648214 0.03810415 0.16235544 0.072517484 -0.016608017 -0.24011491
0.16477713 0.042833276 -0.009882051 -0.15422423 -0.10320679 0.0054791803 0.049052455 0.039019678
0.067333855 -0.013184404 -0.027619023 0.031180117 0.01902779 0.026952181 -0.0042474545 -0.0143494
0.036773987 0.01609267 -0.02990768 -0.091302164 0.058845952 -0.0040818388 -0.061561666 0.037147585
-0.076421626 -0.051523812 -0.037937514 0.067782104 0.017841889 -0.055973176 -0.054558583 0.08568776
0.24927907 0.20449191 0.13003382 0.07371535 0.17896011 0.069579385 0.013108291 -0.063203886
0.060973916 0.21281269 0.27272618 0.09767545 -0.12489997 0.118672244 0.2342913 0.14055303
-0.10483923 -0.034709368 0.22127707 0.063566215 -0.10271597 -0.0023150826 -0.023047283 -0.020927561
-0.017091015 0.037408445 0.07607676 0.06950873 -0.017200945 -0.060793992 -0.0074082827 0.0018084686
-0.15870045 -0.01765068 0.09404225 0.16128832 0.07479014 -0.22800647 0.007932135 0.022358142
-0.1069539 -0.26456076 -0.20558546 -0.017264184 -0.2220641 -0.09347906 0.14954238 -0.021452874
-0.041049663 -0.133342 -0.019053629 0.0248969 -0.16324897 -0.07197456 0.052586846 -0.002039469
-0.024535066 -0.068111554 0.0667613 0.014115623 -0.008183798 0.13301502 0.043383107 -0.13137722
-0.07008166 -0.07264975 0.17498064 0.07855702 -0.054155923 0.048562486 0.10231736 0.11930502
0.13518588 0.0034998476 0.09224226 0.06330807 -0.20221491 -0.14764266 0.1710662 -0.12354629
-0.41776207 -0.44744992 -0.28040358 0.04316882 -0.5737163 -0.5747022 -0.4876084 -0.27590203
-0.1448507 -0.13044643 -0.20546654 -0.137879 0.031890288 0.059957925 -0.00716568 -0.16655914
0.21209462 0.15225825 -0.09876855 -0.086990684 -0.05415959 0.004679188 -0.006209222 -0.14679462

conv_layer2.0.bias f4 [16]
00000000: db14 1bbd 4f6e 8fbb 08c5 00be ddf0 63bd
00000010: 8fc5 e63d 58f9 043e 7f86 d33c 1f74 113d
00000020: a9d1 e93d 4623 50bd 5d4c 113e 247c bf3d
00000030: e6d6 923d 1b63 fdbd 63b1 94bb bb68 d23d
-0.037861686 -0.0043771635 -0.12575161 -0.055649627 0.1126815 0.12985742 0.025820969 0.035511132
0.114169426 -0.05081489 0.14189287 0.0934985 0.07169895 -0.123724185 -0.0045377477 0.10273882

C5_layer.0.weight f4 [120, 400]
00000000: 616c 99bc 5402 83bd 8cca 943d 1f50 9c3c
00000010: c2c2 3b3d 9577 fbbc 3f14 17bd eb77 4b3d
00000020: 4a79 90bb ca25 8d3d a682 203e 0645 613c
00000030: 62d5 1f3d 20da 1d3d 6512 723c e045 443e
00000040: 3afd 003e 8ff9 bd3d 9a8f 0ebd a475 abbc
00000050: 98c5 933c 24dc aabd a4b5 5bbc 8b18 8dbd
00000060: 8b70 2bbe ac33 9cbd 5a2f cebd 9372 283d
00000070: 7a7f c53c 666b 5dbd 8d69 02bd 8c88 31bd
00000080: 1967 d13c dc7c c3bb c533 4bbc 508c 66bd
00000090: 4569 1abd e3e7 42be 2343 7abd bf3e 6ebd
000000a0: f7fd f9bd e636 1ebc c61d dcbd a3ed 3a3c
000000b0: de2d 23bd 7cc0 963d 8a59 90bd d456 5cbe
000000c0: c1b1 d7bd 6c3e ffbd bfbd 3dbe 2314 a0bd
000000d0: f968 de3d e46c 0c3d 6681 973d 0a6f 263d
000000e0: 3e39 ef3a 646c 543d c677 e93d 3360 33bd
000000f0: e51c bc3d d8a6 8c3d d757 0fbb ce6d febd
00000100: b365 06be ad09 453d ccc6 b83c 710c 16bd
00000110: 2b31 093e 0a11 f83d 409a 043d ebe1 0f3d
00000120: dd2c 84bd a21b aa3c 3434 b53d bdbd 1a3c
00000130: c0a1 f1bb 8e07 86be 4807 febd f6bb 84bc
00000140: bb71 de3c 3b49 433d 5889 f0bd b5ec 07be
00000150: fa28 073d 334e 2c3d b171 a13d 82f4 d9b8
00000160: 4562 83bc 4caf c9bd 0462 f23d e7aa 723e
00000170: 6f55 7e3d 0682 cdbd 6ecd 41be a3f1 403e
00000180: 2db4 083e 1c1f 313d 7dbf 90bd 8082 2dbe
00000190: 5881 fcbd becc afbd 1828 993c 66b0 d83c
000001a0: 4640 f9bc 9b57 98bd 931e 443d 30ae 543c
000001b0: 82ad d23d fb25 7f3d d474 fabd a7bc 28bc
000001c0: 4a7f a5b9 2e65 f0bd 8414 e2bd 20a6 86bb
000001d0: 2d1c b63d f01a 263e 3c11 243e 5798 323e
000001e0: 284f 08bc 15f1 7c3d 2f44 b23d 166b 9b3c
000001f0: 3e49 e73d 9e02 fabb 9f1a 1dbe 23da 1cbd
00000200: 77ba 2fbd 9096 83bd b0e9 85bd ed4c 27be
00000210: ee63 c2bd 7b25 0b3d 2a6e f5bc f094 5abd
00000220: 6190 d9bd c2ba 97bd bc18 84bd e1d6 bcb9
00000230: d6ab 0a3e d1f5 22bd 3363 07bd fa97 01be
00000240: e41e 2bbd cc98 303e 01e3 0a3e 5390 8fbd
00000250: c68a 24be 1f29 943d f56b 74bd dda5 18be
00000260: 84aa f53c 99c7 ca3d 7a05 e63d 8c3c efbd
00000270: 3539 6cbe aab4 2ebd 8083 783d 2047 ae3c
00000280: 7ec1 71be 1dc4 d0bd 5e5f 24bd 199d 153e
00000290: 802b 893d a0b2 d9bd 71e8 593b 471f abbd
000002a0: 54dd 843d cf7a 123d 1b74 443d 35aa 8c3d
000002b0: 216e 553d 6c38 92bd 8583 f7bd 5726 f8bd
000002c0: 440d b1bd d5a7 fbbd 5e4f a1bd e462 eebc
000002d0: ebff 4abd 1c67 293c f075 94bd b0ab 10be
000002e0: 23e2 55be 51e1 1cbe 2aea 1e3d 795c 25bd
000002f0: d14a b8bd d3aa 873d 709e 853c 3d96 c33c
00000300: a94a 223d 6b31 f7bc 58de c83d 865c 143d
00000310: 08cc 593b 3d2f 3a3d 94d1 cfbc 1c34 f5bc
00000320: 41f1 27be 1155 6ebd a4a5 d3bd 8f40 bcbd
00000330: a234 19bd 1881 9bbe caf1 a8be 3016 34bd
00000340: 5288 143d 72bb 24bd aeb6 0dbe 8ae0 55be
00000350: 7398 913c 241b 933d 4d17 afbb 393f 8abc
00000360: a1d5 333d 1078 393c 0785 7e3d 9abd 013d
00000370: a1df dd3d aad0 553d dfba b63c ed1f 8e3c
00000380: b268 263d 0322 32bb a796 1bbd 8623 2e3d
00000390: 602d ae3d cef0 a43c 8d5d f23d 71f7 523d
000003a0: 47db b4bc dbfe c43c 0c63 34bd ce6a a83e
000003b0: 8dad 103e 555a be3c 9e40 ad3d c8b8 d63c
000003c0: 3cb2 373e 8dcb 7c3d 76bf 15bd fefa 1fbd
000003d0: 7cf3 53bd 12df 5fbd 6a0a bbbc 6ace 2cbd
000003e0: edbe 9cbd 714d 77bd ab43 0bbe 2151 febd
000003f0: 0ec0 71bd 20b8 bf3b b3c4 84bb 11dd c03d
-0.018728437 -0.063969284 0.07265195 0.019081173 0.045840032 -0.03069667 -0.036884543 0.04967491
-0.00440899 0.06891973 0.15674838 0.013749367 0.039021857 0.0385381 0.014774893 0.1916728
0.12596598 0.09276115 -0.034804918 -0.020930119 0.018038556 -0.0834277 -0.013410006 -0.06889447
-0.1674215 -0.07627043 -0.10067625 0.04112489 0.024108637 -0.0540575 -0.031838942 -0.043343112
0.025561856 -0.005965812 -0.01240248 -0.056286156 -0.03769805 -0.1903377 -0.061099183 -0.058165308
-0.12206643 -0.0096566435 -0.10747866 0.011409196 -0.039838664 0.07360932 -0.07048328 -0.21517497
-0.10531951 -0.12463078 -0.18529414 -0.07816341 0.10859866 0.034283534 0.07397728 0.04063324
0.0018251312 0.05186118 0.11399798 -0.043792915 0.09185199 0.068677604 -0.0021872425 -0.12423287
-0.13124733 0.04810493 0.022555731 -0.03663296 0.13397662 0.12112625 0.032373667 0.03512756
-0.064538695 0.02076513 0.088478476 0.009444651 -0.0073740184 -0.2617764 -0.124037325 -0.016202908
0.02715384 0.04767726 -0.11744946 -0.1327389 0.032998063 0.042066764 0.07883013 -0.000103929095
-0.01603807 -0.09847888 0.11835101 0.23698007 0.062093195 -0.10034566 -0.18926021 0.18842177
0.13349982 0.04324256 -0.070677735 -0.16944313 -0.12329358 -0.08583973 0.018695876 0.0264513
-0.030426156 -0.074385844 0.04788072 0.012980983 0.10287 0.06229208 -0.122293144 -0.0102988845
-0.0003156609 -0.117380485 -0.11039069 -0.004109159 0.08892093 0.16221213 0.160222 0.17440926
-0.008319654 0.06175335 0.08704411 0.018971961 0.11293267 -0.0076297065 -0.15342186 -0.03829397
-0.042902436 -0.06425202 -0.06538713 -0.16337939 -0.09491716 0.03397129 -0.029959757 -0.053364694
-0.10623241 -0.07408668 -0.0645003 -0.00036018252 0.13542113 -0.03978521 -0.033053588 -0.1265563
-0.041777506 0.17245787 0.13563158 -0.070099495 -0.16068563 0.07234406 -0.05967327 -0.14907022
0.029988535 0.099013515 0.11231513 -0.1168147 -0.23068698 -0.042652763 0.060672283 0.02127415
-0.23608968 -0.10193656 -0.04013001 0.14610709 0.0669775 -0.10629773 0.0033250118 -0.08355575
0.064875275 0.03576165 0.04796229 0.06868402 0.05210698 -0.07139668 -0.12085632 -0.12116688
-0.08645108 -0.12287871 -0.07876466 -0.02909989 -0.04956047 0.010339525 -0.07249057 -0.14127994
-0.20887046 -0.15320326 0.038797535 -0.040371392 -0.08998645 0.06624379 0.0163109 0.02387535
0.039621983 -0.030174932 0.09808034 0.03622105 0.0033233184 0.045455206 -0.02536849 -0.029932074
-0.16400625 -0.058186594 -0.10334328 -0.09192001 -0.03740371 -0.30371928 -0.3299697 -0.043966472
0.036262818 -0.040217824 -0.13839218 -0.20886436 0.017772889 0.07182911 -0.005343354 -0.01687585
0.043904904 0.011320129 0.062138584 0.03167496 0.108336695 0.05220095 0.022305904 0.017349208
0.04062719 -0.0027180917 -0.03798547 0.042514347 0.08504748 0.020134356 0.1183425 0.05150551
-0.022077216 0.024047306 -0.04403977 0.32893986 0.14128704 0.023236433 0.084595904 0.026211157
0.17939085 0.06171756 -0.036559545 -0.039057724 -0.051745877 -0.054656096 -0.022832114 -0.04218904
-0.07653604 -0.06037659 -0.13600032 -0.12417818 -0.05902105 0.005850807 -0.0040517687 0.09417165

C5_layer.0.bias f4 [120]
00000000: 6a1f 7e3d d7e8 663d a237 a6bc e69d 12bd
00000010: 0654 c0bd 052c f23a b47e 37bd 234c b3bc
00000020: b2b5 5bbd 5103 19bc e9c5 c0bd 6133 65bd
00000030: 92cd 6d3d e112 a13d 9f1a 633d f6a8 b53d
00000040: c275 9c3d 934e 243c 56f9 2cbc a0eb 323d
00000050: 0f3d 54b9 13d8 70bd 355c bcba 3707 9b3d
00000060: 7b8d 65bd dd86 5fbd 61cf 673d ba0f 28bc
00000070: 6f20 e83d b654 66bd 30f0 9ebc d370 7f3c
00000080: c40e 6a3c 328c af3b bf49 893c ae14 913d
00000090: 6459 27bb 863e fa3b fe9f 8ebd 3bbb a63d
000000a0: 17b1 153d 8678 55bd 8139 02bd 8085 803d
000000b0: d38a 3f3d b4df 8ab9 057d 9abd cb34 4f3d
000000c0: e4a6 743d 8dee e2bc 51d3 c9bc f6fe b93c
000000d0: 7e26 0738 b0b4 5dbc 6458 46bd d1ca b1ba
000000e0: e607 7cbd 19e1 693c 6bad db3c 0fa0 b0bc
000000f0: c43c 8b3b 44c5 f0bc 4544 7cbd 99c8 81bd
00000100: 7ade 413d 733d 953c 8c86 e8bc 74ee 41bd
00000110: a619 4b3d 89bb 833d b721 2c3d b156 2d3b
00000120: 773c 2f3d 47a4 dd3d b43d d6bc 1d62 3bbd
00000130: b594 93bd 4a32 3abd ceeb 98bd 5cd3 42bc
00000140: 7f84 81bc 7290 f6bc d974 1b3d ec00 efbc
00000150: 54c1 c83d 278e fdbc 10cd b7bd 86bf 87bd
00000160: fe1e 1d3e d907 11bb 232c 81bd 6eba 2cbd
00000170: b958 61bd 49a8 c3bc 95e4 0dbc 7ad9 67bd
00000180: 6b59 503d 943e c53d 5169 6e3d 4255 c9bc
00000190: f210 ba3c 26e4 65bd 008d 18bc 123b c4bb
000001a0: 8d8a a2bc 9962 dfbc a88a 57bd d278 eb3c
000001b0: 54b5 833d 7d6d d8bb 2a49 bb3b c9da 2c3d
000001c0: b94f 053e b04f 28bd 28c1 20bc f573 87bc
000001d0: 43e1 a2bc 07b8 a13d ef78 ac3d f878 cf3c
0.062041678 0.056374397 -0.0202902 -0.035795115 -0.09391026 0.0018476254 -0.044798568 -0.02188689
-0.053640075 -0.00933917 -0.09412748 -0.055957202 0.058057375 0.07864929 0.05544531 0.08870117
0.07639648 0.010028499 -0.010557493 0.04368174 -0.00020240642 -0.058799814 -0.0014370742 0.075697355
-0.05604313 -0.054571975 0.056594256 -0.010257656 0.11334311 -0.05623313 -0.01940164 0.015590864
0.014285747 0.0053572888 0.016758798 0.070840225 -0.0025535459 0.007636848 -0.0696411 0.0814118
0.03654584 -0.052116893 -0.03179312 0.06275463 0.046763252 -0.00026488083 -0.07543377 0.050587457
0.05972947 -0.02770164 -0.024636896 0.022704583 3.2222357e-05 -0.013531849 -0.04842414 -0.0013564472
-0.06153097 0.014274859 0.02681609 -0.021560697 0.004249187 -0.029390939 -0.061588544 -0.06337089
0.04733131 0.018217778 -0.02838447 -0.047346547 0.049585007 0.06432254 0.04202434 0.0026449377
0.042782273 0.10822349 -0.02615247 -0.045747865 -0.07206098 -0.045458116 -0.07466851 -0.011891212
-0.01581025 -0.030098174 0.03795323 -0.029175244 0.098024994 -0.030951573 -0.089746594 -0.06628327
0.15343854 -0.0022129922 -0.063072465 -0.04216998 -0.055016253 -0.023883956 -0.008660455 -0.056603886
0.050866526 0.096310765 0.058205906 -0.024576787 0.022713158 -0.056125782 -0.009310961 -0.005988487
-0.019841457 -0.027268695 -0.052622467 0.028744135 0.0643107 -0.006604849 0.005715509 0.042200837
0.13018693 -0.04109162 -0.009811677 -0.016534785 -0.019882804 0.078964286 0.08421504 0.025326237

fc_layer1.0.weight f4 [84, 120]
00000000: 6b81 c2bd 3496 abbd 590a 89bd 2a6c ae3c
00000010: 97cb 5d3d 8143 2dbd 42da 2ebd 0704 f2bb
00000020: 9d43 073d e748 e8bd b66a 523d 5aea 643d
00000030: 08a8 64bc 7799 803b 96a1 e1bd d830 813b
00000040: b5a0 91bd c298 6dbd ed97 c5bd a0c5 3a3d
00000050: 5960 3bbd d315 493d ce3b bbbd 4785 893c
00000060: 6f96 123c 7aa5 c1bc 4d2c c6bd 88d3 f3bc
00000070: d9bd c9bd 6de4 4dbd aaa9 9abd 9396 953c
00000080: 09f0 06be efa2 27bd 2cb8 2c3d d072 77bd
00000090: 4eec 0cbc accd 98bd e81c 0abc 9083 e8ba
000000a0: 562f 22bd 60d0 ad3d 68f3 313d e1c5 bdbd
000000b0: 02e6 d9bd d238 a0bd ba3b 5d3d 650b b53c
000000c0: 6903 963c acb3 35bc b253 03bd 40f0 c5bd
000000d0: 55dd e73c f7ce 97bd f1ee d9bb 0f5d bdbb
000000e0: e04d 88bd eef4 cfbc 82a5 5ebd ec47 8cbd
000000f0: 30e6 6a3c 19d5 48bc b351 813c ecb7 6d3d
00000100: 13dc 40bd 8cd1 a73c 8350 fdbd c200 a43b
00000110: 42fd 6abd af43 d3ba 05ed d8bc 05bf 353d
00000120: 2c68 b2bc e2b8 353d e649 d2bc 2e1b b0bc
00000130: d7f4 60bd d304 893d 9074 833d 2195 f4ba
00000140: df30 a6bd 061d 723b 882c 41bc 98a4 233d
00000150: 254b 52bd e0d9 363c 3663 adbd 37a3 2fbd
00000160: c52a 4e3b d8f0 09bd cc2d f5bd e4f7 93bd
00000170: 9936 603d cb19 67bd 7596 a6bd 66ed b43d
00000180: 99c1 e2bd 650c 2d3d 595c 00bd b870 853c
00000190: 1391 8e3d 64bb fe3a 0f9d b03a e941 14bd
000001a0: d7b7 ec3c add2 2fbd f5a6 b73c 2ad8 d5bd
000001b0: d188 803d d09f 90bd 3ef3 9cbd 437b a8bd
000001c0: e569 eb3c f8e9 223b 105f 86bc da7a b8bd
000001d0: 2d98 b7bd 912c 7abc 9d7a 6e3c 6ad9 9c3d
000001e0: 4cc4 973d 6849 8a3d 9207 a83d 2bba 60bd
000001f0: 0cc5 b13c 2362 163d 0ad8 41bd 5343 0b3e
00000200: d19d a03d 6aa1 943d 18d0 f63d ac7a 7f3d
00000210: 784a 38ba 6f71 9bbd 15ac 2cbc b415 ae3d
00000220: d8a6 a3bd d8a4 973d da62 abbd d2e9 d3bd
00000230: a89f 89bc a301 7e3d d9d0 8e3d b242 d23d
00000240: c4de 133c e5bd c8bc 6146 c43d d460 503e
00000250: 9fad 7a3d df59 1b3d a502 d5bc 6c2a 3cbd
00000260: 712a 863b 49ab d63d bab8 41bd 3ee3 8cbd
00000270: 7dfb aa3c e60e fc3c da7c fe3d b21f af3d
00000280: d03d 2ebd 0834 a03c 775c c03d 17ee 813d
00000290: 7225 f0bd e4af 003e c1a5 a1bd b3a9 b5bc
000002a0: 039e 1bbc e7df b2bc b7cf 2c3c 6fa1 40bb
000002b0: aae3 81bd f19e 203e 97c5 073e 8c99 1b3e
000002c0: 0086 a73d 8d25 2e3e 2122 493d e0f5 09bd
000002d0: 715f 9dbd 0a17 abbd 82f3 c13c 7741 0bbb
000002e0: 2d9a 793e 3ca0 2cbe 59c1 99bc 2fdc 823b
000002f0: 2d13 7b3c e46f 533d 0b7c 40ba c36c d3bc
00000300: 0b63 873d 40a9 f53b acd8 cb3d 18a3 c83c
00000310: dfd5 8d3c 3634 493d a2f5 b3bd 6091 71bc
00000320: 3391 55bd 770e bfbc 4e28 173e 2dc6 06bd
00000330: 90fd 503d c225 59bd f88e cf3d da84 593e
00000340: 0af4 a33e 980e e1bd 6ada 893c 8560 0abd
00000350: 06d2 24bd d2d1 bebd 2dd7 90bd 3ce3 abbc
00000360: 626c 0bbd 11ee 003e 779b 063e bbe3 07bd
00000370: 980c 3dbd a54a 26bd b1a5 ae3d 2e38 8f3d
00000380: 802d 9a3c fbf1 3a3d ce73 25be d0ba 6e3d
00000390: 2000 d63d 2069 11bd 213a 0f3d fb2e 033d
000003a0: e073 733d 9fb1 733c 48db d03d ca87 dc3c
000003b0: 9ae8 023d beda 0ebd 5789 263d f4e2 8f3c
000003c0: 3b92 033e 9b5f 45be c726 643d 5f9d a83c
000003d0: c188 a6bd 0460 abbd 4e5f 0bbd f688 5c3d
000003e0: 7b52 263d b087 22be 1f44 b03e 82cd a1bd
000003f0: d4c0 1b3e aa73 cf3b 304e 34bd 6d8b ebbc
-0.09497341 -0.08378258 -0.06691427 0.021291811 0.054149237 -0.042300705 -0.042688616 -0.007385734
0.033023465 -0.1134203 0.0513713 0.055887558 -0.013956077 0.0039245444 -0.11017148 0.00394259
-0.071107306 -0.05800701 -0.09648118 0.045598626 -0.04574618 0.04909308 -0.09142266 0.016787184
0.008946999 -0.023638476 -0.096764185 -0.029763952 -0.09850664 -0.050266672 -0.07551892 0.018260276
-0.13177504 -0.04092687 0.042167827 -0.060412228 -0.008601261 -0.07461104 -0.008429743 -0.0017739404
-0.039595924 0.0848701 0.04344502 -0.09266258 -0.10639574 -0.078233376 0.054012038 0.02210016
0.018312173 -0.0110902 -0.03206224 -0.09664965 0.028303782 -0.07412522 -0.0066507985 -0.0057789157
-0.066554785 -0.025385346 -0.05435706 -0.068496555 0.014337108 -0.012257838 0.015786028 0.05803673
-0.04708488 0.020485662 -0.12368872 0.005004973 -0.05737043 -0.0016118194 -0.026480207 0.044371624
-0.021778189 0.04436577 -0.025670003 -0.021497335 -0.054920997 0.06690373 0.06418717 -0.0018660167
-0.0811479 0.003694357 -0.011790402 0.03995189 -0.051341195 0.011160344 -0.084661886 -0.042880263
0.0031458598 -0.033676952 -0.11971626 -0.07225016 0.05473957 -0.056421082 -0.08134166 0.08834343
-0.11072082 0.04224815 -0.03133807 0.0162891 0.069612645 0.0019434509 0.0013474541 -0.03619567
0.028896255 -0.042925525 0.022418479 -0.10441621 0.06276096 -0.07061732 -0.07663582 -0.08226635
0.028737018 0.0024858695 -0.016402751 -0.09007807 -0.08964572 -0.0152694145 0.0145556005 0.07658656
0.074104875 0.067522824 0.08204569 -0.054865044 0.021700405 0.036714684 -0.04732517 0.13599901
0.07842601 0.0725735 0.120514095 0.06237285 -0.00070301397 -0.07589995 -0.010539074 0.08500233
-0.07990807 0.07404488 -0.08368464 -0.10347332 -0.016799763 0.06201328 0.06973428 0.10266627
0.009025279 -0.024504611 0.09583736 0.20349437 0.061200734 0.037927505 -0.026002238 -0.045938894
0.004094415 0.10481889 -0.04729531 -0.068792805 0.020871872 0.030768823 0.12426157 0.08550967
-0.042539418 0.01955606 0.09392636 0.0634424 -0.11725892 0.12567097 -0.07892943 -0.022175645
-0.009498122 -0.02183528 0.01054757 -0.0029393097 -0.063422516 0.15685631 0.13258968 0.15195292
0.08179855 0.17006512 0.049104813 -0.03368175 -0.0768422 -0.08354004 0.023675684 -0.0021248737
0.2437522 -0.16858 -0.018768953 0.003993533 0.015324396 0.05162038 -0.00073427026 -0.025808698
0.06610688 0.007496983 0.09953436 0.024491832 0.017313896 0.049122058 -0.08787085 -0.014744133
-0.052140426 -0.023322327 0.14761469 -0.03290384 0.051023066 -0.053014524 0.10134691 0.21242085
0.32022125 -0.10989112 0.01682778 -0.033783454 -0.040239356 -0.09317364 -0.070722915 -0.020982377
-0.03403891 0.12590815 0.13145243 -0.033176165 -0.04615459 -0.04059853 0.08527697 0.06993137
0.018820524 0.045640927 -0.16157457 0.058283627 0.104492426 -0.035500646 0.034967545 0.032027226
0.05943668 0.014873891 0.101980746 0.026920218 0.031960107 -0.034876578 0.04065832 0.017564274
0.12848751 -0.19274752 0.055701043 0.020582853 -0.081315525 -0.08367923 -0.034026437 0.053841554
0.040606003 -0.15872073 0.34426972 -0.07900526 0.15210277 0.006330927 -0.044019878 -0.028753007

fc_layer1.0.bias f4 [84]
00000000: b8a4 45bd 6f39 56bd 6541 9bbd 7153 8dbc
00000010: a692 db3d ba15 b73d f504 b1bd d13f 903d
00000020: 5c09 cf3d 0f3c 3a3d 510d 463c 72c5 f3bb
00000030: 635f 423d b8cb a33d 2943 c83c 7662 18bd
00000040: e45f 72bb 9a77 c6bd 8afa ce3d 5d10 863d
00000050: 1fd7 6bbc b504 7fbd d511 5d3d 2171 f63d
00000060: 32c8 d8b9 9002 a5bd fafb f3bc 8f52 063d
00000070: 5752 a53d c118 bc3d 2a8b b7bc 6ed3 d73d
00000080: 12e5 c2bd 0939 8bbc 32a1 0d3e 9709 a13d
00000090: 0731 153d 2019 aa3d 2ce4 773d f8d4 dfbd
000000a0: ef6e e93d 9689 ddbd e21a abbd ff93 80bd
000000b0: b022 a7bc 173a 10bd 9f6f 2d3d 8252 2a3c
000000c0: e34f 553d be96 993d c53c c1bd 6a4b f93c
000000d0: 9077 2f3d 4086 b6bd 5a19 8cbd 027d 3b3e
000000e0: b8ae cc3d 326c 303e 3ad3 123e 2c93 df3d
000000f0: 50d1 b6bd 8bb8 8c3c 7dd1 163e f2b3 d1bc
00000100: 0dd6 023d c5f7 113e b739 ce3d 38f6 823d
00000110: 6ad8 5d3d a82a c2bc c80b babd a552 d43c
00000120: 913c f43a 98c0 a43d 7a4f 8cbc 2928 0dbd
00000130: 664c 943d da59 0d3e baa4 d03d 099d 3f3d
00000140: 9e3e 84b9 516c d13d 6ca5 83bc 77c5 0d3e
-0.04825279 -0.052300867 -0.075808324 -0.017251702 0.1072133 0.08939691 -0.086435236 0.07043422
0.10109207 0.045467433 0.012088136 -0.007439309 0.04745425 0.07997841 0.024446087 -0.037203275
-0.0036983425 -0.09690781 0.1010638 0.0654609 -0.014394551 -0.06226035 0.053972084 0.120332964
-0.00041347888 -0.080571294 -0.029783238 0.032793578 0.08072346 0.09184409 -0.022405226 0.10538374
-0.09516348 -0.01699497 0.13831022 0.07863157 0.03642371 0.083055735 0.060520336 -0.109292924
0.11398112 -0.10817258 -0.08354737 -0.06278228 -0.020402282 -0.03521165 0.04234278 0.010395648
0.05207814 0.07499455 -0.09435419 0.030431468 0.042838633 -0.08912325 -0.06840773 0.18309405
0.099942625 0.17228773 0.14338389 0.10916743 -0.08926642 0.01717784 0.14728351 -0.0255985
0.031942416 0.14254673 0.10069602 0.06394619 0.054161467 -0.02370198 -0.09084278 0.025918314
0.0018633773 0.08044547 -0.017127741 -0.034462128 0.07241134 0.13803807 0.10187669 0.04678062
-0.00025223655 0.10225738 -0.01607009 0.13844858

fc_layer2.weight f4 [10, 84]
00000000: f03e 34bc ad07 173e 3ff3 ebbd aa81 af3d
00000010: f2f4 3e3e 7745 96be 58b6 b1bd 0e04 ddbd
00000020: dcc7 fb3d 1f52 01bd 054f 153e e344 4d3c
00000030: c87f fa3d 8f48 333c 9e91 75bd c0ec 70be
00000040: 84df 3c3e 2c94 a0be 9f28 61be 34b0 bebd
00000050: 7031 81bd e0a2 cc3d b3bf 9d3d 23b1 07bd
00000060: 06ba 5abe 25b7 023e 6e8e 3ebd 1afe 013e
00000070: b4aa 1c3d 761f 3f3c a71a 733d 1bf4 27be
00000080: 5f13 2ebe b8ba 2dbd 379f 533e b960 ad3d
00000090: ed7c 03be 5f76 ffbd 5be7 0dbe 3806 7dbd
000000a0: d36c e9bd 8bed 0abe f872 8bbd 0d0d ae3d
000000b0: 3fcb 38bb a752 ae3d 8360 d03d b72e 47be
000000c0: b0c3 7f3d f6f7 5dbe 28f4 debd 3aef 8d3d
000000d0: 7d98 6cbd 1d94 96bd 35a6 5cbe d728 98bc
000000e0: 7e57 66be efc7 28bd f2bb 9f3d 6227 e7bd
000000f0: 0652 7a3d d3f8 d6bd ec18 063e e975 b0be
00000100: 70c0 0cbe 0485 293d 017e 293d d511 69be
00000110: 6341 f6bd d91b 0d3e cfb6 ef3d 439d f93d
00000120: a313 c5bd d545 b73c 25dc cfbc 0929 fb3d
00000130: a437 47be 3629 213e b591 a8be fd38 d03b
00000140: 78a7 113e 1cb8 5c3b bf66 85bd 035d 5cbe
00000150: 5967 f63c 8224 8a3c 466b 293e 830e 89bd
00000160: fc55 713c 4f54 5d3d ade3 a3bd d10d 33bd
00000170: 0048 89bd 4060 133e e170 fabd eaa8 0a3e
00000180: 31aa cdbe 55d1 62be b1a8 d53d 97a1 763d
00000190: 237e efbd 3e5d ff3d 6bc9 af3d e927 023d
000001a0: 2d0d 5abe 588a 1bbe e0b5 62be b146 0d3e
000001b0: 0592 173e bf6e c73d a750 2bbe a985 21be
000001c0: 9270 bbbe a268 c5bd 5639 87bc a919 353e
000001d0: 66b9 bfbd 1ab5 9f3c d456 21be cad1 92be
000001e0: 7c33 90be 11f1 4b3e c27c afbd 8eb9 dfbd
000001f0: dfb9 e1bd 63f6 86bd d452 a9bd 7197 283c
00000200: 1276 613e fe3c 21be 93a4 34be b950 113e
00000210: 2546 bf3d 0008 093e 7453 ecbc 171e 28be
00000220: f557 c83c 7c08 96be 1517 5a3d 06f2 293e
00000230: 551e 70be a17c 19be 4702 a23c 618f 14be
00000240: fcc3 68bc f247 c33d 3530 5f3d 42bf 043e
00000250: 1307 de3d a9e1 e53d b9f3 ff3d 99d3 113e
00000260: 3d6e 403e da69 fcbd a9c9 d73d 3ca3 aa3e
00000270: af1c 143d 632d aeba 7443 f2bc 2c68 403e
00000280: 554c 08be 9e72 a1be c7e4 de3d ba55 53bd
00000290: 0e00 33be 31d1 e2bd cc88 03be 1f46 38be
000002a0: c602 7cbd a5ed 7f3d 9e28 623c 2cf4 9fbd
000002b0: 01b0 35be dbea 993d 51fa 97bd ce79 8dbe
000002c0: c5b4 ed3d 8693 fe3c efbb 9a3d 735b de3d
000002d0: b9cf 1bbe 1fc4 c03d a01f 02bd ddc6 4ebe
000002e0: 5dac e53d 28cf fd3d 8228 63bd 9610 673e
000002f0: 51c3 273d cdb7 be3b 7a77 24be 144b 723d
00000300: 48f0 3cbc 662b 3e3a c295 bd3c b591 ba3d
00000310: d69e 503d ba1e 2d3c 90b0 a43d eedf 223d
00000320: 8a1a 913c 3c75 243e 996c 0bbd 3956 3b3e
00000330: 61c3 053e b45c 53bd f5b4 85bd 7f74 81bc
00000340: 1ef6 25be 8158 183e 399e d3bd 9735 bfbd
00000350: c885 80bd 0ac1 f13d be9c dd3d e20c c03c
00000360: fc82 80bd ee1d 0c3e bdb7 11be d15b 9c3d
00000370: 4d5a e03d 568b 603b 0867 a3bd 4dfc ecbc
00000380: 8a06 b53d 7d44 d5bd 1552 bc3d 9f95 edbc
00000390: 3bad cebb 87a0 383c 28dd 60be c4e2 95bc
000003a0: e0d1 60be fbae 6fbd 0e43 6d3e 9a3b 8cbe
000003b0: 5b56 49be 7c00 42be ea7c fb3d f7fc 8cbe
000003c0: c6cd 61bc 789b 8bbe 8c5c d23d 39bb f13d
000003d0: 616a 4cbe a255 89be 69c4 93bd c957 1fbc
000003e0: 7171 a23d 4713 a53c b2e2 de3c 88f3 dd3d
000003f0: 1656 293d f903 04be efbf f7bd 9e62 66bd
-0.011001334 0.14749022 -0.11521005 0.08569653 0.18648127 -0.29349872 -0.086773574 -0.10791789
0.122939795 -0.031572457 0.14580925 0.012528631 0.122314036 0.010942592 -0.059953324 -0.23527813
0.1844464 -0.31363046 -0.21988152 -0.09310952 -0.063082576 0.099920034 0.07702579 -0.033127915
-0.21360025 0.12765177 -0.04652255 0.12694588 0.038248733 0.011665216 0.05935159 -0.16401713
-0.16999577 -0.042414397 0.20666204 0.08465714 -0.12840624 -0.12473749 -0.13857786 -0.06177351
-0.1139771 -0.13567178 -0.06809038 0.08498583 -0.0028197316 0.085118584 0.10174658 -0.19451414
0.06244248 -0.21676621 -0.10886413 0.069303945 -0.05776261 -0.07352469 -0.21547778 -0.018574161
-0.22494313 -0.041206297 0.077995196 -0.112868086 0.06111338 -0.10496678 0.13095444 -0.34464958
-0.13745284 0.04138662 0.041379932 -0.22760709 -0.1202419 0.13780154 0.1170479 0.121881984
-0.09622886 0.022372166 -0.025373528 0.12263686 -0.19454819 0.15738377 -0.32923666 0.00635445
0.1422404 0.0033679074 -0.06513738 -0.21519856 0.030078577 0.016863111 0.16544828 -0.06692221
0.014729973 0.05403548 -0.0800241 -0.04371435 -0.06703186 0.14392185 -0.12228561 0.13540998
-0.40168908 -0.22150166 0.10432566 0.060212698 -0.116939805 0.124689564 0.08583339 0.031776343
-0.21294089 -0.15189493 -0.22139692 0.13796498 0.14801796 0.0973792 -0.16729985 -0.15773644
-0.36609322 -0.09639098 -0.016506832 0.1768557 -0.09361534 0.019495536 -0.15755779 -0.2867568
-0.2816428 0.19916178 -0.085687175 -0.109240636 -0.1102178 -0.06589963 -0.08267751 0.010290013
0.22017696 -0.15745923 -0.17640905 0.1419095 0.09339551 0.13381958 -0.028848387 -0.16417728
0.024456004 -0.29303348 0.05324467 0.16596231 -0.23449071 -0.14988948 0.019776477 -0.1450782
-0.014206883 0.09535207 0.054489333 0.12963584 0.10841193 0.11224682 0.12497658 0.14240874
0.18792053 -0.12324877 0.105365105 0.33327663 0.036160167 -0.0013288673 -0.02957318 0.18789738
-0.13310368 -0.31532758 0.108834796 -0.051595427 -0.1748049 -0.11075056 -0.12845153 -0.17995499
-0.061526082 0.062482495 0.013803629 -0.07810244 -0.17742921 0.07515498 -0.07420791 -0.27631992
0.11606745 0.031076204 0.07555377 0.10857286 -0.15215959 0.09412407 -0.03176844 -0.20193048
0.11214516 0.123930275 -0.055458553 0.22564921 0.040957753 0.0058202506 -0.16061202 0.05915363
-0.011531897 0.00072543917 0.0231427 0.09109823 0.050932728 0.010566408 0.08041489 0.039764337
0.01771285 0.16060346 -0.034039114 0.1829461 0.13062812 -0.05160208 -0.065286554 -0.01580262
-0.16207168 0.14877512 -0.10332913 -0.09336393 -0.06275517 0.118043974 0.10820912 0.023443643
-0.06274983 0.13683292 -0.14230247 0.076347 0.109547235 0.0034262738 -0.07978636 -0.0289289
0.08839138 -0.10413454 0.091953434 -0.029002009 -0.006307272 0.011268741 -0.21959364 -0.018296607
-0.21955061 -0.058516484 0.2317011 -0.27389222 -0.19661848 -0.18945497 0.12279685 -0.27536747
-0.01378197 -0.2726705 0.10271558 0.11803288 -0.19962455 -0.26823145 -0.07215197 -0.009725519
0.079317935 0.020150794 0.027207706 0.108374655 0.041341864 -0.1289214 -0.12097155 -0.056246392

fc_layer2.bias f4 [10]
00000000: 6d08 863d fe82 2e3d 994e d93a 4410 883d
00000010: 760e 883b 40f5 f43d c286 8cbd c0fa 09be
00000020: 97f8 10bc 6f68 b8bd
0.06544576 0.042605393 0.001657921 0.066437274 0.0041521145 0.1196084 -0.068616405 -0.1347456
-0.008848331 -0.09004294
