Kurorekishi/.ipynb_checkpoints/da-cifar10.pth (torch, 711787 bytes, 30 tensors)

conv1.weight f4 [6, 3, 5, 5]
-0.06053448 0.1387881 -0.46135893 0.37488744 -0.16406669 -0.5735018 -0.49542743 -1.5028542
0.07724489 -0.5737308 0.38217235 0.4767026 0.009492928 0.5162435 0.1913607 -0.27100888
0.21309555 -0.78202176 0.30165523 -0.4167646 0.14179157 0.13942386 0.04060605 0.2525089
-0.090017825 -0.030056622 0.27645692 -0.2604682 0.30867705 0.06712284 -0.3875505 -0.36844414
-1.2903649 0.15116769 -0.37120464 0.17208256 0.38414532 0.015590885 0.20515235 0.15474917
-0.33828136 0.042075373 -0.74199003 0.23537362 -0.31992397 -0.029018298 0.16155356 0.08228056
0.050989043 -0.06212269 0.23484811 0.25026304 -0.12935828 0.14525479 0.13812304 -0.37896782
-0.17540598 -1.1403103 -0.07965736 -0.26695034 0.12839448 0.25571698 -0.025318298 -0.082295954
0.1932464 -0.24303244 0.097983964 -0.5180933 0.08726847 0.1307573 -0.07478888 0.12581426
0.13702537 -0.14917754 0.16331688 -0.10169858 -0.24995294 0.58168423 0.32106054 0.02335872
-0.0283785 0.20300631 -1.137097 0.048153643 -0.5929978 0.0049940967 0.21381427 -0.48197222
0.3235295 0.11161863 0.16100854 0.067625135 -0.6282573 0.045063972 -0.041890904 0.065936476
0.2131923 -0.3155014 0.17682303 0.105836 0.060413886 -0.27147278 0.6772419 0.001504488
0.074546576 0.07088824 0.26049638 -1.0743052 0.03302125 -0.31691822 -0.06994853 0.28867146
-0.43063632 0.30220246 0.026600441 -0.07979623 -0.09729554 -0.54245806 0.15186651 -0.03742239
-0.13651943 0.080042966 -0.28526714 0.2362383 0.05424235 -0.025434645 -0.5080584 0.3369548
-0.18032122 0.16871065 -0.108839035 0.28730494 -1.0292798 0.056734595 -0.18173502 0.0019052539
0.14306927 -0.4440987 0.18006289 0.20193942 -0.05294454 0.08167446 -0.518897 -0.094186045
0.14435333 0.031013275 0.13100928 -0.3983006 -0.07878553 -0.07275422 0.048305985 0.0654431
-0.04254238 0.8050611 -0.115783304 -0.20434295 0.0067523695 -0.05385 0.19927602 -0.35818046
-0.26006353 -0.069908835 -0.06808052 0.40257114 -0.2842724 0.12095038 0.3466509 -0.10654086
0.75767386 0.2675411 0.062066928 0.19882615 -0.05154107 0.078255974 -0.2309384 0.16589607
0.18332703 -0.16351773 0.56134194 -0.0391434 -0.0911089 -0.15881139 -0.35599914 0.17515679
-0.18155473 -0.26771268 -0.1979424 -0.2895412 0.27990106 -0.3206289 0.065890305 0.086593084
-0.1970885 0.96300185 0.001408819 -0.0665883 -0.03401311 -0.21036029 0.14700495 -0.29876328
0.31860265 0.17812642 -0.09557537 0.47464678 0.0839088 0.22613439 -0.0067531103 -0.31959474
0.13767438 -0.23630327 -0.24995404 -0.180534 -0.3169085 0.22479823 -0.18349405 0.22411127
0.31853962 -0.1272225 0.72824997 0.040107597 0.07659859 0.14812537 -0.46364635 -0.039670393
-0.09506412 -0.03857275 -0.0042164954 0.015780611 -0.008065235 -0.118913665 -0.30956474 -0.06374316
-0.097766176 -0.32833982 -0.29280272 0.32800815 0.42031643 0.46915406 0.21762532 -0.061768223
-0.59224665 -0.8870831 -1.124897 -0.81469226 0.17670585 0.26725718 0.03917311 0.2559334
0.20280161 0.02708695 0.18643555 0.22709405 0.19316527 0.10053666 0.1956757 -0.3177421
00000000: 01f3 77bd 781e 0e3e 3d37 ecbe 3ff1 bf3e
00000010: 1901 28be 04d1 12bf aaa8 fdbe 875d c0bf
00000020: 9232 9e3d 06e0 12bf 18ac c33e 5d12 f43e
00000030: 3a88 1b3c 8928 043f 0ff4 433e adc1 8abe
00000040: b835 5a3e 9432 48bf 8e72 9a3e 2b62 d5be
00000050: cf31 113e 21c5 0e3e 8852 263d d948 813e
00000060: 445b b8bd 4e39 f6bc c38b 8d3e 175c 85be
00000070: eb0a 9e3e b377 893d 056d c6be b6a4 bcbe
00000080: ad2a a5bf b4cb 1a3e 890e bebe 6936 303e
00000090: b2ae c43e e970 7f3c 7513 523e 9176 1e3e
000000a0: 3733 adbe 3a57 2c3d 0ff3 3dbf c805 713e
000000b0: 13cd a3be c8b7 edbc 4c6e 253e b682 a83d
000000c0: e3d9 503d 5d74 7ebd 067c 703e 7a22 803e
000000d0: 7f76 04be acbd 143e 2070 0d3e 1208 c2be
000000e0: a09d 33be b0f5 91bf 6623 a3bd b7ad 88be
000000f0: d879 033e 56ed 823e 5268 cfbc c88a a8bd
00000100: 62e2 453e 7fdd 78be d1ab c83d c3a1 04bf
00000110: d0b9 b23d 3ee5 053e ea2a 99bd 74d5 003e
00000120: 6150 0c3e ffc1 18be 8a3c 273e 5847 d0bd
00000130: aaf3 7fbe 42e9 143f 0c62 a43e c95a bf3c
00000140: 077a e8bc e3e0 4f3e 658c 91bf c13c 453d
00000150: b4ce 17bf 85a5 a33b 21f2 5a3e 10c5 f6be
00000160: a9a5 a53e 4f98 e43d 6cdf 243e 0c7f 8a3d
00000170: 78d5 20bf 0095 383d cc95 2bbd b409 873d
00000180: 154f 5a3e 6689 a1be 1911 353e 8bc0 d83d
00000190: 8d74 773d 7bfe 8abe ba5f 2d3f 3e32 c53a
000001a0: e0ab 983d db2d 913d c85f 853e d582 89bf
000001b0: 4a41 073d 1b43 a2be 2d41 8fbd bfcc 933e
000001c0: 5d7c dcbe 48ba 9a3e 2be9 d93c 356c a3bd
000001d0: e242 c7bd 88de 0abf e582 1b3e 3848 19bd
000001e0: c0cb 0bbe 91ed a33d 890e 92be 74e8 713e
000001f0: 3a2d 5e3d 515c d0bc 1e10 02bf 5785 ac3e
00000200: 20a6 38be 7cc2 2c3e 00e7 debd a219 933e
00000210: 71bf 83bf 8962 683d bf18 3abe b6b9 f93a
00000220: c080 123e e860 e3be 6862 383e 35c9 4e3e
00000230: 60dc 58bd f044 a73d 6fd6 04bf 9de4 c0bd
00000240: 5cd1 133e 8d0f fe3c 4c27 063e 0eee cbbe
00000250: 4f5a a1bd 2a00 95bd 7fdc 453d 0807 863d
00000260: eb40 2ebd 7c18 4e3f cc1f edbd 473f 51be
00000270: fb42 dd3b d191 5cbd 030f 4c3e 6e63 b7be
00000280: 0c27 85be 5d2c 8fbd cd6d 8bbd ce1d ce3e
00000290: 278c 91be d5b4 f73d 3a7c b13e 1832 dabd
000002a0: eaf6 413f 26fb 883e e439 7e3d 1599 4b3e
000002b0: bb1c 53bd ab44 a03d 1e7b 6cbe a9e0 293e
000002c0: 15ba 3b3e 3171 27be 1bb4 0f3f d454 20bd
000002d0: 4e97 babd 749f 22be 8545 b6be 4d5c 333e
000002e0: 7ce9 39be a311 89be 6ab1 4abe bf3e 94be
000002f0: 314f 8f3e 7929 a4be 7ff1 863d b757 b13d
00000300: 91d1 49be 4a87 763f 1fa8 b83a 725f 88bd
00000310: 5551 0bbd b068 57be 7788 163e 80f7 98be
00000320: e31f a33e c666 363e 05bd c3bd e704 f33e
00000330: 60d8 ab3d c68f 673e 3249 ddbb eca1 a3be
00000340: 83fa 0c3e 7cf9 71be f4f3 7fbe e8dd 38be
00000350: d541 a2be 8231 663e dde5 3bbe 6d7d 653e
00000360: a017 a33e 9d46 02be 976e 3a3f dd47 243d
00000370: b9df 9c3d 2dae 173e 0e63 edbe 6c7d 22bd
00000380: fab0 c2bd 76fe 1dbd 872a 8abb 5746 813c
00000390: 0c24 04bc 0289 f3bd 457f 9ebe c68b 82bd
000003a0: a239 c8bd 281c a8be 3dea 95be aff0 a73e
000003b0: b733 d73e f634 f03e 2cd9 5e3e ad00 7dbd
000003c0: 7a9d 17bf e117 63bf a0fc 8fbf ac8f 50bf
000003d0: 61f2 343e efd5 883e fc73 203d b409 833e
000003e0: 3aab 4f3e 74e5 dd3c f6e8 3e3e 588b 683e
000003f0: 1ecd 453e 2ae6 cd3d 365f 483e 18af a2be

conv1.bias f4 [6]
-4.693196 -4.238835 1.5758758 -4.55384 -3.7480638 -4.1673007
00000000: a92e 96c0 89a4 87c0 4cb6 c93f 0fb9 91c0
00000010: 47e0 6fc0 875a 85c0

conv2.weight f4 [16, 6, 5, 5]
-0.21533991 0.5453197 0.09155092 0.1433727 0.99091136 -0.6034896 -0.8224252 0.31588903
0.9684607 1.6897479 -0.052999105 0.15837774 -0.73667496 -1.1749758 -0.8766827 1.1840875
1.127873 0.53889984 0.3265159 -0.07324187 -1.4259343 -0.92386436 -0.55500984 -0.9859066
-0.58459616 0.35048127 0.49708796 0.08601032 1.2649543 0.878785 0.8035116 -1.0077249
-0.47459346 0.10823724 1.0840924 0.06389346 0.21797414 -0.249682 -0.5468721 -0.29435396
-0.058002353 0.43062338 0.31011787 0.8235319 0.59834963 0.259158 0.7185162 0.15919879
0.55382377 0.09199729 0.511484 -0.21880175 0.30432793 -0.4187538 0.259419 0.18157013
-0.12640858 -0.46169594 -0.12637463 -0.32373157 -0.37466338 -0.42608592 -0.12359753 0.19836192
-0.24129714 0.114349775 -0.043491207 0.38652763 0.17148222 0.048667833 0.110660516 -0.051244147
-0.11497528 0.15843987 -0.30425435 -0.4690808 -0.33440197 -0.20651989 0.7009402 2.4638157
0.042202786 0.32462537 -0.2914946 -1.3488091 -0.30459854 -0.37356868 0.8440394 0.2633019
-0.58929604 -0.5854306 1.4786942 1.6412761 -0.4938391 -0.47628596 0.660134 -0.7808017
-0.14987494 0.16005608 0.04731728 0.5517411 0.0017379392 0.8804161 -0.46721268 0.38351348
0.98716444 0.40902522 0.3392223 -0.015565253 -1.3149823 0.19583529 -0.37779468 0.35453427
0.9316719 -0.33372572 0.4543881 0.30086067 0.35975343 0.80269593 0.7250043 0.41503647
0.21126415 0.10412694 0.14873448 0.6827662 -0.30292517 -0.9354893 0.022509787 0.90453357
0.6228312 -0.11082777 -1.1782099 -0.42556602 0.48938054 0.636935 0.7340448 -0.9677249
-1.7314113 -0.04727064 -0.7952708 -0.82488173 -0.13345039 -1.8204217 -0.27276373 -0.24257533
-0.32262865 1.1229736 -0.26199213 0.067790456 0.50659335 0.60410804 1.1078789 0.34250632
-0.33788964 0.6721235 1.411797 2.052338 0.43897292 -0.19682696 0.7787568 -0.07862619
0.11938274 -0.1124707 -0.30582592 0.45647871 0.7450761 0.2720144 -0.43168166 -1.516595
-0.84425867 -0.73404455 0.46876556 0.16378845 0.38450858 1.2843769 1.5529495 1.1126678
0.19314805 -0.7102298 0.37457505 1.0814508 0.6663223 1.0046003 -1.3578359 0.53879666
1.3006295 0.5395882 -0.3663054 -0.13310896 0.39339834 0.028642487 -0.86440897 -0.70481914
-1.5896585 -0.5313985 -0.7687813 1.326595 0.15167147 0.0037992543 1.1978163 2.4172528
-0.24664389 0.13843328 -0.028156659 -0.028436964 0.004775151 -0.32549044 0.042200252 -0.108221084
-0.11864198 -0.22367136 0.35161686 0.091180615 -0.009711066 0.060256388 0.0059100203 -0.05683174
0.13676639 0.19587816 0.1294446 -0.026390685 -0.040395085 0.14331648 -0.4445682 0.0038481755
0.10508869 0.607926 -0.03845025 -0.035516948 0.41133738 0.20652528 0.37646598 -0.18487516
0.24199289 0.34005982 1.3160242 -0.40152544 -1.849392 -1.3556813 -1.3966856 -1.1488769
1.1877812 0.30518275 0.89953417 1.2771132 1.5764288 -0.63744247 0.50361335 1.2127202
1.2547431 1.6085916 0.97892857 -0.118325405 -1.0821198 0.3851909 1.273125 1.1024175
00000000: 1182 5cbe 129a 0b3f 0c7f bb3d 4bd0 123e
00000010: 5eac 7d3f 4b7e 1abf 758a 52bf 35bc a13e
00000020: 0aed 773f a949 d83f 9715 59bd c62d 223e
00000030: bb96 3cbf 9b65 96bf 476e 60bf 2e90 973f
00000040: 245e 903f 57f5 093f 182d a73e d5ff 95bd
00000050: 0485 b6bf 6082 6cbf 2015 0ebf 6064 7cbf
00000060: 18a8 15bf 4872 b33e 5082 fe3e 2e26 b03d
00000070: 06ea a13f 0ef8 603f f0b2 4d3f 21fd 80bf
00000080: eafd f2be 7cab dd3d 8ac3 8a3f 93da 823d
00000090: 9d34 5f3e a3ac 7fbe cfff 0bbf 90b5 96be
000000a0: e093 6dbd ab7a dc3e c5c7 9e3e fdd2 523f
000000b0: 712d 193f 5bb0 843e adf0 373f 0205 233e
000000c0: 65c7 0d3f 1369 bc3d 9ef0 023f 910d 60be
000000d0: dfd0 9b3e e666 d6be 91d2 843e 85ed 393e
000000e0: 4071 01be 6963 ecbe 5a68 01be 25c0 a5be
000000f0: e1d3 bfbe ef27 dabe b420 fdbd 631f 4b3e
00000100: 9916 77be 3730 ea3d d623 32bd f3e6 c53e
00000110: 0999 2f3e ec57 473d fba1 e23d 62e5 51bd
00000120: 2978 ebbd 103e 223e 3ac7 9bbe 5c2b f0be
00000130: bc36 abbe f379 53be d170 333f 28af 1d40
00000140: d4dc 2c3d 4c35 a63e c83e 95be c7a5 acbf
00000150: 57f4 9bbe 6544 bfbe f712 583f 82cf 863e
00000160: 1bdc 16bf c8de 15bf da45 bd3f 5615 d23f
00000170: 7ad8 fcbe c1db f3be 8bfe 283f 9fe2 47bf
00000180: d178 19be bee5 233e c4cf 413d e83e 0d3f
00000190: 90cb e33a f362 613f 8036 efbe e15b c43e
000001a0: cfb6 7c3f c16b d13e 8cae ad3e 6705 7fbc
000001b0: 5751 a8bf 0c89 483e 4e6e c1be 8485 b53e
000001c0: 0d82 6e3f 19de aabe 8fa5 e83e 690a 9a3e
000001d0: 9a31 b83e 7b7d 4d3f e299 393f a97f d43e
000001e0: a155 583e 8140 d53d da4d 183e c4c9 2e3f
000001f0: 0219 9bbe 3a7c 6fbf 7266 b83c 838f 673f
00000200: de71 1f3f abf9 e2bd 95cf 96bf cae3 d9be
00000210: 1690 fa3e 2c0e 233f 5cea 3b3f d2bc 77bf
00000220: e39e ddbf dc9e 41bd de96 4bbf 732b 53bf
00000230: 38a7 08be 9403 e9bf b0a7 8bbe ab65 78be
00000240: 952f a5be 99bd 8f3f d523 86be b9d5 8a3d
00000250: 1ab0 013f d3a6 1a3f face 8d3f fd5c af3e
00000260: dfff acbe 4910 2c3f c4b5 b43f 8159 0340
00000270: 0fc1 e03e 028d 49be 9b5c 473f c506 a1bd
00000280: f07e f43d 0a57 e6bd 3795 9cbe 94b7 e93e
00000290: 4fbd 3e3f 7945 8b3e 6105 ddbe c91f c2bf
000002a0: 5621 58bf 58ea 3bbf 0a02 f03e 29b8 273e
000002b0: 4fde c43e 7666 a43f 0dc7 c63f e66b 8e3f
000002c0: 9ac8 453e 9fd1 35bf 4dc8 bf3e fb6c 8a3f
000002d0: 1994 2a3f be96 803f 91cd adbf 94ee 093f
000002e0: 077b a63f 7422 0a3f 628c bbbe b74d 08be
000002f0: 826b c93e a6a3 ea3c e849 5dbf 076f 34bf
00000300: ee79 cbbf bb09 08bf dace 44bf ddcd a93f
00000310: c44f 1b3e e9fc 783b 0b52 993f 45b4 1a40
00000320: 3790 7cbe 74c1 0d3e cba8 e6bc a3f4 e8bc
00000330: df78 9c3b afa6 a6be 2cda 2c3d 04a3 ddbd
00000340: 91fa f2bd 1b0a 65be 2007 b43e e7bc ba3d
00000350: 2a1b 1fbc 67cf 763d d8a8 c13b 66c8 68bd
00000360: 7d0c 0c3e 4994 483e 208d 043e 4731 d8bc
00000370: 5175 25bd 8ec1 123e 719e e3be ac31 7c3b
00000380: bd38 d73d 0aa1 1b3f 027e 1dbd 387a 11bd
00000390: d09a d23e 5d7b 533e 26c0 c03e ea4f 3dbe
000003a0: fccc 773e 521c ae3e 7b73 a83f be94 cdbe
000003b0: e1b8 ecbf f786 adbf 98c6 b2bf 660e 93bf
000003c0: 3709 983f ea40 9c3e df47 663f 7278 a33f
000003d0: 6bc8 c93f 6e2f 23bf ceec 003f 6a3a 9b3f
000003e0: 6c9b a03f 54e6 cd3f 109b 7a3f 9754 f2bd
000003f0: e782 8abf be37 c53e c3f5 a23f 041c 8d3f

conv2.bias f4 [16]
-2.302553 1.910458 -1.4753717 -2.3921127 -1.8638233 -2.810403 -1.4388616 -3.4322867
-0.6078986 -1.9440597 -1.2094223 -2.902007 -2.2913072 -2.5753496 -1.2661083 -1.8960335
00000000: 075d 13c0 e389 f43f fbd8 bcbf 6018 19c0
00000010: c391 eebf a5dd 33c0 9e2c b8bf 96aa 5bc0
00000020: 3e9f 1bbf f3d6 f8bf 5ace 9abf 7cba 39c0
00000030: c7a4 12c0 87d2 24c0 d60f a2bf 3ab1 f2bf

fc1.weight f4 [120, 400]
0.063552506 0.3451182 -0.008432612 0.6945663 -0.058877014 0.83889884 0.5059526 0.28596488
0.8687341 0.15630177 0.21074177 0.20359865 -0.028313639 0.3796903 0.038857073 0.6397781
0.9675792 0.28694 0.8523978 1.1120051 0.40882164 1.237114 0.23127094 0.30751047
0.69590724 -0.3608023 -0.09084467 -0.41388634 -0.35877964 -0.17871623 -0.31776795 -0.24110804
-0.5713633 -0.6277422 -0.51558954 -0.59613156 -0.36656368 -0.51128256 -0.31628016 -0.29289344
-0.069020696 0.11039303 -0.12556101 -0.049185693 -0.5244272 -0.620571 -0.49035355 -0.5195209
-0.19611855 -0.3053834 0.10630381 0.31542778 0.20514868 0.37064955 0.18051594 1.1509998
0.79826045 0.4704265 0.55054224 0.12315609 0.87594 1.0691377 1.3086438 0.851258
0.0937557 0.2885413 0.9132992 0.63772434 0.5216509 -0.22744174 0.36684957 0.43887725
0.52491707 0.52394927 0.1417593 0.021613393 0.21955165 1.2725506 0.9985037 1.0522634
-0.06771724 0.4048915 0.6722755 0.4900115 0.63069373 -0.25980517 0.19477639 0.36254653
0.17771792 0.19392742 6.148625e-05 0.4093624 0.24090497 0.21440293 -0.16839086 0.2178636
0.1303781 0.4690704 0.5351211 -0.05874151 1.4821738 0.3866221 -0.0031553907 0.38632295
-0.72652984 1.6250314 0.7230591 0.5227924 0.43309072 -0.66461575 0.9727247 0.64504486
-0.28370655 -0.054776307 0.15361758 0.41670305 1.39697 -0.119353436 0.15526877 0.10691504
0.9928331 0.6440544 -0.21194035 0.2613414 0.13445477 1.0105178 1.2279367 1.3368592
1.550966 1.7755067 0.28072804 0.6935814 1.1832509 0.9820355 1.1161094 0.5494224
0.17508101 1.1417121 0.771184 1.6672869 0.16239889 -0.064991996 1.241068 0.7162994
0.5781161 0.8154473 0.18974666 0.54872435 0.9416412 0.63727814 0.31033215 0.18938573
0.14637968 1.3082904 0.5756628 -0.3614766 0.8293115 -0.31993884 0.7607179 0.6253823
0.45929083 0.270323 0.21039712 0.84215033 0.067029886 0.35608092 0.3310323 0.104018696
0.8253563 0.42285728 0.5403107 -0.050233264 0.38900015 0.4429502 -0.5413706 0.43574852
0.27390355 0.11215896 0.28364435 0.37189788 0.40798545 0.5843446 0.26055738 0.8661391
0.41961896 0.052814886 -0.15656137 0.107715145 0.62688863 0.30456415 -0.016614135 0.15845497
0.5242293 0.42181018 0.6121988 0.43014935 0.6755035 0.3340037 0.2516093 0.3766098
-0.07096486 0.40816048 0.86488247 1.0211022 1.2682664 -0.07543306 0.11367419 0.5813835
0.7824114 1.4173939 0.005640728 -0.051374704 0.030285966 0.04932616 0.7621772 0.24994412
-0.16821069 -0.10452855 0.29739648 0.66797215 -0.1537581 0.119245194 0.07067184 0.55433905
0.34244272 1.1292838 1.1154131 0.10927759 0.14008024 -0.05083637 0.96181744 1.0687478
0.21448125 0.22916968 -0.01950463 0.43853286 0.62641114 0.5481836 0.12943545 0.19761014
0.7298304 0.7787576 0.405047 0.23089471 0.31343523 0.2106574 0.40278172 0.104028724
0.0897821 0.19480875 -0.33378217 -0.38369858 -0.29235867 -0.18510602 -0.480775 -0.25531703
00000000: d127 823d 55b3 b03e f028 0abc 19cf 313f
00000010: 0629 71bd 13c2 563f 1c86 013f fd69 923e
00000020: 5c65 5e3f 920d 203e b1cc 573e 2a7c 503e
00000030: 01f2 e7bc c466 c23e 9828 1f3d 7fc8 233f
00000040: 45b3 773f cde9 923e be36 5a3f 2f56 8e3f
00000050: 1251 d13e c059 9e3f 4ad2 6c3e 0372 9d3e
00000060: fa26 323f 14bb b8be c50c babd e9e8 d3be
00000070: f7b1 b7be 6301 37be 7bb2 a2be 07e5 76be
00000080: dd44 12bf b6b3 20bf adfd 03bf 149c 18bf
00000090: 3cae bbbe 6ae3 02bf 79ef a1be 21f6 95be
000000a0: b95a 8dbd be15 e23d 1193 00be f076 49bd
000000b0: dc40 06bf bedd 1ebf 9f0f fbbe 52ff 04bf
000000c0: 4dd3 48be 375b 9cbe d0b5 d93d c07f a13e
000000d0: 7f12 523e c7c5 bd3e 2cd9 383e f653 933f
000000e0: cc5a 4c3f bedb f03e 56f0 0c3f 4339 fc3d
000000f0: 9b3d 603f 81d9 883f a481 a73f 0bec 593f
00000100: fd02 c03d afbb 933e facd 693f e741 233f
00000110: ea8a 053f 7de6 68be b5d3 bb3e 85b4 e03e
00000120: f760 063f 8a21 063f 5a29 113e 920e b13c
00000130: 26d2 603e f0e2 a23f f09d 7f3f 91b0 863f
00000140: 56af 8abd f04d cf3e 3f1a 2c3f cae2 fa3e
00000150: 2575 213f 2f05 85be 7673 473e b39f b93e
00000160: b0fb 353e e994 463e 2ef2 8038 f397 d13e
00000170: cbaf 763e 718c 5b3e a76e 2cbe a317 5f3e
00000180: d681 053e ff29 f03e b2fd 083f f09a 70bd
00000190: dfb7 bd3f 55f3 c53e acca 4ebb 1fcc c53e
000001a0: dcfd 39bf 0701 d03f 671a 393f b9d5 053f
000001b0: 11be dd3e 4224 2abf 7c04 793f a921 253f
000001c0: fc41 91be 1f5d 60bd ed4d 1d3e 1a5a d53e
000001d0: eacf b23f 936f f4bd c7fe 1e3e 46f6 da3d
000001e0: 4f2a 7e3f c0e0 243f e406 59be 8ace 853e
000001f0: 83ae 093e a658 813f 082d 9d3f 341e ab3f
00000200: 0e86 c63f ce43 e33f 96bb 8f3e 8d8e 313f
00000210: c474 973f ae66 7b3f acdc 8e3f f2a6 0c3f
00000220: 7048 333e 9f23 923f 516c 453f a869 d53f
00000230: e54b 263e 861a 85bd 51db 9e3f 665f 373f
00000240: 6bff 133f 27c1 503f f34c 423e 3379 0c3f
00000250: 660f 713f a924 233f dbe3 9e3e 55ee 413e
00000260: 8ee4 153e 0f76 a73f a35e 133f 7613 b9be
00000270: c24d 543f 06cf a3be 69be 423f 0e19 203f
00000280: 2b28 eb3e c767 8a3e 5872 573e 2a97 573f
00000290: f746 893d 3d50 b63e 117d a93e c107 d53d
000002a0: 8d4a 533f c080 d83e cd51 0a3f 65c1 4dbd
000002b0: 072b c73e 5eca e23e 4397 0abf 6e1a df3e
000002c0: 163d 8c3e 99b3 e53d d539 913e 6669 be3e
000002d0: 78e3 d03e 9c97 153f c767 853e 4bbb 5d3f
000002e0: 4cd8 d63e 6c54 583d a051 20be c299 dc3d
000002f0: c67b 203f d5ef 9b3e 5e1a 88bc 0542 223e
00000300: e433 063f 81f7 d73e 10b9 1c3f 893c dc3e
00000310: cced 2c3f 8802 ab3e efd2 803e 00d3 c03e
00000320: 0656 91bd 69fa d03e f068 5d3f 7ab3 823f
00000330: 8e56 a23f a67c 9abd 04ce e83d 8dd5 143f
00000340: 1d4c 483f 2a6d b53f dbd5 b83b 486e 52bd
00000350: 461a f83c 3a0a 4a3d 0c1e 433f 5af1 7f3e
00000360: 6c3f 2cbe 1013 d6bd 5a44 983e 3900 2b3f
00000370: c372 1dbe d336 f43d 66bc 903d 2ae9 0d3f
00000380: a754 af3e 5f8c 903f dbc5 8e3f eecc df3d
00000390: 3271 0f3e cc39 50bd ab39 763f bacc 883f
000003a0: f9a0 5b3e 75ab 6a3e 2cc8 9fbc 6187 e03e
000003b0: 7b5c 203f c355 0c3f ba8a 043e 505a 4a3e
000003c0: 2ad6 3a3f a85c 473f 5262 cf3e aa6f 6c3e
000003d0: 957a a03e 93b6 573e 6839 ce3e 030d d53d
000003e0: addf b73d f27b 473e 7fe5 aabe 2474 c4be
000003f0: 09b0 95be 6f8c 3dbe 2428 f6be eab8 82be

fc1.bias f4 [120]
-1.8965076 -1.1604353 -0.8560939 -1.2863872 -1.506575 -1.4546614 -1.7324566 -0.9735879
0.36880475 -1.8260367 -1.3584676 -0.8175851 -1.644147 -1.7083972 -0.9468481 -3.1644988
-2.369366 -0.9073441 -2.5913045 -1.6358933 -1.4302093 0.11596536 -1.6996222 -1.8413887
-0.45124418 -1.3770516 -1.2949467 0.17515118 -1.1580005 -1.5707848 -2.5533888 -1.7451851
-2.032963 -1.6788608 -1.6183559 -2.0469084 -1.4467274 -1.4505228 -1.7560186 -2.0953434
-2.0071576 -1.2822396 -1.2517875 -1.871151 -2.1624951 -2.0364869 -1.1902089 -1.5248158
-2.3508708 -1.7149544 0.23850681 -3.393702 -1.8341925 0.3065137 -1.9304053 -1.6306596
-1.8866212 0.96135426 -1.0072095 0.5101134 -2.2473376 -2.1639445 -2.6556704 -1.8467035
-1.8597329 -1.04392 -1.5017012 -2.3405452 -1.4841703 -1.7988627 -2.2694104 -1.0277128
-1.898074 1.0283158 -0.5962607 -2.151454 -0.6542132 -2.0853992 -1.5683905 -1.54091
-2.113592 -0.78536415 -1.597376 -1.178262 -0.81544286 -1.8723245 -0.84077907 -2.111702
-2.952906 -0.47682777 -0.9621017 -1.5880026 -1.5231241 -2.673399 -2.0457225 -0.5478871
-1.2663473 -0.6950084 -1.9692132 -0.6214348 -1.3954147 -0.9418614 -1.6710249 -1.135708
-2.7044003 -1.1451244 -1.1259793 -0.47841364 -1.7163035 -0.36027312 -1.5691878 -1.5769299
-1.3528098 -1.0719372 -0.77871984 -1.0085281 -1.5558784 -1.6102731 -2.1125128 -1.2024678
00000000: c3c0 f2bf 2589 94bf f828 5bbf 56a8 a4bf
00000010: 73d7 c0bf 5832 babf 23c1 ddbf 0e3d 79bf
00000020: fad3 bc3e 92bb e9bf 44e2 adbf 424d 51bf
00000030: 6973 d2bf c2ac dabf a364 72bf 2687 4ac0
00000040: b1a3 17c0 b447 68bf efd7 25c0 f464 d1bf
00000050: 1911 b7bf 3f7f ed3d 388d d9bf a0b2 ebbf
00000060: 7a09 e7be 3a43 b0bf d0c0 a5bf d55a 333e
00000070: 5c39 94bf 7a0f c9bf b96a 23c0 3a62 dfbf
00000080: 111c 02c0 e9e4 d6bf 4926 cfbf 8c00 03c0
00000090: 5d2e b9bf bbaa b9bf 38c5 e0bf 1b1a 06c0
000000a0: 4575 00c0 6d20 a4bf 933a a0bf e081 efbf
000000b0: 5266 0ac0 cd55 02c0 c458 98bf 2a2d c3bf
000000c0: ab74 16c0 a083 dbbf 213b 743e 6a32 59c0
000000d0: d2c6 eabf 5def 9c3e 8517 f7bf 74b9 d0bf
000000e0: ce7c f1bf 501b 763f 3eec 80bf cb96 023f
000000f0: 61d4 0fc0 117e 0ac0 81f6 29c0 c860 ecbf
00000100: ba0b eebf 2c9f 85bf bf37 c0bf 7ecb 15c0
00000110: 4bf9 bdbf 2241 e6bf 053e 11c0 188c 83bf
00000120: 17f4 f2bf da9f 833f 8ba4 18bf 6cb1 09c0
00000130: 847a 27bf 2e77 05c0 05c1 c8bf 8a3c c5bf
00000140: 1745 07c0 a00d 49bf d176 ccbf 4ad1 96bf
00000150: ddc0 50bf 54a8 efbf 4c3d 57bf 2026 07c0
00000160: 69fc 3cc0 c522 f4be 4c4c 76bf ab43 cbbf
00000170: bbf5 c2bf f818 2bc0 1eed 02c0 5442 0cbf
00000180: ab17 a2bf 12ec 31bf 2e0f fcbf 5a16 1fbf
00000190: f39c b2bf d41d 71bf 25e4 d5bf e15e 91bf
000001a0: e514 2dc0 7093 92bf 1720 90bf a2f2 f4be
000001b0: d5af dbbf b875 b8be 25db c8bf d7d8 c9bf
000001c0: df28 adbf 3d35 89bf 2f5a 47bf 7317 81bf
000001d0: 0627 c7bf 6e1d cebf 6933 07c0 77ea 99bf

fc2.weight f4 [60, 120]
0.0202129 -0.4616362 -0.29298016 -0.38120538 -0.02022218 -0.0032990328 -0.15713319 -0.12762384
-0.60693973 -0.26705506 -0.11711384 -0.43557146 -0.13907957 0.106584676 -0.5453272 0.1431505
-0.0188484 0.14713149 -0.5903838 -0.41601256 -0.09174818 0.18611823 0.25119486 -0.17779577
-0.5964433 -0.3650208 0.19942768 -0.8331249 0.049668644 -0.2471451 -0.16857615 -0.22753452
-0.072368674 -0.34049258 0.37065104 0.14960963 -0.5209785 -0.015084604 0.09284016 0.31511325
-0.26567325 -0.40863466 0.1543852 0.041113913 -0.17928757 0.7382274 -0.12084439 -0.033557028
0.013835927 -0.2158561 -0.4719496 -0.17239657 -0.36315498 -0.34335595 -0.28465924 -0.12448743
-0.40072557 -0.026082646 0.13144058 0.042448048 -0.10544902 -0.22588491 -0.12230335 -0.03451383
-0.15019265 -0.067719735 -0.5190641 -0.042492673 0.2626505 0.13025339 0.08478863 0.35228834
-0.038264796 -0.45289496 -0.24219891 0.1570851 -0.070360646 -0.3832878 -0.3262275 -0.23753615
-0.3476764 -0.098310366 -0.8140525 -0.11172812 -0.4945505 0.21391034 -0.6147224 -0.016435834
0.28200775 0.018902747 -0.095191605 -0.055924784 0.16479535 0.06453717 -0.14848588 0.13334142
-0.080074206 -0.048330165 0.08360256 0.48764068 -0.12132096 0.1315342 -0.28904197 -0.25137126
-0.07047441 0.13862678 -0.1901834 0.030537542 -0.4267016 -0.49270374 -0.12796319 0.2345807
0.0778466 0.19392358 -0.29147807 -0.1572766 -0.09202183 0.010290409 -0.07972541 0.32666615
0.18610065 0.3744707 -0.18885416 -0.29612306 0.011007739 -0.17132258 0.97346836 -0.45117858
0.024508575 0.10337008 0.25031883 -0.43769053 0.008825984 0.7018492 -0.35162196 0.20367336
0.75152224 0.26968485 0.22542296 0.03716997 -0.5803686 -0.21342674 0.82069045 0.7064668
0.21252647 0.1584366 1.0616734 -0.5990799 -0.26003143 0.6070988 0.09976892 0.10597452
-0.01570951 0.6206762 0.13013259 0.3320262 -0.10114022 0.4661606 -0.1274894 0.37668684
0.5003259 0.8954475 -0.09913066 0.296173 0.649568 0.8300086 -0.07715301 -0.34352133
-0.11778041 0.15759803 -1.0668969 -0.18954702 0.014812407 -0.41112876 0.2066918 -0.22729132
0.06058462 -0.4985001 -0.18928464 -0.38943055 0.4705971 0.6836283 0.3809494 0.7388339
0.30786753 -0.046954725 0.31668228 1.3159965 -0.24331172 0.18040036 0.9736197 -0.41278145
-0.2813925 -0.48122188 -0.19534314 0.16466503 -0.15592204 0.051840372 0.24736367 -0.08230478
0.5751477 -0.43423942 -0.06489018 0.15876381 -0.101043195 0.24564493 -0.32154918 0.21218048
-0.32355797 -0.020060722 0.08274857 0.79562145 0.02385339 0.17083207 -0.0044520954 -0.11138008
0.78386736 0.032338273 -0.6649455 0.36638606 0.11390844 0.21126385 -0.112233125 -0.2810758
0.22118026 0.13086078 0.31315014 0.36206138 0.081836395 0.105240166 0.13822682 0.002408268
0.37281606 0.6000653 -0.098396316 0.4146195 0.08517474 0.13634962 0.20513587 -0.00037697057
0.20280416 -0.15508454 -0.0065088295 0.014802807 -0.0658367 0.13676685 0.009341504 0.20200485
-0.07978325 -0.13696593 0.66557723 -0.47046942 0.10349002 0.8776684 0.42946848 -0.22543183
00000000: 8695 a53c 945b ecbe 7f01 96be 5a2d c3be
00000010: fca8 a5bc 9634 58bb 86e7 20be d3af 02be
00000020: 6760 1bbf 71bb 88be 62d9 efbd 3903 dfbe
00000030: e06a 0ebe 1149 da3d 909a 0bbf 0b96 123e
00000040: f667 9abc a3a9 163e 6523 17bf 99ff d4be
00000050: 78e6 bbbd c795 3e3e 9d9c 803e 1810 36be
00000060: 82b0 18bf 02e4 babe c536 4c3e ac47 55bf
00000070: 5971 4b3d 9b13 7dbe 3a9f 2cbe cffe 68be
00000080: 0736 94bd 0b55 aebe f9c5 bd3e 4433 193e
00000090: d95e 05bf 6a25 77bc fb22 be3d 8656 a13e
000000a0: 5306 88be 9038 d1be 2717 1e3e 1067 283d
000000b0: 2997 37be 79fc 3c3f 437d f7bd 1873 09bd
000000c0: 15b0 623c 6209 5dbe 61a3 f1be ba88 30be
000000d0: 73ef b9be 5acc afbe dbbe 91be 44f3 febd
000000e0: e72b cdbe 46ab d5bc 5c98 063e 01de 2d3d
000000f0: a8f5 d7bd 604e 67be 2e7a fabd 605e 0dbd
00000100: 1acc 19be a5b0 8abd 63e1 04bf cc0c 2ebd
00000110: 207a 863e 2561 053e a9a5 ad3d 235f b43e
00000120: 8cbb 1cbd d9e1 e7be fe02 78be ebda 203e
00000130: 3e19 90bd 4c3e c4be 4a07 a7be ad3c 73be
00000140: a402 b2be f256 c9bd bf65 50bf b6d1 e4bd
00000150: b935 fdbe 500b 5b3e 725e 1dbf 71a4 86bc
00000160: 5263 903e efd9 9a3c d1f3 c2bd 6311 65bd
00000170: 1dc0 283e 102c 843d af0c 18be a78a 083e
00000180: f2fd a3bd daf5 45bd d237 ab3d 0aac f93e
00000190: 2077 f8bd e7b0 063e 4ffd 93be bcb3 80be
000001a0: e354 90bd 2ef4 0d3e 70bf 42be de29 fa3c
000001b0: a278 dabe aa43 fcbe c808 03be ec35 703e
000001c0: 0a6e 9f3d e793 463e 9d3c 95be 1e0d 21be
000001d0: f175 bcbd 1b99 283c 1347 a3bd c940 a73e
000001e0: 2b91 3e3e a0ba bf3e fc62 41be 719d 97be
000001f0: ce59 343c 306f 2fbe 3935 793f e100 e7be
00000200: 35c6 c83c b1b3 d33d ca29 803e f918 e0be
00000210: dc9a 103c 64ac 333f cb07 b4be c08f 503e
00000220: c363 403f 2214 8a3e 47d5 663e 8a3f 183d
00000230: 0993 14bf 8a8c 5abe c518 523f 02db 343f
00000240: 8aa0 593e 343d 223e eae4 873f 4d5d 19bf
00000250: d722 85be d46a 1b3f a653 cc3d 2b09 d93d
00000260: 3bb1 80bc a3e4 1e3f 7a41 053e 57ff a93e
00000270: 9b22 cfbd 9aac ee3e 958c 02be 19dd c03e
00000280: 5c15 003f 0c3c 653f 0405 cbbd fda3 973e
00000290: 174a 263f 727b 543f 6602 9ebd 07e2 afbe
000002a0: db36 f1bd 6161 213e 1490 88bf 9d18 42be
000002b0: bdaf 723c 787f d2be 04a7 533e 0ebf 68be
000002c0: 9427 783d 683b ffbe d5d3 41be 7163 c7be
000002d0: 1af2 f03e 4402 2f3f cd0b c33e 3824 3d3f
000002e0: d0a0 9d3e 9953 40bd 2e24 a23e 9372 a83f
000002f0: b526 79be dfba 383e 243f 793f 1758 d3be
00000300: ae12 90be b762 f6be 0808 48be f39d 283e
00000310: 07aa 1fbe 9256 543d e74c 7d3e 698f a8bd
00000320: e13c 133f a154 debe 25e5 84bd fb92 223e
00000330: bcef cebd 588a 7b3e 18a2 a4be d745 593e
00000340: 64a9 a5be 6256 a4bc 1578 a93d d9ad 4b3f
00000350: 2f68 c33c 9aee 2e3e e2e2 91bb 3d1b e4bd
00000360: 88ab 483f 2375 043d de39 2abf f496 bb3e
00000370: d448 e93d 8d55 583e 7bda e5bd 2be9 8fbe
00000380: 147d 623e 5e00 063e 3755 a03e 1c60 b93e
00000390: d799 a73d 2888 d73d 558b 0d3e 08d4 1d3b
000003a0: bfe1 be3e e19d 193f 0284 c9bd 0249 d43e
000003b0: 1870 ae3d 3c9f 0b3e 230f 523e 22a4 c5b9
000003c0: e5ab 4f3e 7bce 1ebe 0548 d5bb 7987 723c
000003d0: 64d5 86bd 9c0c 0c3e 1c0d 193c 5cda 4e3e
000003e0: 6765 a3bd cc40 0cbe 4563 2a3f 5ee1 f0be
000003f0: 93f2 d33d e0ae 603f 4be3 db3e 9ad7 66be

fc2.bias f4 [60]
-1.6510724 -3.0751746 0.03241604 -0.9388017 -3.0912325 -4.703868 2.766681 -3.4404032
-2.4096646 -2.017931 -1.5973741 -1.6340117 -0.6489556 -1.3887166 1.6359961 7.387782
0.67346793 -2.3161857 0.10717177 1.6687759 -2.8019385 1.4866464 0.89446557 8.455432
-3.177815 1.0762217 0.086141355 -1.577521 -2.760016 3.9675317 4.1107025 3.4776528
-3.5192003 -2.7981386 1.7703669 0.70265853 -2.3588665 -2.590951 3.2507105 -0.9016976
-0.6565611 -2.005526 -2.900724 2.7848094 -0.3356584 2.1608946 -0.4541334 -2.5903213
-2.9670718 -1.1733856 3.0844727 -2.707087 -3.075939 -2.885223 -0.53770125 -2.4792259
0.18046764 4.467773 -2.453192 -1.063289
00000000: 5756 d3bf a9cf 44c0 aec6 043d 4f55 70bf
00000010: c1d6 45c0 1686 96c0 4d11 3140 912f 5cc0
00000020: f237 1ac0 c825 01c0 c176 ccbf 4c27 d1bf
00000030: f421 26bf 77c1 b1bf 5268 d13f b668 ec40
00000040: 6568 2c3f 633c 14c0 df7c db3d 739a d53f
00000050: f652 33c0 6e4a be3f b2fb 643f 7349 0741
00000060: 5261 4bc0 a2c1 893f e16a b03d 35ec c9bf
00000070: 1aa4 30c0 0aec 7d40 e08a 8340 dd91 5e40
00000080: 943a 61c0 b414 33c0 629b e23f 6ee1 333f
00000090: abf7 16c0 24d2 25c0 a40b 5040 a7d5 66bf
000000a0: 6314 28bf 8a5a 00c0 76a5 39c0 513a 3240
000000b0: 6bdb abbe 194c 0a40 2c84 e8be d3c7 25c0
000000c0: 81e4 3dc0 8031 96bf 0068 4540 ea40 2dc0
000000d0: 2fdc 44c0 7ea7 38c0 caa6 09bf a3ab 1ec0
000000e0: 82cc 383e fff7 8e40 1901 1dc0 db19 88bf

fc3.weight f4 [2, 60]
0.013732497 -0.10346633 -0.0006122191 -0.17045373 -0.0030246666 -0.31779948 -0.0932599 -0.080147065
-0.03837992 -0.018870128 -0.15343113 -0.08389141 0.006030821 -0.1976445 -0.11094194 -0.113883674
-0.22520109 -0.26011205 -0.021829609 -0.29512155 0.001746038 -0.178903 0.20862815 -0.08832048
-0.0049151336 0.055078935 -0.1550581 -0.06352736 0.066943765 0.18758564 0.11815996 0.07985318
-0.0045083687 -0.047118217 0.027012195 -0.14263557 0.01716167 -0.03886772 -0.060923398 0.21406932
-0.01303494 -0.06489017 -0.119583175 0.784391 -0.02364471 -0.22941944 -0.054790925 -0.026265755
0.044202305 -0.20441237 0.064572506 -0.02581695 0.001852266 -0.09352801 0.118996866 0.009094618
0.033854775 -0.01043821 -0.098336056 -0.32615858 0.055060804 0.04123332 0.20852402 0.17453603
-0.004781649 0.35174415 0.11910517 0.1279758 0.19826467 0.0038903449 0.17356013 0.009908888
-0.030361068 0.31835636 -0.059239235 0.13667455 0.21254511 0.06169189 0.07866745 0.16127473
-0.022746785 -0.044708323 -0.089003 0.027366262 0.15330637 -0.17196006 0.09196216 -0.090060934
0.1446403 -0.21780933 -0.32728702 0.02574602 -0.021089759 -0.02729379 0.14522314 0.2385879
0.11576249 0.030957505 0.059333924 0.013386223 -0.14264768 0.03894589 -0.07804548 -0.69810516
-0.09232631 0.04058903 -0.03311744 0.07714321 -0.011712484 0.053293236 -0.26202995 0.07226991
-0.02294388 0.017684277 0.0792756 0.07768702 -0.021744965 0.026697813 0.09927768 0.28833553
00000000: 44fe 603c 28e6 d3bd 547d 20ba 6c8b 2ebe
00000010: 7c39 46bb 9db6 a2be 0cff bebd 2524 a4bd
00000020: 4334 1dbd 8795 9abc 0d1d 1dbe 42cf abbd
00000030: 319e c53b 5263 4abe 8735 e3bd d83b e9bd
00000040: 1d9b 66be 682d 85be 02d4 b2bc 2c1a 97be
00000050: 50db e43a 5932 37be 9ea2 553e 5ee1 b4bd
00000060: 210f a1bb 739a 613d 8dc7 1ebe a21a 82bd
00000070: d019 893d 7316 403e d9fd f13d 108a a33d
00000080: f0ba 93bb 08ff 40bd ae48 dd3c 0f0f 12be
00000090: a196 8c3c c233 1fbd d08a 79bd fd34 5b3e
000000a0: 8090 55bc 23e5 84bd 06e8 f4bd d9cd 483f
000000b0: 8db2 c1bc eeec 6abe 736c 60bd 482b d7bc
000000c0: 7a0d 353d 7a51 51be 973e 843d 117e d3bc
000000d0: bcc7 f23a 9d8b bfbd a1b4 f33d 9801 153c
000000e0: 4eab 0a3d 0705 2bbc 6a64 c9bd 42fe a6be
000000f0: 7087 613d 45e4 283d 5287 553e 93b9 323e
00000100: 61af 9cbb cf17 b43e 69ed f33d 170c 033e
00000110: e505 4b3e 28f5 7e3b bfb9 313e e358 223c
00000120: c6b7 f8bc 9bff a23e d7a4 72bd 6af4 0b3e
00000130: 6da5 593e a3b0 7c3d 661c a13d 3425 253e
00000140: 7757 babc 1320 37bd 3447 b6bd 362f e03c
00000150: 58fc 1c3e 4c16 30be a856 bc3d de71 b8bd
00000160: 961c 143e 6909 5fbe 2a92 a7be 51e9 d23c
00000170: 6ec4 acbc 3a97 dfbc 60b5 143e 6350 743e
00000180: e214 ed3d 989a fd3c 2108 733d e451 5b3c
00000190: 3c12 12be ba85 1f3d 4fd6 9fbd 05b7 32bf
000001a0: 9415 bdbd af40 263d 27a6 07bd 42fd 9d3d
000001b0: b8e5 3fbc 024a 5a3d ca28 86be 3f02 943d
000001c0: cef4 bbbc 9ede 903c 3f5b a23d 5f1a 9f3d
000001d0: 7f22 b2bc 5fb5 da3c 1952 cb3d b7a0 933e

fc3.bias f4 [2]
3.778781 -3.7859561
00000000: 8cd7 7140 1b4d 72c0

exp_avg f4 [6, 3, 5, 5]
-4.968089e-06 -4.672057e-06 -5.2625496e-06 -5.2847454e-06 -5.647795e-06 -5.7851958e-06 -5.7927973e-06 -5.9805834e-06
-5.8086516e-06 -5.853881e-06 -4.853513e-06 -5.2030455e-06 -5.1591887e-06 -4.889062e-06 -4.328906e-06 -4.2028337e-06
-4.3161263e-06 -4.5899465e-06 -3.8283206e-06 -3.3572196e-06 -3.2664366e-06 -3.1218651e-06 -2.6960297e-06 -2.36914e-06
-2.6344958e-06 -4.905396e-06 -4.5873035e-06 -5.1875304e-06 -5.161885e-06 -5.535282e-06 -5.9565996e-06 -5.936899e-06
-6.0603297e-06 -5.8813475e-06 -5.9413205e-06 -5.610695e-06 -5.859584e-06 -5.6779063e-06 -5.2635946e-06 -4.5342886e-06
-5.596005e-06 -5.541752e-06 -5.528571e-06 -4.4523526e-06 -3.5755054e-06 -4.934896e-06 -4.630303e-06 -3.8872927e-06
-3.2237817e-06 -3.054237e-06 -4.9376367e-06 -4.5840775e-06 -5.1394495e-06 -5.2697733e-06 -5.731886e-06 -6.004549e-06
-5.9572717e-06 -5.9841595e-06 -5.941417e-06 -6.0822235e-06 -5.0408316e-06 -5.2748387e-06 -5.146324e-06 -5.042433e-06
-4.6534624e-06 -4.394821e-06 -4.3979335e-06 -4.676409e-06 -4.0270465e-06 -3.740399e-06 -3.6857139e-06 -3.4759005e-06
-3.0568167e-06 -2.7812043e-06 -2.9988037e-06 -2.593041e-06 -2.1711587e-06 -3.9976607e-07 2.0209088e-06 1.8918039e-06
-2.6153575e-06 -2.6651214e-06 -2.2768093e-06 4.72004e-08 1.0423893e-06 -2.6162468e-06 -2.6894963e-06 -2.7950373e-06
-1.0370767e-06 9.320353e-07 -2.6716807e-06 -2.8829986e-06 -2.871233e-06 -1.3786934e-06 1.348488e-06 -2.5738868e-06
-2.7502217e-06 -2.1679652e-06 -1.5952527e-06 6.75129e-07 -2.5142094e-06 -2.173534e-06 -4.5412202e-07 2.007033e-06
2.012797e-06 -2.5176614e-06 -2.6493076e-06 -2.3322661e-06 -1.4162698e-08 1.1102759e-06 -2.474303e-06 -2.618246e-06
-2.8048782e-06 -1.1288464e-06 9.590179e-07 -2.4110218e-06 -2.7688575e-06 -2.866002e-06 -1.4766568e-06 1.3390627e-06
-2.1511507e-06 -2.6499442e-06 -2.2160232e-06 -1.7109803e-06 6.205758e-07 -2.3991474e-06 -2.0924808e-06 -4.1477725e-07
1.9734935e-06 1.9377057e-06 -2.363242e-06 -2.4634933e-06 -2.1644926e-06 -4.4570275e-08 1.0207922e-06 -2.4138562e-06
-2.4820995e-06 -2.6505795e-06 -1.1757069e-06 8.4423084e-07 -2.5881363e-06 -2.6937732e-06 -2.834625e-06 -1.5836595e-06
1.1617622e-06 -2.6281775e-06 -2.592293e-06 -2.3448813e-06 -1.894379e-06 3.474203e-07 8.4736286e-08 1.1198024e-06
3.3931487e-06 4.2353363e-06 2.0697448e-06 -6.9874073e-07 -2.470409e-07 1.7414189e-06 3.126493e-06 1.1351916e-06
-8.4790685e-07 -5.759738e-07 1.908455e-06 4.1813973e-06 2.9746348e-06 1.4848586e-06 1.6748038e-06 3.9897013e-06
5.6664553e-06 4.975398e-06 2.8199822e-06 2.963368e-06 3.6054016e-06 4.460881e-06 4.6165974e-06 1.9128876e-07
1.169941e-06 3.347545e-06 4.359817e-06 2.3965442e-06 -7.631947e-07 -4.2533907e-07 1.5127506e-06 3.0110632e-06
1.164771e-06 -1.0972886e-06 -9.3264515e-07 1.557405e-06 3.831441e-06 2.720476e-06 1.3277345e-06 1.5061898e-06
3.7006714e-06 5.2846895e-06 4.578394e-06 2.8292045e-06 2.9502417e-06 3.3257143e-06 3.9798338e-06 4.2905153e-06
-1.00075795e-07 8.9802967e-07 3.1022128e-06 3.856796e-06 1.7778946e-06 -7.375582e-07 -4.6949205e-07 1.3951455e-06
2.6116204e-06 6.150707e-07 -9.2751964e-07 -9.795104e-07 1.2734537e-06 3.4520058e-06 2.1746407e-06 1.3030503e-06
1.1543439e-06 3.29096e-06 4.860165e-06 4.052714e-06 2.6532848e-06 2.5064014e-06 2.892873e-06 3.4521265e-06
3.7584193e-06 -5.8985825e-06 -5.877106e-06 -5.0088456e-06 -4.811838e-06 -5.2070413e-06 -5.7431994e-06 -5.903393e-06
-5.682205e-06 -5.3150316e-06 -4.7735502e-06 -6.102057e-06 -6.434471e-06 -6.618698e-06 -6.409725e-06 -4.644887e-06
-7.4617938e-06 -7.4732493e-06 -7.831104e-06 -7.536058e-06 -5.364441e-06 -5.6997596e-06 -6.0045704e-06 -6.4830983e-06
-7.0070796e-06 -6.2962226e-06 -5.810753e-06 -5.759823e-06 -4.897036e-06 -4.6005066e-06 -4.9382825e-06 -5.6304875e-06
00000000: 8fb3 a6b6 aac4 9cb6 f594 b0b6 9e53 b1b6
00000010: 3182 bdb6 741e c2b6 c05f c2b6 d2ac c8b6
00000020: f0e7 c2b6 746c c4b6 5cdb a2b6 d295 aeb6
00000030: 181d adb6 b90c a4b6 0541 91b6 1106 8db6
00000040: 3ed3 90b6 5703 9ab6 0675 80b6 984c 61b6
00000050: f434 5bb6 3c81 51b6 70ed 34b6 84fd 1eb6
00000060: 4bcc 30b6 0899 a4b6 a3ec 99b6 8c10 aeb6
00000070: 4134 adb6 b6bb b9b6 cdde c7b6 9335 c7b6
00000080: d659 cbb6 6458 c5b6 8e5b c7b6 8143 bcb6
00000090: 719d c4b6 d884 beb6 ef9d b0b6 3e25 98b6
000000a0: 51c5 bbb6 4af3 b9b6 1082 b9b6 6b65 95b6
000000b0: b7f2 6fb6 6f96 a5b6 005e 9bb6 976f 82b6
000000c0: 2658 58b6 64f7 4cb6 faad a5b6 edd0 99b6
000000d0: 8973 acb6 02d3 b0b6 8754 c0b6 af7a c9b6
000000e0: 93e4 c7b6 8acb c8b6 625c c7b6 e715 ccb6
000000f0: 6a24 a9b6 85fe b0b6 96ae acb6 2b32 a9b6
00000100: f024 9cb6 3a77 93b6 f691 93b6 0cea 9cb6
00000110: 1120 87b6 9103 7bb6 1558 77b6 8443 69b6
00000120: b623 4db6 baa4 3ab6 0e3f 49b6 1b04 2eb6
00000130: 39b4 11b6 6e9f d6b4 f39e 0736 e3e9 fd35
00000140: 8083 2fb6 70da 32b6 49cb 18b6 63b9 4a33
00000150: 39e8 8b35 c792 2fb6 327d 34b6 6092 3bb6
00000160: af31 8bb5 fa30 7a35 204b 33b6 8a79 41b6
00000170: 68af 40b6 8b0b b9b5 b2fd b435 0abb 2cb6
00000180: 7390 38b6 5c7d 11b6 771c d6b5 833a 3535
00000190: cab9 28b6 08dd 11b6 0ece f3b4 90b0 0636
000001a0: 9713 0736 18f5 28b6 c2ca 31b6 0784 1cb6
000001b0: 3450 73b2 ca04 9535 340c 26b6 20b5 2fb6
000001c0: 713b 3cb6 de82 97b5 9bb7 8035 0acd 21b6
000001d0: 9cd0 39b6 8a55 40b6 8b31 c6b5 d8b9 b335
000001e0: 7d5c 10b6 b2d5 31b6 fdb6 14b6 d6a4 e5b5
000001f0: a595 2635 0a01 21b6 8c6c 0cb6 8dae deb4
00000200: 5c70 0436 8809 0236 3098 1eb6 7e52 25b6
00000210: b341 11b6 896d 3fb3 2702 8935 bcfd 21b6
00000220: 2592 26b6 9ce0 31b6 fbcc 9db5 1a9f 6235
00000230: d8af 2db6 acc6 34b6 7d3a 3eb6 208e d4b5
00000240: d8ed 9b35 bf5f 30b6 41f7 2db6 c15c 1db6
00000250: 5e42 feb5 1585 ba34 44f8 b533 1e4c 9635
00000260: dab5 6336 431d 8e36 f2e5 0a36 1991 3bb5
00000270: 0ba1 84b4 b3ba e935 bed0 5136 e35c 9835
00000280: b79b 63b5 9e9c 1ab5 0213 0036 ee4d 8c36
00000290: d69f 4736 5a4b c735 d2c9 e035 46df 8536
000002a0: 7b22 be36 58f2 a636 ed3e 3d36 46de 4636
000002b0: 54f4 7136 adae 9536 45e8 9a36 0e65 4d34
000002c0: de06 9d35 63a6 6036 8b4a 9236 51d4 2036
000002d0: 57de 4cb5 285a e4b4 b709 cb35 ac11 4a36
000002e0: 3a55 9c35 8d46 93b5 e35a 7ab5 0708 d135
000002f0: d48f 8036 6c91 3636 9c34 b235 4a28 ca35
00000300: 0d59 7836 2353 b136 1ba0 9936 5ddd 3d36
00000310: c4fc 4536 562f 5f36 838a 8536 3ff7 8f36
00000320: 40e9 d6b3 2110 7135 9c2f 5036 a069 8136
00000330: fe9f ee35 9dfc 45b5 7f0e fcb4 d640 bb35
00000340: 4c43 2f36 561b 2535 aafa 78b5 b977 83b5
00000350: 89eb aa35 02a9 6736 0bf0 1136 78e4 ae35
00000360: f4ee 9a35 43da 5c36 8014 a336 8cfc 8736
00000370: 160f 3236 a633 2836 2e23 4236 15ab 6736
00000380: 2739 7c36 70ec c5b6 f533 c5b6 a811 a8b6
00000390: 6075 a1b6 25b8 aeb6 b5b5 c0b6 c215 c6b6
000003a0: c5a9 beb6 c657 b2b6 7c2c a0b6 45c0 ccb6
000003b0: afe7 d7b6 2f16 deb6 1e13 d7b6 47db 9bb6
000003c0: 5260 fab6 b9c2 fab6 5662 03b7 3fde fcb6
000003d0: 3300 b4b6 9040 bfb6 de7a c9b6 6489 d9b6
000003e0: 5b1e ebb6 2444 d3b6 fdf9 c2b6 8144 c1b6
000003f0: 3851 a4b6 0d5e 9ab6 86b3 a5b6 85ed bcb6

exp_avg_sq f4 [6, 3, 5, 5]
0.026847152 0.027296688 0.03054154 0.03490442 0.03398448 0.025926895 0.027113732 0.028480927
0.03217773 0.030596018 0.023552855 0.025940116 0.026751045 0.026324209 0.027197422 0.017426066
0.01779534 0.020298531 0.021846848 0.026054591 0.00837843 0.0074819494 0.010529278 0.018721875
0.023659889 0.02667495 0.027110295 0.029806465 0.033220537 0.031992104 0.025454283 0.026547443
0.02796837 0.031248717 0.029329965 0.022981428 0.02524849 0.026727516 0.025765212 0.026360309
0.01780864 0.017857831 0.020400256 0.021427264 0.025250698 0.009127193 0.008286372 0.011282552
0.018990895 0.023650933 0.026617592 0.027019015 0.029632203 0.03250085 0.03075567 0.02545475
0.026643254 0.028072456 0.030693116 0.028815271 0.023032652 0.025229152 0.027093481 0.025748905
0.025666721 0.017617954 0.01807477 0.02104886 0.021454543 0.02440674 0.009422674 0.00876415
0.012051489 0.019315364 0.023416845 0.000102601494 7.991148e-05 0.00010899064 7.59543e-05 8.8251385e-05
6.829267e-05 5.4374377e-05 0.00040807007 0.00027462127 0.00029289647 5.4573917e-05 0.00010761209 0.00038924755
0.00035357522 0.00027137724 0.00023916941 0.00036648294 0.0003512314 0.0003823767 0.0003015971 0.00038940116
0.00038345557 0.00033209388 0.00036715856 0.0003187447 0.0001426558 9.371707e-05 9.582209e-05 7.0909846e-05
8.202105e-05 0.000106589774 6.622033e-05 0.00041910357 0.0002558101 0.00026838254 4.708426e-05 0.00011693666
0.00040162556 0.00033839841 0.00024023253 0.00017845386 0.0003476389 0.0003501359 0.0003647667 0.0002661024
0.00033130744 0.00036404034 0.0003225029 0.00035690682 0.00028638143 0.00014344748 9.523493e-05 9.418229e-05
6.9719186e-05 7.972201e-05 0.00010242775 6.2802486e-05 0.00041632447 0.00026337386 0.00025972715 4.6059333e-05
0.00010966189 0.0003968589 0.00035600347 0.00023382493 0.00018197294 0.00033334884 0.0003376609 0.0003669677
0.00025136952 0.0003262991 0.00034771985 0.00031258957 0.0003464363 0.00026367666 0.0026763664 0.0024084488
0.0027617265 0.0026830197 0.002787835 0.002632765 0.0021105125 0.0026188623 0.0026282154 0.00293957
0.003454427 0.002960899 0.0033531215 0.0031762756 0.0030868123 0.0033457251 0.0026929986 0.0026542621
0.002399445 0.0028901282 0.0034952282 0.0026487897 0.0021143025 0.002124182 0.0028721252 0.0023446225
0.002010559 0.002300642 0.0022815503 0.0024628383 0.0023484705 0.0017987534 0.0022048804 0.00218271
0.0025009054 0.0032436678 0.002662158 0.002950581 0.0026647197 0.0026131575 0.0031352637 0.0024780845
0.002319707 0.001986868 0.002481464 0.0033308703 0.0024818343 0.0018840897 0.0018752584 0.0025925126
0.0022709903 0.0019887239 0.0022769806 0.0022206819 0.0023541518 0.0023365172 0.0018342097 0.0022132269
0.0021225992 0.002448755 0.0033416224 0.0027322492 0.0029532572 0.00258298 0.0025394598 0.0031068102
0.0025052684 0.002326914 0.0019042501 0.002376111 0.0032729264 0.0024885365 0.0018795624 0.0017837211
0.0024977475 0.02023839 0.020573683 0.019952014 0.017862782 0.01602279 0.018178208 0.021514533
0.021387275 0.02171566 0.01742584 0.01914227 0.020201683 0.019823689 0.022021564 0.018101213
0.018523002 0.018859519 0.018346932 0.019777672 0.016813451 0.012727777 0.013837256 0.015293007
0.015131877 0.014082609 0.017900748 0.018204367 0.017922787 0.015831307 0.014027172 0.016408768
00000000: 8fee db3c 4e9d df3c 4032 fa3c f0f7 0e3d
00000010: 4f33 0b3d a464 d43c 9e1d de3c d550 e93c
00000020: cccc 033d 80a4 fa3c ebf1 c03c 5e80 d43c
00000030: 0225 db3c dea5 d73c 21cd de3c 1cc1 8e3c
00000040: 88c7 913c 1b49 a63c 29f8 b23c 7070 d53c
00000050: af45 093c 242b f53b fe82 2c3c 9e5e 993c
00000060: 62d2 c13c 6d85 da3c 6916 de3c b02c f43c
00000070: 4212 083d 270a 033d 8085 d03c 067a d93c
00000080: ec1d e53c 4ffd ff3c 6545 f03c 8c43 bc3c
00000090: ecd5 ce3c aaf3 da3c 9111 d33c 93f1 d73c
000000a0: 6de3 913c 964a 923c 701e a73c 3b88 af3c
000000b0: 8dda ce3c 398a 153c 90c3 073c 74da 383c
000000c0: cb92 9b3c 9abf c13c 230d da3c fb56 dd3c
000000d0: 3cbf f23c 9c1f 053d 51f3 fb3c 7b86 d03c
000000e0: f442 da3c 35f8 e53c 2170 fb3c 010e ec3c
000000f0: f9ae bc3c 5ead ce3c 26f3 dd3c 5eef d23c
00000100: 0443 d23c 8753 903c 8a11 943c a96e ac3c
00000110: 70c1 af3c a5f0 c73c 8f61 1a3c 8297 0f3c
00000120: 9c73 453c 413b 9e3c afd4 bf3c c22b d738
00000130: 2696 a738 e791 e438 a849 9f38 9a13 b938
00000140: 5938 8f38 0b10 6438 3df2 d539 0bfb 8f39
00000150: e68f 9939 4ce6 6438 cdad e138 ec13 cc39
00000160: 1060 b939 a347 8e39 8dc9 7a39 8224 c039
00000170: 7b25 b839 bb79 c839 ad1f 9e39 8a28 cc39
00000180: 890a c939 e31c ae39 307f c039 301d a739
00000190: e095 1539 f889 c438 18f4 c838 6fb5 9438
000001a0: b702 ac38 f388 df38 c5df 8a38 21bb db39
000001b0: 401e 8639 b2b5 8c39 577c 4538 e43b f538
000001c0: 4591 d239 116b b139 eee6 7b39 581f 3b39
000001d0: 4e43 b639 7292 b739 283e bf39 a983 8b39
000001e0: 55b3 ad39 abdc be39 9b15 a939 391f bb39
000001f0: 7725 9639 646a 1639 ddb8 c738 bb83 c538
00000200: 3436 9238 6e30 a738 7bce d638 d4b4 8338
00000210: 2046 da39 7115 8a39 fd2b 8839 d52f 4138
00000220: 47fa e538 8011 d039 faa5 ba39 e72e 7539
00000230: fdcf 3e39 53c5 ae39 1408 b139 9265 c039
00000240: 3fca 8339 2013 ab39 2b4e b639 10e3 a339
00000250: e5a1 b539 153e 8a39 fa65 2f3b 11d7 1d3b
00000260: 15fe 343b 9ad5 2f3b 1cb4 363b 788a 2c3b
00000270: 8650 0a3b 38a1 2b3b 233e 2c3b cda5 403b
00000280: ab63 623b a40b 423b 0bc0 5b3b 1029 503b
00000290: 1e4c 4a3b f443 5b3b 057d 303b 21f3 2d3b
000002a0: 0240 1d3b 4e68 3d3b 3310 653b 5197 2d3b
000002b0: 1c90 0a3b dc35 0b3b 443a 3c3b 3da8 193b
000002c0: 95c3 033b 5ec6 163b 1086 153b 9267 213b
000002d0: cce8 193b 26c4 eb3a c17f 103b cc0b 0f3b
000002e0: 3be6 233b b793 543b 9a77 2e3b 895e 413b
000002f0: 94a2 2e3b 8241 2b3b ff78 4d3b 5c67 223b
00000300: 3a06 183b 1d36 023b 0fa0 223b bb4a 5a3b
00000310: 45a6 223b 8ff3 f63a 3bcb f53a 25e7 293b
00000320: e5d4 143b 4055 023b 6539 153b dc88 113b
00000330: 1d48 1a3b 4120 193b dd69 f03a c90b 113b
00000340: 4e1b 0b3b 4b7b 203b 1fff 5a3b 890f 333b
00000350: 6f8b 413b 3747 293b 116d 263b a09b 4b3b
00000360: 6e2f 243b 247f 183b 0898 f93a 87b8 1b3b
00000370: 987e 563b b716 233b a65b f63a c0cb e93a
00000380: 40b1 233b fbca a53c 248a a83c 6872 a33c
00000390: f854 923c 3a42 833c 77ea 943c 3f3f b03c
000003a0: 5e34 af3c 0ae5 b13c a3c0 8e3c 40d0 9c3c
000003b0: 007e a53c 4a65 a23c 9166 b43c ff48 943c
000003c0: 8dbd 973c 477f 9a3c 4e4c 963c c904 a23c
000003d0: 5dbc 893c 2a88 503c a8b5 623c 858f 7a3c
000003e0: b1eb 773c beba 663c 97a4 923c 5321 953c
000003f0: cfd2 923c a8b0 813c 39d2 653c ae6b 863c

exp_avg f4 [6]
6.654004e-06 3.1499853e-06 -2.5926388e-06 8.017637e-06 3.9677557e-06 1.1744224e-05
00000000: 7645 df36 5664 5336 32fd 2db6 7d83 0637
00000010: c322 8536 0f09 4537

exp_avg_sq f4 [6]
0.027255328 0.00040339117 0.006623354 0.017913323 0.023803659 0.003365081
00000000: 9146 df3c 3f7e d339 b808 d93b f6be 923c
00000010: e4ff c23c b188 5c3b
